…
I0828 10:11:17.539345 22840 net.cpp:58] Initializing net from parameters: 
state {
  phase: TRAIN
  level: 0
  stage: ""
}
layer {
  name: "data"
  type: "CPMData"
  top: "image"
  top: "label"
  transform_param {
    stride: 4
    max_rotate_degree: 45
    crop_size_x: 184
    crop_size_y: 184
    scale_prob: 1
    scale_min: 1
    scale_max: 1.4
    target_dist: 1.171
    center_perterb_max: 0
    do_clahe: false
    gray: 1
    put_gaussian: false
  }
  cpmdata_param {
    source: "D:/deeplearning/trainingdata/AllData/lmdb/Depth_half2"
    batch_size: 16
    backend: LMDB
  }
}
layer {
  name: "label_lower"
  type: "Slice"
  bottom: "label"
  top: "label_lower"
  top: "label_1st_lower"
  slice_param {
    slice_point: 15
    axis: 1
  }
}
layer {
  name: "pool_image_lower"
  type: "Pooling"
  bottom: "image"
  top: "pool_image_lower"
  pooling_param {
    pool: AVE
    kernel_size: 4
    stride: 4
  }
}
layer {
  name: "conv2_stage1"
  type: "Convolution"
  bottom: "image"
  top: "conv2_stage1"
  param {
    lr_mult: 5
    decay_mult: 1
  }
  param {
    lr_mult: 10
    decay_mult: 0
  }
  convolution_param {
    num_output: 128
    pad: 4
    kernel_size: 9
    weight_filler {
      type: "gaussian"
      std: 0.01
    }
    bias_filler {
      type: "constant"
    }
  }
}
layer {
  name: "relu2_stage1"
  type: "ReLU"
  bottom: "conv2_stage1"
  top: "conv2_stage1"
}
layer {
  name: "pool2_stage1"
  type: "Pooling"
  bottom: "conv2_stage1"
  top: "pool2_stage1"
  pooling_param {
    pool: MAX
    kernel_size: 3
    stride: 2
  }
}
layer {
  name: "conv3_stage1"
  type: "Convolution"
  bottom: "pool2_stage1"
  top: "conv3_stage1"
  param {
    lr_mult: 5
    decay_mult: 1
  }
  param {
    lr_mult: 10
    decay_mult: 0
  }
  convolution_param {
    num_output: 128
    pad: 4
    kernel_size: 9
    weight_filler {
      type: "gaussian"
      std: 0.01
    }
    bias_filler {
      type: "constant"
    }
  }
}
layer {
  name: "relu3_stage1"
  type: "ReLU"
  bottom: "conv3_stage1"
  top: "conv3_stage1"
}
layer {
  name: "pool3_stage1"
  type: "Pooling"
  bottom: "conv3_stage1"
  top: "pool3_stage1"
  pooling_param {
    pool: MAX
    kernel_size: 3
    stride: 2
  }
}
layer {
  name: "conv4_stage1"
  type: "Convolution"
  bottom: "pool3_stage1"
  top: "conv4_stage1"
  param {
    lr_mult: 5
    decay_mult: 1
  }
  param {
    lr_mult: 10
    decay_mult: 0
  }
  convolution_param {
    num_output: 64
    pad: 2
    kernel_size: 5
    weight_filler {
      type: "gaussian"
      std: 0.01
    }
    bias_filler {
      type: "constant"
    }
  }
}
layer {
  name: "relu4_stage1"
  type: "ReLU"
  bottom: "conv4_stage1"
  top: "conv4_stage1"
}
layer {
  name: "drop1_stage1"
  type: "Dropout"
  bottom: "conv4_stage1"
  top: "conv4_stage1"
  dropout_param {
    dropout_ratio: 0.5
  }
}
layer {
  name: "conv6_stage1"
  type: "Convolution"
  bottom: "conv4_stage1"
  top: "conv6_stage1"
  param {
    lr_mult: 5
    decay_mult: 1
  }
  param {
    lr_mult: 10
    decay_mult: 0
  }
  convolution_param {
    num_output: 64
    pad: 0
    kernel_size: 1
    weight_filler {
      type: "gaussian"
      std: 0.01
    }
    bias_filler {
      type: "constant"
    }
  }
}
layer {
  name: "relu6_stage1"
  type: "ReLU"
  bottom: "conv6_stage1"
  top: "conv6_stage1"
}
layer {
  name: "drop2_stage1"
  type: "Dropout"
  bottom: "conv6_stage1"
  top: "conv6_stage1"
  dropout_param {
    dropout_ratio: 0.5
  }
}
layer {
  name: "conv7_stage1"
  type: "Convolution"
  bottom: "conv6_stage1"
  top: "conv7_stage1"
  param {
    lr_mult: 5
    decay_mult: 1
  }
  param {
    lr_mult: 10
    decay_mult: 0
  }
  convolution_param {
    num_output: 15
    pad: 0
    kernel_size: 1
    weight_filler {
      type: "gaussian"
      std: 0.01
    }
    bias_filler {
      type: "constant"
    }
  }
}
layer {
  name: "loss_stage1"
  type: "EuclideanLoss"
  bottom: "conv7_stage1"
  bottom: "label_1st_lower"
  top: "loss_stage1"
}
layer {
  name: "conv2_stage2"
  type: "Convolution"
  bottom: "image"
  top: "conv2_stage2"
  param {
    lr_mult: 1
    decay_mult: 1
  }
  param {
    lr_mult: 2
    decay_mult: 0
  }
  convolution_param {
    num_output: 128
    pad: 4
    kernel_size: 9
    weight_filler {
      type: "gaussian"
      std: 0.01
    }
    bias_filler {
      type: "constant"
    }
  }
}
layer {
  name: "relu2_stage2"
  type: "ReLU"
  bottom: "conv2_stage2"
  top: "conv2_stage2"
}
layer {
  name: "pool2_stage2"
  type: "Pooling"
  bottom: "conv2_stage2"
  top: "pool2_stage2"
  pooling_param {
    pool: MAX
    kernel_size: 3
    stride: 2
  }
}
layer {
  name: "conv3_stage2"
  type: "Convolution"
  bottom: "pool2_stage2"
  top: "conv3_stage2"
  param {
    lr_mult: 1
    decay_mult: 1
  }
  param {
    lr_mult: 2
    decay_mult: 0
  }
  convolution_param {
    num_output: 128
    pad: 4
    kernel_size: 9
    weight_filler {
      type: "gaussian"
      std: 0.01
    }
    bias_filler {
      type: "constant"
    }
  }
}
layer {
  name: "relu3_stage2"
  type: "ReLU"
  bottom: "conv3_stage2"
  top: "conv3_stage2"
}
layer {
  name: "pool3_stage2"
  type: "Pooling"
  bottom: "conv3_stage2"
  top: "pool3_stage2"
  pooling_param {
    pool: MAX
    kernel_size: 3
    stride: 2
  }
}
layer {
  name: "conv4_stage2"
  type: "Convolution"
  bottom: "pool3_stage2"
  top: "conv4_stage2"
  param {
    lr_mult: 1
    decay_mult: 1
  }
  param {
    lr_mult: 2
    decay_mult: 0
  }
  convolution_param {
    num_output: 64
    pad: 2
    kernel_size: 5
    weight_filler {
      type: "gaussian"
      std: 0.01
    }
    bias_filler {
      type: "constant"
    }
  }
}
layer {
  name: "relu4_stage2"
  type: "ReLU"
  bottom: "conv4_stage2"
  top: "conv4_stage2"
}
layer {
  name: "concat_stage2"
  type: "Concat"
  bottom: "conv4_stage2"
  bottom: "conv7_stage1"
  bottom: "pool_image_lower"
  top: "concat_stage2"
  concat_param {
    axis: 1
  }
}
layer {
  name: "Mconv1_stage2"
  type: "Convolution"
  bottom: "concat_stage2"
  top: "Mconv1_stage2"
  param {
    lr_mult: 1
    decay_mult: 1
  }
  param {
    lr_mult: 2
    decay_mult: 0
  }
  convolution_param {
    num_output: 64
    pad: 5
    kernel_size: 11
    weight_filler {
      type: "gaussian"
      std: 0.01
    }
    bias_filler {
      type: "constant"
    }
  }
}
layer {
  name: "Mrelu1_stage2"
  type: "ReLU"
  bottom: "Mconv1_stage2"
  top: "Mconv1_stage2"
}
layer {
  name: "Mconv3_stage2"
  type: "Convolution"
  bottom: "Mconv1_stage2"
  top: "Mconv3_stage2"
  param {
    lr_mult: 1
    decay_mult: 1
  }
  param {
    lr_mult: 2
    decay_mult: 0
  }
  convolution_param {
    num_output: 64
    pad: 5
    kernel_size: 11
    weight_filler {
      type: "gaussian"
      std: 0.01
    }
    bias_filler {
      type: "constant"
    }
  }
}
layer {
  name: "Mrelu3_stage2"
  type: "ReLU"
  bottom: "Mconv3_stage2"
  top: "Mconv3_stage2"
}
layer {
  name: "Mconv4_stage2"
  type: "Convolution"
  bottom: "Mconv3_stage2"
  top: "Mconv4_stage2"
  param {
    lr_mult: 1
    decay_mult: 1
  }
  param {
    lr_mult: 2
    decay_mult: 0
  }
  convolution_param {
    num_output: 64
    pad: 0
    kernel_size: 1
    weight_filler {
      type: "gaussian"
      std: 0.01
    }
    bias_filler {
      type: "constant"
    }
  }
}
layer {
  name: "Mrelu4_stage2"
  type: "ReLU"
  bottom: "Mconv4_stage2"
  top: "Mconv4_stage2"
}
layer {
  name: "Mconv5_stage2"
  type: "Convolution"
  bottom: "Mconv4_stage2"
  top: "Mconv5_stage2"
  param {
    lr_mult: 1
    decay_mult: 1
  }
  param {
    lr_mult: 2
    decay_mult: 0
  }
  convolution_param {
    num_output: 15
    pad: 0
    kernel_size: 1
    weight_filler {
      type: "gaussian"
      std: 0.01
    }
    bias_filler {
      type: "constant"
    }
  }
}
layer {
  name: "loss_stage2"
  type: "EuclideanLoss"
  bottom: "Mconv5_stage2"
  bottom: "label_lower"
  top: "loss_stage2"
}
layer {
  name: "conv1_stage3"
  type: "Convolution"
  bottom: "pool3_stage2"
  top: "conv1_stage3"
  param {
    lr_mult: 1
    decay_mult: 1
  }
  param {
    lr_mult: 2
    decay_mult: 0
  }
  convolution_param {
    num_output: 64
    pad: 2
    kernel_size: 5
    weight_filler {
      type: "gaussian"
      std: 0.01
    }
    bias_filler {
      type: "constant"
    }
  }
}
layer {
  name: "relu1_stage3"
  type: "ReLU"
  bottom: "conv1_stage3"
  top: "conv1_stage3"
}
layer {
  name: "concat_stage3"
  type: "Concat"
  bottom: "conv1_stage3"
  bottom: "Mconv5_stage2"
  bottom: "pool_image_lower"
  top: "concat_stage3"
  concat_param {
    axis: 1
  }
}
layer {
  name: "Mconv1_stage3"
  type: "Convolution"
  bottom: "concat_stage3"
  top: "Mconv1_stage3"
  param {
    lr_mult: 1
    decay_mult: 1
  }
  param {
    lr_mult: 2
    decay_mult: 0
  }
  convolution_param {
    num_output: 64
    pad: 5
    kernel_size: 11
    weight_filler {
      type: "gaussian"
      std: 0.01
    }
    bias_filler {
      type: "constant"
    }
  }
}
layer {
  name: "Mrelu1_stage3"
  type: "ReLU"
  bottom: "Mconv1_stage3"
  top: "Mconv1_stage3"
}
layer {
  name: "Mconv3_stage3"
  type: "Convolution"
  bottom: "Mconv1_stage3"
  top: "Mconv3_stage3"
  param {
    lr_mult: 1
    decay_mult: 1
  }
  param {
    lr_mult: 2
    decay_mult: 0
  }
  convolution_param {
    num_output: 64
    pad: 5
    kernel_size: 11
    weight_filler {
      type: "gaussian"
      std: 0.01
    }
    bias_filler {
      type: "constant"
    }
  }
}
layer {
  name: "Mrelu3_stage3"
  type: "ReLU"
  bottom: "Mconv3_stage3"
  top: "Mconv3_stage3"
}
layer {
  name: "Mconv4_stage3"
  type: "Convolution"
  bottom: "Mconv3_stage3"
  top: "Mconv4_stage3"
  param {
    lr_mult: 1
    decay_mult: 1
  }
  param {
    lr_mult: 2
    decay_mult: 0
  }
  convolution_param {
    num_output: 64
    pad: 0
    kernel_size: 1
    weight_filler {
      type: "gaussian"
      std: 0.01
    }
    bias_filler {
      type: "constant"
    }
  }
}
layer {
  name: "Mrelu4_stage3"
  type: "ReLU"
  bottom: "Mconv4_stage3"
  top: "Mconv4_stage3"
}
layer {
  name: "Mconv5_stage3"
  type: "Convolution"
  bottom: "Mconv4_stage3"
  top: "Mconv5_stage3"
  param {
    lr_mult: 1
    decay_mult: 1
  }
  param {
    lr_mult: 2
    decay_mult: 0
  }
  convolution_param {
    num_output: 15
    pad: 0
    kernel_size: 1
    weight_filler {
      type: "gaussian"
      std: 0.01
    }
    bias_filler {
      type: "constant"
    }
  }
}
layer {
  name: "loss_stage3"
  type: "EuclideanLoss"
  bottom: "Mconv5_stage3"
  bottom: "label_lower"
  top: "loss_stage3"
}
layer {
  name: "conv1_stage4"
  type: "Convolution"
  bottom: "pool3_stage2"
  top: "conv1_stage4"
  param {
    lr_mult: 1
    decay_mult: 1
  }
  param {
    lr_mult: 2
    decay_mult: 0
  }
  convolution_param {
    num_output: 32
    pad: 2
    kernel_size: 5
    weight_filler {
      type: "gaussian"
      std: 0.01
    }
    bias_filler {
      type: "constant"
    }
  }
}
layer {
  name: "relu1_stage4"
  type: "ReLU"
  bottom: "conv1_stage4"
  top: "conv1_stage4"
}
layer {
  name: "concat_stage4"
  type: "Concat"
  bottom: "conv1_stage4"
  bottom: "Mconv5_stage3"
  bottom: "pool_image_lower"
  top: "concat_stage4"
  concat_param {
    axis: 1
  }
}
layer {
  name: "Mconv1_stage4"
  type: "Convolution"
  bottom: "concat_stage4"
  top: "Mconv1_stage4"
  param {
    lr_mult: 1
    decay_mult: 1
  }
  param {
    lr_mult: 2
    decay_mult: 0
  }
  convolution_param {
    num_output: 64
    pad: 5
    kernel_size: 11
    weight_filler {
      type: "gaussian"
      std: 0.01
    }
    bias_filler {
      type: "constant"
    }
  }
}
layer {
  name: "Mrelu1_stage4"
  type: "ReLU"
  bottom: "Mconv1_stage4"
  top: "Mconv1_stage4"
}
layer {
  name: "Mconv3_stage4"
  type: "Convolution"
  bottom: "Mconv1_stage4"
  top: "Mconv3_stage4"
  param {
    lr_mult: 1
    decay_mult: 1
  }
  param {
    lr_mult: 2
    decay_mult: 0
  }
  convolution_param {
    num_output: 64
    pad: 5
    kernel_size: 11
    weight_filler {
      type: "gaussian"
      std: 0.01
    }
    bias_filler {
      type: "constant"
    }
  }
}
layer {
  name: "Mrelu3_stage4"
  type: "ReLU"
  bottom: "Mconv3_stage4"
  top: "Mconv3_stage4"
}
layer {
  name: "Mconv4_stage4"
  type: "Convolution"
  bottom: "Mconv3_stage4"
  top: "Mconv4_stage4"
  param {
    lr_mult: 1
    decay_mult: 1
  }
  param {
    lr_mult: 2
    decay_mult: 0
  }
  convolution_param {
    num_output: 64
    pad: 0
    kernel_size: 1
    weight_filler {
      type: "gaussian"
      std: 0.01
    }
    bias_filler {
      type: "constant"
    }
  }
}
layer {
  name: "Mrelu4_stage4"
  type: "ReLU"
  bottom: "Mconv4_stage4"
  top: "Mconv4_stage4"
}
layer {
  name: "Mconv5_stage4"
  type: "Convolution"
  bottom: "Mconv4_stage4"
  top: "Mconv5_stage4"
  param {
    lr_mult: 1
    decay_mult: 1
  }
  param {
    lr_mult: 2
    decay_mult: 0
  }
  convolution_param {
    num_output: 15
    pad: 0
    kernel_size: 1
    weight_filler {
      type: "gaussian"
      std: 0.01
    }
    bias_filler {
      type: "constant"
    }
  }
}
layer {
  name: "loss_stage4"
  type: "EuclideanLoss"
  bottom: "Mconv5_stage4"
  bottom: "label_lower"
  top: "loss_stage4"
}
I0828 10:11:17.548342 22840 layer_factory.hpp:77] Creating layer data
I0828 10:11:17.548342 22840 common.cpp:36] System entropy source not available, using fallback algorithm to generate seed instead.
I0828 10:11:17.548342 22840 net.cpp:100] Creating Layer data
I0828 10:11:17.549335 22840 net.cpp:418] data -> image
I0828 10:11:17.549335 22840 net.cpp:418] data -> label
I0828 10:11:17.549335 22840 data_transformer.cpp:260] DataTransformer constructor done.
I0828 10:11:17.550335 27288 common.cpp:36] System entropy source not available, using fallback algorithm to generate seed instead.
I0828 10:11:17.555336 27288 db_lmdb.cpp:40] Opened lmdb D:/deeplearning/trainingdata/AllData/lmdb/Depth_half2
I0828 10:11:17.594296 22840 cpm_data_layer.cpp:62] output data size: 16,1,184,184
I0828 10:11:17.595301 22840 cpm_data_layer.cpp:77] output label size: 16,30,46,46
I0828 10:11:17.611281 22840 net.cpp:150] Setting up data
I0828 10:11:17.611281 22840 net.cpp:157] Top shape: 16 1 184 184 (541696)
I0828 10:11:17.611281 22840 net.cpp:157] Top shape: 16 30 46 46 (1015680)
I0828 10:11:17.611281 22840 net.cpp:165] Memory required for data: 6229504
I0828 10:11:17.611281 22840 layer_factory.hpp:77] Creating layer image_data_0_split
I0828 10:11:17.612296 22840 net.cpp:100] Creating Layer image_data_0_split
I0828 10:11:17.612296 22840 net.cpp:444] image_data_0_split <- image
I0828 10:11:17.612296 22840 net.cpp:418] image_data_0_split -> image_data_0_split_0
I0828 10:11:17.612296 22840 net.cpp:418] image_data_0_split -> image_data_0_split_1
I0828 10:11:17.612296 22840 net.cpp:418] image_data_0_split -> image_data_0_split_2
I0828 10:11:17.612296 22840 net.cpp:150] Setting up image_data_0_split
I0828 10:11:17.613279 28172 common.cpp:36] System entropy source not available, using fallback algorithm to generate seed instead.
I0828 10:11:17.615283 22840 net.cpp:157] Top shape: 16 1 184 184 (541696)
I0828 10:11:17.615283 22840 net.cpp:157] Top shape: 16 1 184 184 (541696)
I0828 10:11:17.615283 22840 net.cpp:157] Top shape: 16 1 184 184 (541696)
I0828 10:11:17.615283 22840 net.cpp:165] Memory required for data: 12729856
I0828 10:11:17.615283 22840 layer_factory.hpp:77] Creating layer label_lower
I0828 10:11:17.616277 22840 net.cpp:100] Creating Layer label_lower
I0828 10:11:17.616277 22840 net.cpp:444] label_lower <- label
I0828 10:11:17.616277 22840 net.cpp:418] label_lower -> label_lower
I0828 10:11:17.616277 22840 net.cpp:418] label_lower -> label_1st_lower
I0828 10:11:17.616277 22840 net.cpp:150] Setting up label_lower
I0828 10:11:17.617277 22840 net.cpp:157] Top shape: 16 15 46 46 (507840)
I0828 10:11:17.617277 22840 net.cpp:157] Top shape: 16 15 46 46 (507840)
I0828 10:11:17.617277 22840 net.cpp:165] Memory required for data: 16792576
I0828 10:11:17.617277 22840 layer_factory.hpp:77] Creating layer label_lower_label_lower_0_split
I0828 10:11:17.617277 28172 data_transformer.cpp:71] dataset: Depth; img_size: [512 x 384]; meta.annolist_index: 4841; meta.write_number: 0; meta.total_write_number: 14183; meta.epoch: 0
I0828 10:11:17.617277 22840 net.cpp:100] Creating Layer label_lower_label_lower_0_split
I0828 10:11:17.617277 22840 net.cpp:444] label_lower_label_lower_0_split <- label_lower
I0828 10:11:17.618280 22840 net.cpp:418] label_lower_label_lower_0_split -> label_lower_label_lower_0_split_0
I0828 10:11:17.618280 22840 net.cpp:418] label_lower_label_lower_0_split -> label_lower_label_lower_0_split_1
I0828 10:11:17.618280 22840 net.cpp:418] label_lower_label_lower_0_split -> label_lower_label_lower_0_split_2
I0828 10:11:17.618280 22840 net.cpp:150] Setting up label_lower_label_lower_0_split
I0828 10:11:17.618280 22840 net.cpp:157] Top shape: 16 15 46 46 (507840)
I0828 10:11:17.618280 22840 net.cpp:157] Top shape: 16 15 46 46 (507840)
I0828 10:11:17.618280 22840 net.cpp:157] Top shape: 16 15 46 46 (507840)
I0828 10:11:17.619273 22840 net.cpp:165] Memory required for data: 22886656
I0828 10:11:17.619273 22840 layer_factory.hpp:77] Creating layer pool_image_lower
I0828 10:11:17.619273 22840 net.cpp:100] Creating Layer pool_image_lower
I0828 10:11:17.619273 22840 net.cpp:444] pool_image_lower <- image_data_0_split_0
I0828 10:11:17.619273 22840 net.cpp:418] pool_image_lower -> pool_image_lower
I0828 10:11:17.925001 22840 net.cpp:150] Setting up pool_image_lower
I0828 10:11:17.925001 22840 net.cpp:157] Top shape: 16 1 46 46 (33856)
I0828 10:11:17.926007 22840 net.cpp:165] Memory required for data: 23022080
I0828 10:11:17.926007 22840 layer_factory.hpp:77] Creating layer pool_image_lower_pool_image_lower_0_split
I0828 10:11:17.926007 22840 net.cpp:100] Creating Layer pool_image_lower_pool_image_lower_0_split
I0828 10:11:17.926007 22840 net.cpp:444] pool_image_lower_pool_image_lower_0_split <- pool_image_lower
I0828 10:11:17.926007 22840 net.cpp:418] pool_image_lower_pool_image_lower_0_split -> pool_image_lower_pool_image_lower_0_split_0
I0828 10:11:17.926007 22840 net.cpp:418] pool_image_lower_pool_image_lower_0_split -> pool_image_lower_pool_image_lower_0_split_1
I0828 10:11:17.926007 22840 net.cpp:418] pool_image_lower_pool_image_lower_0_split -> pool_image_lower_pool_image_lower_0_split_2
I0828 10:11:17.927000 22840 net.cpp:150] Setting up pool_image_lower_pool_image_lower_0_split
I0828 10:11:17.927000 22840 net.cpp:157] Top shape: 16 1 46 46 (33856)
I0828 10:11:17.927000 22840 net.cpp:157] Top shape: 16 1 46 46 (33856)
I0828 10:11:17.927000 22840 net.cpp:157] Top shape: 16 1 46 46 (33856)
I0828 10:11:17.927000 22840 net.cpp:165] Memory required for data: 23428352
I0828 10:11:17.927000 22840 layer_factory.hpp:77] Creating layer conv2_stage1
I0828 10:11:17.927000 22840 net.cpp:100] Creating Layer conv2_stage1
I0828 10:11:17.927000 22840 net.cpp:444] conv2_stage1 <- image_data_0_split_1
I0828 10:11:17.927000 22840 net.cpp:418] conv2_stage1 -> conv2_stage1
I0828 10:11:17.930995 22840 net.cpp:150] Setting up conv2_stage1
I0828 10:11:17.930995 22840 net.cpp:157] Top shape: 16 128 184 184 (69337088)
I0828 10:11:17.930995 22840 net.cpp:165] Memory required for data: 300776704
I0828 10:11:17.930995 22840 layer_factory.hpp:77] Creating layer relu2_stage1
I0828 10:11:17.930995 22840 net.cpp:100] Creating Layer relu2_stage1
I0828 10:11:17.930995 22840 net.cpp:444] relu2_stage1 <- conv2_stage1
I0828 10:11:17.930995 22840 net.cpp:405] relu2_stage1 -> conv2_stage1 (in-place)
I0828 10:11:17.931994 22840 net.cpp:150] Setting up relu2_stage1
I0828 10:11:17.931994 22840 net.cpp:157] Top shape: 16 128 184 184 (69337088)
I0828 10:11:17.931994 22840 net.cpp:165] Memory required for data: 578125056
I0828 10:11:17.931994 22840 layer_factory.hpp:77] Creating layer pool2_stage1
I0828 10:11:17.932993 22840 net.cpp:100] Creating Layer pool2_stage1
I0828 10:11:17.932993 22840 net.cpp:444] pool2_stage1 <- conv2_stage1
I0828 10:11:17.932993 22840 net.cpp:418] pool2_stage1 -> pool2_stage1
I0828 10:11:17.932993 22840 net.cpp:150] Setting up pool2_stage1
I0828 10:11:17.932993 22840 net.cpp:157] Top shape: 16 128 92 92 (17334272)
I0828 10:11:17.932993 22840 net.cpp:165] Memory required for data: 647462144
I0828 10:11:17.932993 22840 layer_factory.hpp:77] Creating layer conv3_stage1
I0828 10:11:17.932993 22840 net.cpp:100] Creating Layer conv3_stage1
I0828 10:11:17.932993 22840 net.cpp:444] conv3_stage1 <- pool2_stage1
I0828 10:11:17.932993 22840 net.cpp:418] conv3_stage1 -> conv3_stage1
I0828 10:11:17.952980 22840 net.cpp:150] Setting up conv3_stage1
I0828 10:11:17.953974 22840 net.cpp:157] Top shape: 16 128 92 92 (17334272)
I0828 10:11:17.953974 22840 net.cpp:165] Memory required for data: 716799232
I0828 10:11:17.953974 22840 layer_factory.hpp:77] Creating layer relu3_stage1
I0828 10:11:17.953974 22840 net.cpp:100] Creating Layer relu3_stage1
I0828 10:11:17.953974 22840 net.cpp:444] relu3_stage1 <- conv3_stage1
I0828 10:11:17.953974 22840 net.cpp:405] relu3_stage1 -> conv3_stage1 (in-place)
I0828 10:11:17.953974 22840 net.cpp:150] Setting up relu3_stage1
I0828 10:11:17.953974 22840 net.cpp:157] Top shape: 16 128 92 92 (17334272)
I0828 10:11:17.953974 22840 net.cpp:165] Memory required for data: 786136320
I0828 10:11:17.953974 22840 layer_factory.hpp:77] Creating layer pool3_stage1
I0828 10:11:17.954974 22840 net.cpp:100] Creating Layer pool3_stage1
I0828 10:11:17.954974 22840 net.cpp:444] pool3_stage1 <- conv3_stage1
I0828 10:11:17.954974 22840 net.cpp:418] pool3_stage1 -> pool3_stage1
I0828 10:11:17.954974 22840 net.cpp:150] Setting up pool3_stage1
I0828 10:11:17.954974 22840 net.cpp:157] Top shape: 16 128 46 46 (4333568)
I0828 10:11:17.954974 22840 net.cpp:165] Memory required for data: 803470592
I0828 10:11:17.954974 22840 layer_factory.hpp:77] Creating layer conv4_stage1
I0828 10:11:17.954974 22840 net.cpp:100] Creating Layer conv4_stage1
I0828 10:11:17.954974 22840 net.cpp:444] conv4_stage1 <- pool3_stage1
I0828 10:11:17.954974 22840 net.cpp:418] conv4_stage1 -> conv4_stage1
I0828 10:11:17.960974 22840 net.cpp:150] Setting up conv4_stage1
I0828 10:11:17.960974 22840 net.cpp:157] Top shape: 16 64 46 46 (2166784)
I0828 10:11:17.960974 22840 net.cpp:165] Memory required for data: 812137728
I0828 10:11:17.960974 22840 layer_factory.hpp:77] Creating layer relu4_stage1
I0828 10:11:17.960974 22840 net.cpp:100] Creating Layer relu4_stage1
I0828 10:11:17.960974 22840 net.cpp:444] relu4_stage1 <- conv4_stage1
I0828 10:11:17.960974 22840 net.cpp:405] relu4_stage1 -> conv4_stage1 (in-place)
I0828 10:11:17.965963 22840 net.cpp:150] Setting up relu4_stage1
I0828 10:11:17.965963 22840 net.cpp:157] Top shape: 16 64 46 46 (2166784)
I0828 10:11:17.965963 22840 net.cpp:165] Memory required for data: 820804864
I0828 10:11:17.965963 22840 layer_factory.hpp:77] Creating layer drop1_stage1
I0828 10:11:17.965963 22840 net.cpp:100] Creating Layer drop1_stage1
I0828 10:11:17.965963 22840 net.cpp:444] drop1_stage1 <- conv4_stage1
I0828 10:11:17.966964 22840 net.cpp:405] drop1_stage1 -> conv4_stage1 (in-place)
I0828 10:11:17.966964 22840 net.cpp:150] Setting up drop1_stage1
I0828 10:11:17.966964 22840 net.cpp:157] Top shape: 16 64 46 46 (2166784)
I0828 10:11:17.966964 22840 net.cpp:165] Memory required for data: 829472000
I0828 10:11:17.966964 22840 layer_factory.hpp:77] Creating layer conv6_stage1
I0828 10:11:17.966964 22840 net.cpp:100] Creating Layer conv6_stage1
I0828 10:11:17.966964 22840 net.cpp:444] conv6_stage1 <- conv4_stage1
I0828 10:11:17.967972 22840 net.cpp:418] conv6_stage1 -> conv6_stage1
I0828 10:11:17.968967 22840 net.cpp:150] Setting up conv6_stage1
I0828 10:11:17.969972 22840 net.cpp:157] Top shape: 16 64 46 46 (2166784)
I0828 10:11:17.969972 22840 net.cpp:165] Memory required for data: 838139136
I0828 10:11:17.969972 22840 layer_factory.hpp:77] Creating layer relu6_stage1
I0828 10:11:17.969972 22840 net.cpp:100] Creating Layer relu6_stage1
I0828 10:11:17.969972 22840 net.cpp:444] relu6_stage1 <- conv6_stage1
I0828 10:11:17.969972 22840 net.cpp:405] relu6_stage1 -> conv6_stage1 (in-place)
I0828 10:11:17.970960 22840 net.cpp:150] Setting up relu6_stage1
I0828 10:11:17.970960 22840 net.cpp:157] Top shape: 16 64 46 46 (2166784)
I0828 10:11:17.970960 22840 net.cpp:165] Memory required for data: 846806272
I0828 10:11:17.970960 22840 layer_factory.hpp:77] Creating layer drop2_stage1
I0828 10:11:17.970960 22840 net.cpp:100] Creating Layer drop2_stage1
I0828 10:11:17.970960 22840 net.cpp:444] drop2_stage1 <- conv6_stage1
I0828 10:11:17.970960 22840 net.cpp:405] drop2_stage1 -> conv6_stage1 (in-place)
I0828 10:11:17.970960 22840 net.cpp:150] Setting up drop2_stage1
I0828 10:11:17.971959 22840 net.cpp:157] Top shape: 16 64 46 46 (2166784)
I0828 10:11:17.971959 22840 net.cpp:165] Memory required for data: 855473408
I0828 10:11:17.971959 22840 layer_factory.hpp:77] Creating layer conv7_stage1
I0828 10:11:17.971959 22840 net.cpp:100] Creating Layer conv7_stage1
I0828 10:11:17.971959 22840 net.cpp:444] conv7_stage1 <- conv6_stage1
I0828 10:11:17.971959 22840 net.cpp:418] conv7_stage1 -> conv7_stage1
I0828 10:11:17.974974 22840 net.cpp:150] Setting up conv7_stage1
I0828 10:11:17.975975 22840 net.cpp:157] Top shape: 16 15 46 46 (507840)
I0828 10:11:17.975975 22840 net.cpp:165] Memory required for data: 857504768
I0828 10:11:17.975975 22840 layer_factory.hpp:77] Creating layer conv7_stage1_conv7_stage1_0_split
I0828 10:11:17.975975 22840 net.cpp:100] Creating Layer conv7_stage1_conv7_stage1_0_split
I0828 10:11:17.975975 22840 net.cpp:444] conv7_stage1_conv7_stage1_0_split <- conv7_stage1
I0828 10:11:17.975975 22840 net.cpp:418] conv7_stage1_conv7_stage1_0_split -> conv7_stage1_conv7_stage1_0_split_0
I0828 10:11:17.975975 22840 net.cpp:418] conv7_stage1_conv7_stage1_0_split -> conv7_stage1_conv7_stage1_0_split_1
I0828 10:11:17.976967 22840 net.cpp:150] Setting up conv7_stage1_conv7_stage1_0_split
I0828 10:11:17.976967 22840 net.cpp:157] Top shape: 16 15 46 46 (507840)
I0828 10:11:17.976967 22840 net.cpp:157] Top shape: 16 15 46 46 (507840)
I0828 10:11:17.976967 22840 net.cpp:165] Memory required for data: 861567488
I0828 10:11:17.976967 22840 layer_factory.hpp:77] Creating layer loss_stage1
I0828 10:11:17.976967 22840 net.cpp:100] Creating Layer loss_stage1
I0828 10:11:17.977970 22840 net.cpp:444] loss_stage1 <- conv7_stage1_conv7_stage1_0_split_0
I0828 10:11:17.977970 22840 net.cpp:444] loss_stage1 <- label_1st_lower
I0828 10:11:17.977970 22840 net.cpp:418] loss_stage1 -> loss_stage1
I0828 10:11:17.977970 22840 net.cpp:150] Setting up loss_stage1
I0828 10:11:17.977970 22840 net.cpp:157] Top shape: (1)
I0828 10:11:17.977970 22840 net.cpp:160]     with loss weight 1
I0828 10:11:17.977970 22840 net.cpp:165] Memory required for data: 861567492
I0828 10:11:17.978958 22840 layer_factory.hpp:77] Creating layer conv2_stage2
I0828 10:11:17.978958 22840 net.cpp:100] Creating Layer conv2_stage2
I0828 10:11:17.978958 22840 net.cpp:444] conv2_stage2 <- image_data_0_split_2
I0828 10:11:17.978958 22840 net.cpp:418] conv2_stage2 -> conv2_stage2
I0828 10:11:17.980949 22840 net.cpp:150] Setting up conv2_stage2
I0828 10:11:17.980949 22840 net.cpp:157] Top shape: 16 128 184 184 (69337088)
I0828 10:11:17.980949 22840 net.cpp:165] Memory required for data: 1138915844
I0828 10:11:17.980949 22840 layer_factory.hpp:77] Creating layer relu2_stage2
I0828 10:11:17.980949 22840 net.cpp:100] Creating Layer relu2_stage2
I0828 10:11:17.980949 22840 net.cpp:444] relu2_stage2 <- conv2_stage2
I0828 10:11:17.981950 22840 net.cpp:405] relu2_stage2 -> conv2_stage2 (in-place)
I0828 10:11:17.981950 22840 net.cpp:150] Setting up relu2_stage2
I0828 10:11:17.981950 22840 net.cpp:157] Top shape: 16 128 184 184 (69337088)
I0828 10:11:17.981950 22840 net.cpp:165] Memory required for data: 1416264196
I0828 10:11:17.981950 22840 layer_factory.hpp:77] Creating layer pool2_stage2
I0828 10:11:17.982949 22840 net.cpp:100] Creating Layer pool2_stage2
I0828 10:11:17.982949 22840 net.cpp:444] pool2_stage2 <- conv2_stage2
I0828 10:11:17.982949 22840 net.cpp:418] pool2_stage2 -> pool2_stage2
I0828 10:11:17.982949 22840 net.cpp:150] Setting up pool2_stage2
I0828 10:11:17.982949 22840 net.cpp:157] Top shape: 16 128 92 92 (17334272)
I0828 10:11:17.982949 22840 net.cpp:165] Memory required for data: 1485601284
I0828 10:11:17.982949 22840 layer_factory.hpp:77] Creating layer conv3_stage2
I0828 10:11:17.986951 22840 net.cpp:100] Creating Layer conv3_stage2
I0828 10:11:17.986951 22840 net.cpp:444] conv3_stage2 <- pool2_stage2
I0828 10:11:17.987944 22840 net.cpp:418] conv3_stage2 -> conv3_stage2
I0828 10:11:18.006928 22840 net.cpp:150] Setting up conv3_stage2
I0828 10:11:18.006928 22840 net.cpp:157] Top shape: 16 128 92 92 (17334272)
I0828 10:11:18.006928 22840 net.cpp:165] Memory required for data: 1554938372
I0828 10:11:18.006928 22840 layer_factory.hpp:77] Creating layer relu3_stage2
I0828 10:11:18.007964 22840 net.cpp:100] Creating Layer relu3_stage2
I0828 10:11:18.007964 22840 net.cpp:444] relu3_stage2 <- conv3_stage2
I0828 10:11:18.007964 22840 net.cpp:405] relu3_stage2 -> conv3_stage2 (in-place)
I0828 10:11:18.007964 22840 net.cpp:150] Setting up relu3_stage2
I0828 10:11:18.008926 22840 net.cpp:157] Top shape: 16 128 92 92 (17334272)
I0828 10:11:18.008926 22840 net.cpp:165] Memory required for data: 1624275460
I0828 10:11:18.008926 22840 layer_factory.hpp:77] Creating layer pool3_stage2
I0828 10:11:18.008926 22840 net.cpp:100] Creating Layer pool3_stage2
I0828 10:11:18.008926 22840 net.cpp:444] pool3_stage2 <- conv3_stage2
I0828 10:11:18.008926 22840 net.cpp:418] pool3_stage2 -> pool3_stage2
I0828 10:11:18.008926 22840 net.cpp:150] Setting up pool3_stage2
I0828 10:11:18.008926 22840 net.cpp:157] Top shape: 16 128 46 46 (4333568)
I0828 10:11:18.009932 22840 net.cpp:165] Memory required for data: 1641609732
I0828 10:11:18.009932 22840 layer_factory.hpp:77] Creating layer pool3_stage2_pool3_stage2_0_split
I0828 10:11:18.009932 22840 net.cpp:100] Creating Layer pool3_stage2_pool3_stage2_0_split
I0828 10:11:18.009932 22840 net.cpp:444] pool3_stage2_pool3_stage2_0_split <- pool3_stage2
I0828 10:11:18.009932 22840 net.cpp:418] pool3_stage2_pool3_stage2_0_split -> pool3_stage2_pool3_stage2_0_split_0
I0828 10:11:18.009932 22840 net.cpp:418] pool3_stage2_pool3_stage2_0_split -> pool3_stage2_pool3_stage2_0_split_1
I0828 10:11:18.009932 22840 net.cpp:418] pool3_stage2_pool3_stage2_0_split -> pool3_stage2_pool3_stage2_0_split_2
I0828 10:11:18.010957 22840 net.cpp:150] Setting up pool3_stage2_pool3_stage2_0_split
I0828 10:11:18.010957 22840 net.cpp:157] Top shape: 16 128 46 46 (4333568)
I0828 10:11:18.010957 22840 net.cpp:157] Top shape: 16 128 46 46 (4333568)
I0828 10:11:18.010957 22840 net.cpp:157] Top shape: 16 128 46 46 (4333568)
I0828 10:11:18.010957 22840 net.cpp:165] Memory required for data: 1693612548
I0828 10:11:18.010957 22840 layer_factory.hpp:77] Creating layer conv4_stage2
I0828 10:11:18.011935 22840 net.cpp:100] Creating Layer conv4_stage2
I0828 10:11:18.011935 22840 net.cpp:444] conv4_stage2 <- pool3_stage2_pool3_stage2_0_split_0
I0828 10:11:18.011935 22840 net.cpp:418] conv4_stage2 -> conv4_stage2
I0828 10:11:18.015920 22840 net.cpp:150] Setting up conv4_stage2
I0828 10:11:18.016921 22840 net.cpp:157] Top shape: 16 64 46 46 (2166784)
I0828 10:11:18.016921 22840 net.cpp:165] Memory required for data: 1702279684
I0828 10:11:18.017920 22840 layer_factory.hpp:77] Creating layer relu4_stage2
I0828 10:11:18.017920 22840 net.cpp:100] Creating Layer relu4_stage2
I0828 10:11:18.017920 22840 net.cpp:444] relu4_stage2 <- conv4_stage2
I0828 10:11:18.017920 22840 net.cpp:405] relu4_stage2 -> conv4_stage2 (in-place)
I0828 10:11:18.018923 22840 net.cpp:150] Setting up relu4_stage2
I0828 10:11:18.018923 22840 net.cpp:157] Top shape: 16 64 46 46 (2166784)
I0828 10:11:18.019923 22840 net.cpp:165] Memory required for data: 1710946820
I0828 10:11:18.019923 22840 layer_factory.hpp:77] Creating layer concat_stage2
I0828 10:11:18.019923 22840 net.cpp:100] Creating Layer concat_stage2
I0828 10:11:18.019923 22840 net.cpp:444] concat_stage2 <- conv4_stage2
I0828 10:11:18.019923 22840 net.cpp:444] concat_stage2 <- conv7_stage1_conv7_stage1_0_split_1
I0828 10:11:18.019923 22840 net.cpp:444] concat_stage2 <- pool_image_lower_pool_image_lower_0_split_0
I0828 10:11:18.019923 22840 net.cpp:418] concat_stage2 -> concat_stage2
I0828 10:11:18.020941 22840 net.cpp:150] Setting up concat_stage2
I0828 10:11:18.020941 22840 net.cpp:157] Top shape: 16 80 46 46 (2708480)
I0828 10:11:18.020941 22840 net.cpp:165] Memory required for data: 1721780740
I0828 10:11:18.020941 22840 layer_factory.hpp:77] Creating layer Mconv1_stage2
I0828 10:11:18.020941 22840 net.cpp:100] Creating Layer Mconv1_stage2
I0828 10:11:18.020941 22840 net.cpp:444] Mconv1_stage2 <- concat_stage2
I0828 10:11:18.020941 22840 net.cpp:418] Mconv1_stage2 -> Mconv1_stage2
I0828 10:11:18.030906 22840 net.cpp:150] Setting up Mconv1_stage2
I0828 10:11:18.030906 22840 net.cpp:157] Top shape: 16 64 46 46 (2166784)
I0828 10:11:18.030906 22840 net.cpp:165] Memory required for data: 1730447876
I0828 10:11:18.030906 22840 layer_factory.hpp:77] Creating layer Mrelu1_stage2
I0828 10:11:18.031904 22840 net.cpp:100] Creating Layer Mrelu1_stage2
I0828 10:11:18.031904 22840 net.cpp:444] Mrelu1_stage2 <- Mconv1_stage2
I0828 10:11:18.031904 22840 net.cpp:405] Mrelu1_stage2 -> Mconv1_stage2 (in-place)
I0828 10:11:18.032903 22840 net.cpp:150] Setting up Mrelu1_stage2
I0828 10:11:18.032903 22840 net.cpp:157] Top shape: 16 64 46 46 (2166784)
I0828 10:11:18.032903 22840 net.cpp:165] Memory required for data: 1739115012
I0828 10:11:18.032903 22840 layer_factory.hpp:77] Creating layer Mconv3_stage2
I0828 10:11:18.032903 22840 net.cpp:100] Creating Layer Mconv3_stage2
I0828 10:11:18.032903 22840 net.cpp:444] Mconv3_stage2 <- Mconv1_stage2
I0828 10:11:18.032903 22840 net.cpp:418] Mconv3_stage2 -> Mconv3_stage2
I0828 10:11:18.050887 22840 net.cpp:150] Setting up Mconv3_stage2
I0828 10:11:18.050887 22840 net.cpp:157] Top shape: 16 64 46 46 (2166784)
I0828 10:11:18.051887 22840 net.cpp:165] Memory required for data: 1747782148
I0828 10:11:18.051887 22840 layer_factory.hpp:77] Creating layer Mrelu3_stage2
I0828 10:11:18.051887 22840 net.cpp:100] Creating Layer Mrelu3_stage2
I0828 10:11:18.051887 22840 net.cpp:444] Mrelu3_stage2 <- Mconv3_stage2
I0828 10:11:18.051887 22840 net.cpp:405] Mrelu3_stage2 -> Mconv3_stage2 (in-place)
I0828 10:11:18.051887 22840 net.cpp:150] Setting up Mrelu3_stage2
I0828 10:11:18.052886 22840 net.cpp:157] Top shape: 16 64 46 46 (2166784)
I0828 10:11:18.052886 22840 net.cpp:165] Memory required for data: 1756449284
I0828 10:11:18.052886 22840 layer_factory.hpp:77] Creating layer Mconv4_stage2
I0828 10:11:18.052886 22840 net.cpp:100] Creating Layer Mconv4_stage2
I0828 10:11:18.052886 22840 net.cpp:444] Mconv4_stage2 <- Mconv3_stage2
I0828 10:11:18.052886 22840 net.cpp:418] Mconv4_stage2 -> Mconv4_stage2
I0828 10:11:18.054885 22840 net.cpp:150] Setting up Mconv4_stage2
I0828 10:11:18.054885 22840 net.cpp:157] Top shape: 16 64 46 46 (2166784)
I0828 10:11:18.054885 22840 net.cpp:165] Memory required for data: 1765116420
I0828 10:11:18.054885 22840 layer_factory.hpp:77] Creating layer Mrelu4_stage2
I0828 10:11:18.054885 22840 net.cpp:100] Creating Layer Mrelu4_stage2
I0828 10:11:18.054885 22840 net.cpp:444] Mrelu4_stage2 <- Mconv4_stage2
I0828 10:11:18.054885 22840 net.cpp:405] Mrelu4_stage2 -> Mconv4_stage2 (in-place)
I0828 10:11:18.055884 22840 net.cpp:150] Setting up Mrelu4_stage2
I0828 10:11:18.055884 22840 net.cpp:157] Top shape: 16 64 46 46 (2166784)
I0828 10:11:18.055884 22840 net.cpp:165] Memory required for data: 1773783556
I0828 10:11:18.055884 22840 layer_factory.hpp:77] Creating layer Mconv5_stage2
I0828 10:11:18.055884 22840 net.cpp:100] Creating Layer Mconv5_stage2
I0828 10:11:18.055884 22840 net.cpp:444] Mconv5_stage2 <- Mconv4_stage2
I0828 10:11:18.055884 22840 net.cpp:418] Mconv5_stage2 -> Mconv5_stage2
I0828 10:11:18.057881 22840 net.cpp:150] Setting up Mconv5_stage2
I0828 10:11:18.057881 22840 net.cpp:157] Top shape: 16 15 46 46 (507840)
I0828 10:11:18.057881 22840 net.cpp:165] Memory required for data: 1775814916
I0828 10:11:18.057881 22840 layer_factory.hpp:77] Creating layer Mconv5_stage2_Mconv5_stage2_0_split
I0828 10:11:18.057881 22840 net.cpp:100] Creating Layer Mconv5_stage2_Mconv5_stage2_0_split
I0828 10:11:18.058881 22840 net.cpp:444] Mconv5_stage2_Mconv5_stage2_0_split <- Mconv5_stage2
I0828 10:11:18.058881 22840 net.cpp:418] Mconv5_stage2_Mconv5_stage2_0_split -> Mconv5_stage2_Mconv5_stage2_0_split_0
I0828 10:11:18.058881 22840 net.cpp:418] Mconv5_stage2_Mconv5_stage2_0_split -> Mconv5_stage2_Mconv5_stage2_0_split_1
I0828 10:11:18.058881 22840 net.cpp:150] Setting up Mconv5_stage2_Mconv5_stage2_0_split
I0828 10:11:18.058881 22840 net.cpp:157] Top shape: 16 15 46 46 (507840)
I0828 10:11:18.058881 22840 net.cpp:157] Top shape: 16 15 46 46 (507840)
I0828 10:11:18.058881 22840 net.cpp:165] Memory required for data: 1779877636
I0828 10:11:18.059880 22840 layer_factory.hpp:77] Creating layer loss_stage2
I0828 10:11:18.060880 22840 net.cpp:100] Creating Layer loss_stage2
I0828 10:11:18.060880 22840 net.cpp:444] loss_stage2 <- Mconv5_stage2_Mconv5_stage2_0_split_0
I0828 10:11:18.060880 22840 net.cpp:444] loss_stage2 <- label_lower_label_lower_0_split_0
I0828 10:11:18.060880 22840 net.cpp:418] loss_stage2 -> loss_stage2
I0828 10:11:18.060880 22840 net.cpp:150] Setting up loss_stage2
I0828 10:11:18.061877 22840 net.cpp:157] Top shape: (1)
I0828 10:11:18.061877 22840 net.cpp:160]     with loss weight 1
I0828 10:11:18.061877 22840 net.cpp:165] Memory required for data: 1779877640
I0828 10:11:18.061877 22840 layer_factory.hpp:77] Creating layer conv1_stage3
I0828 10:11:18.061877 22840 net.cpp:100] Creating Layer conv1_stage3
I0828 10:11:18.061877 22840 net.cpp:444] conv1_stage3 <- pool3_stage2_pool3_stage2_0_split_1
I0828 10:11:18.061877 22840 net.cpp:418] conv1_stage3 -> conv1_stage3
I0828 10:11:18.066874 22840 net.cpp:150] Setting up conv1_stage3
I0828 10:11:18.066874 22840 net.cpp:157] Top shape: 16 64 46 46 (2166784)
I0828 10:11:18.066874 22840 net.cpp:165] Memory required for data: 1788544776
I0828 10:11:18.066874 22840 layer_factory.hpp:77] Creating layer relu1_stage3
I0828 10:11:18.066874 22840 net.cpp:100] Creating Layer relu1_stage3
I0828 10:11:18.066874 22840 net.cpp:444] relu1_stage3 <- conv1_stage3
I0828 10:11:18.066874 22840 net.cpp:405] relu1_stage3 -> conv1_stage3 (in-place)
I0828 10:11:18.067873 22840 net.cpp:150] Setting up relu1_stage3
I0828 10:11:18.067873 22840 net.cpp:157] Top shape: 16 64 46 46 (2166784)
I0828 10:11:18.067873 22840 net.cpp:165] Memory required for data: 1797211912
I0828 10:11:18.067873 22840 layer_factory.hpp:77] Creating layer concat_stage3
I0828 10:11:18.067873 22840 net.cpp:100] Creating Layer concat_stage3
I0828 10:11:18.067873 22840 net.cpp:444] concat_stage3 <- conv1_stage3
I0828 10:11:18.067873 22840 net.cpp:444] concat_stage3 <- Mconv5_stage2_Mconv5_stage2_0_split_1
I0828 10:11:18.067873 22840 net.cpp:444] concat_stage3 <- pool_image_lower_pool_image_lower_0_split_1
I0828 10:11:18.068878 22840 net.cpp:418] concat_stage3 -> concat_stage3
I0828 10:11:18.068878 22840 net.cpp:150] Setting up concat_stage3
I0828 10:11:18.068878 22840 net.cpp:157] Top shape: 16 80 46 46 (2708480)
I0828 10:11:18.068878 22840 net.cpp:165] Memory required for data: 1808045832
I0828 10:11:18.068878 22840 layer_factory.hpp:77] Creating layer Mconv1_stage3
I0828 10:11:18.068878 22840 net.cpp:100] Creating Layer Mconv1_stage3
I0828 10:11:18.068878 22840 net.cpp:444] Mconv1_stage3 <- concat_stage3
I0828 10:11:18.068878 22840 net.cpp:418] Mconv1_stage3 -> Mconv1_stage3
I0828 10:11:18.080860 22840 net.cpp:150] Setting up Mconv1_stage3
I0828 10:11:18.080860 22840 net.cpp:157] Top shape: 16 64 46 46 (2166784)
I0828 10:11:18.080860 22840 net.cpp:165] Memory required for data: 1816712968
I0828 10:11:18.080860 22840 layer_factory.hpp:77] Creating layer Mrelu1_stage3
I0828 10:11:18.080860 22840 net.cpp:100] Creating Layer Mrelu1_stage3
I0828 10:11:18.080860 22840 net.cpp:444] Mrelu1_stage3 <- Mconv1_stage3
I0828 10:11:18.080860 22840 net.cpp:405] Mrelu1_stage3 -> Mconv1_stage3 (in-place)
I0828 10:11:18.081861 22840 net.cpp:150] Setting up Mrelu1_stage3
I0828 10:11:18.081861 22840 net.cpp:157] Top shape: 16 64 46 46 (2166784)
I0828 10:11:18.081861 22840 net.cpp:165] Memory required for data: 1825380104
I0828 10:11:18.081861 22840 layer_factory.hpp:77] Creating layer Mconv3_stage3
I0828 10:11:18.081861 22840 net.cpp:100] Creating Layer Mconv3_stage3
I0828 10:11:18.081861 22840 net.cpp:444] Mconv3_stage3 <- Mconv1_stage3
I0828 10:11:18.081861 22840 net.cpp:418] Mconv3_stage3 -> Mconv3_stage3
I0828 10:11:18.089853 22840 net.cpp:150] Setting up Mconv3_stage3
I0828 10:11:18.089853 22840 net.cpp:157] Top shape: 16 64 46 46 (2166784)
I0828 10:11:18.089853 22840 net.cpp:165] Memory required for data: 1834047240
I0828 10:11:18.089853 22840 layer_factory.hpp:77] Creating layer Mrelu3_stage3
I0828 10:11:18.089853 22840 net.cpp:100] Creating Layer Mrelu3_stage3
I0828 10:11:18.090853 22840 net.cpp:444] Mrelu3_stage3 <- Mconv3_stage3
I0828 10:11:18.090853 22840 net.cpp:405] Mrelu3_stage3 -> Mconv3_stage3 (in-place)
I0828 10:11:18.090853 22840 net.cpp:150] Setting up Mrelu3_stage3
I0828 10:11:18.090853 22840 net.cpp:157] Top shape: 16 64 46 46 (2166784)
I0828 10:11:18.090853 22840 net.cpp:165] Memory required for data: 1842714376
I0828 10:11:18.090853 22840 layer_factory.hpp:77] Creating layer Mconv4_stage3
I0828 10:11:18.090853 22840 net.cpp:100] Creating Layer Mconv4_stage3
I0828 10:11:18.090853 22840 net.cpp:444] Mconv4_stage3 <- Mconv3_stage3
I0828 10:11:18.090853 22840 net.cpp:418] Mconv4_stage3 -> Mconv4_stage3
I0828 10:11:18.092851 22840 net.cpp:150] Setting up Mconv4_stage3
I0828 10:11:18.092851 22840 net.cpp:157] Top shape: 16 64 46 46 (2166784)
I0828 10:11:18.092851 22840 net.cpp:165] Memory required for data: 1851381512
I0828 10:11:18.092851 22840 layer_factory.hpp:77] Creating layer Mrelu4_stage3
I0828 10:11:18.092851 22840 net.cpp:100] Creating Layer Mrelu4_stage3
I0828 10:11:18.092851 22840 net.cpp:444] Mrelu4_stage3 <- Mconv4_stage3
I0828 10:11:18.092851 22840 net.cpp:405] Mrelu4_stage3 -> Mconv4_stage3 (in-place)
I0828 10:11:18.093850 22840 net.cpp:150] Setting up Mrelu4_stage3
I0828 10:11:18.093850 22840 net.cpp:157] Top shape: 16 64 46 46 (2166784)
I0828 10:11:18.093850 22840 net.cpp:165] Memory required for data: 1860048648
I0828 10:11:18.093850 22840 layer_factory.hpp:77] Creating layer Mconv5_stage3
I0828 10:11:18.093850 22840 net.cpp:100] Creating Layer Mconv5_stage3
I0828 10:11:18.093850 22840 net.cpp:444] Mconv5_stage3 <- Mconv4_stage3
I0828 10:11:18.093850 22840 net.cpp:418] Mconv5_stage3 -> Mconv5_stage3
I0828 10:11:18.095849 22840 net.cpp:150] Setting up Mconv5_stage3
I0828 10:11:18.095849 22840 net.cpp:157] Top shape: 16 15 46 46 (507840)
I0828 10:11:18.095849 22840 net.cpp:165] Memory required for data: 1862080008
I0828 10:11:18.095849 22840 layer_factory.hpp:77] Creating layer Mconv5_stage3_Mconv5_stage3_0_split
I0828 10:11:18.095849 22840 net.cpp:100] Creating Layer Mconv5_stage3_Mconv5_stage3_0_split
I0828 10:11:18.095849 22840 net.cpp:444] Mconv5_stage3_Mconv5_stage3_0_split <- Mconv5_stage3
I0828 10:11:18.095849 22840 net.cpp:418] Mconv5_stage3_Mconv5_stage3_0_split -> Mconv5_stage3_Mconv5_stage3_0_split_0
I0828 10:11:18.095849 22840 net.cpp:418] Mconv5_stage3_Mconv5_stage3_0_split -> Mconv5_stage3_Mconv5_stage3_0_split_1
I0828 10:11:18.095849 22840 net.cpp:150] Setting up Mconv5_stage3_Mconv5_stage3_0_split
I0828 10:11:18.095849 22840 net.cpp:157] Top shape: 16 15 46 46 (507840)
I0828 10:11:18.095849 22840 net.cpp:157] Top shape: 16 15 46 46 (507840)
I0828 10:11:18.095849 22840 net.cpp:165] Memory required for data: 1866142728
I0828 10:11:18.096848 22840 layer_factory.hpp:77] Creating layer loss_stage3
I0828 10:11:18.096848 22840 net.cpp:100] Creating Layer loss_stage3
I0828 10:11:18.096848 22840 net.cpp:444] loss_stage3 <- Mconv5_stage3_Mconv5_stage3_0_split_0
I0828 10:11:18.096848 22840 net.cpp:444] loss_stage3 <- label_lower_label_lower_0_split_1
I0828 10:11:18.096848 22840 net.cpp:418] loss_stage3 -> loss_stage3
I0828 10:11:18.096848 22840 net.cpp:150] Setting up loss_stage3
I0828 10:11:18.096848 22840 net.cpp:157] Top shape: (1)
I0828 10:11:18.096848 22840 net.cpp:160]     with loss weight 1
I0828 10:11:18.096848 22840 net.cpp:165] Memory required for data: 1866142732
I0828 10:11:18.096848 22840 layer_factory.hpp:77] Creating layer conv1_stage4
I0828 10:11:18.096848 22840 net.cpp:100] Creating Layer conv1_stage4
I0828 10:11:18.096848 22840 net.cpp:444] conv1_stage4 <- pool3_stage2_pool3_stage2_0_split_2
I0828 10:11:18.097847 22840 net.cpp:418] conv1_stage4 -> conv1_stage4
I0828 10:11:18.100844 22840 net.cpp:150] Setting up conv1_stage4
I0828 10:11:18.100844 22840 net.cpp:157] Top shape: 16 32 46 46 (1083392)
I0828 10:11:18.101843 22840 net.cpp:165] Memory required for data: 1870476300
I0828 10:11:18.101843 22840 layer_factory.hpp:77] Creating layer relu1_stage4
I0828 10:11:18.101843 22840 net.cpp:100] Creating Layer relu1_stage4
I0828 10:11:18.101843 22840 net.cpp:444] relu1_stage4 <- conv1_stage4
I0828 10:11:18.101843 22840 net.cpp:405] relu1_stage4 -> conv1_stage4 (in-place)
I0828 10:11:18.102843 22840 net.cpp:150] Setting up relu1_stage4
I0828 10:11:18.102843 22840 net.cpp:157] Top shape: 16 32 46 46 (1083392)
I0828 10:11:18.102843 22840 net.cpp:165] Memory required for data: 1874809868
I0828 10:11:18.102843 22840 layer_factory.hpp:77] Creating layer concat_stage4
I0828 10:11:18.102843 22840 net.cpp:100] Creating Layer concat_stage4
I0828 10:11:18.102843 22840 net.cpp:444] concat_stage4 <- conv1_stage4
I0828 10:11:18.102843 22840 net.cpp:444] concat_stage4 <- Mconv5_stage3_Mconv5_stage3_0_split_1
I0828 10:11:18.102843 22840 net.cpp:444] concat_stage4 <- pool_image_lower_pool_image_lower_0_split_2
I0828 10:11:18.102843 22840 net.cpp:418] concat_stage4 -> concat_stage4
I0828 10:11:18.102843 22840 net.cpp:150] Setting up concat_stage4
I0828 10:11:18.102843 22840 net.cpp:157] Top shape: 16 48 46 46 (1625088)
I0828 10:11:18.102843 22840 net.cpp:165] Memory required for data: 1881310220
I0828 10:11:18.103842 22840 layer_factory.hpp:77] Creating layer Mconv1_stage4
I0828 10:11:18.103842 22840 net.cpp:100] Creating Layer Mconv1_stage4
I0828 10:11:18.103842 22840 net.cpp:444] Mconv1_stage4 <- concat_stage4
I0828 10:11:18.103842 22840 net.cpp:418] Mconv1_stage4 -> Mconv1_stage4
I0828 10:11:18.109836 22840 net.cpp:150] Setting up Mconv1_stage4
I0828 10:11:18.109836 22840 net.cpp:157] Top shape: 16 64 46 46 (2166784)
I0828 10:11:18.109836 22840 net.cpp:165] Memory required for data: 1889977356
I0828 10:11:18.109836 22840 layer_factory.hpp:77] Creating layer Mrelu1_stage4
I0828 10:11:18.110833 22840 net.cpp:100] Creating Layer Mrelu1_stage4
I0828 10:11:18.110833 22840 net.cpp:444] Mrelu1_stage4 <- Mconv1_stage4
I0828 10:11:18.110833 22840 net.cpp:405] Mrelu1_stage4 -> Mconv1_stage4 (in-place)
I0828 10:11:18.110833 22840 net.cpp:150] Setting up Mrelu1_stage4
I0828 10:11:18.110833 22840 net.cpp:157] Top shape: 16 64 46 46 (2166784)
I0828 10:11:18.110833 22840 net.cpp:165] Memory required for data: 1898644492
I0828 10:11:18.110833 22840 layer_factory.hpp:77] Creating layer Mconv3_stage4
I0828 10:11:18.110833 22840 net.cpp:100] Creating Layer Mconv3_stage4
I0828 10:11:18.110833 22840 net.cpp:444] Mconv3_stage4 <- Mconv1_stage4
I0828 10:11:18.111835 22840 net.cpp:418] Mconv3_stage4 -> Mconv3_stage4
I0828 10:11:18.131822 22840 net.cpp:150] Setting up Mconv3_stage4
I0828 10:11:18.131822 22840 net.cpp:157] Top shape: 16 64 46 46 (2166784)
I0828 10:11:18.131822 22840 net.cpp:165] Memory required for data: 1907311628
I0828 10:11:18.131822 22840 layer_factory.hpp:77] Creating layer Mrelu3_stage4
I0828 10:11:18.132815 22840 net.cpp:100] Creating Layer Mrelu3_stage4
I0828 10:11:18.132815 22840 net.cpp:444] Mrelu3_stage4 <- Mconv3_stage4
I0828 10:11:18.132815 22840 net.cpp:405] Mrelu3_stage4 -> Mconv3_stage4 (in-place)
I0828 10:11:18.132815 22840 net.cpp:150] Setting up Mrelu3_stage4
I0828 10:11:18.132815 22840 net.cpp:157] Top shape: 16 64 46 46 (2166784)
I0828 10:11:18.132815 22840 net.cpp:165] Memory required for data: 1915978764
I0828 10:11:18.132815 22840 layer_factory.hpp:77] Creating layer Mconv4_stage4
I0828 10:11:18.132815 22840 net.cpp:100] Creating Layer Mconv4_stage4
I0828 10:11:18.132815 22840 net.cpp:444] Mconv4_stage4 <- Mconv3_stage4
I0828 10:11:18.133816 22840 net.cpp:418] Mconv4_stage4 -> Mconv4_stage4
I0828 10:11:18.134819 22840 net.cpp:150] Setting up Mconv4_stage4
I0828 10:11:18.134819 22840 net.cpp:157] Top shape: 16 64 46 46 (2166784)
I0828 10:11:18.134819 22840 net.cpp:165] Memory required for data: 1924645900
I0828 10:11:18.135812 22840 layer_factory.hpp:77] Creating layer Mrelu4_stage4
I0828 10:11:18.135812 22840 net.cpp:100] Creating Layer Mrelu4_stage4
I0828 10:11:18.135812 22840 net.cpp:444] Mrelu4_stage4 <- Mconv4_stage4
I0828 10:11:18.135812 22840 net.cpp:405] Mrelu4_stage4 -> Mconv4_stage4 (in-place)
I0828 10:11:18.135812 22840 net.cpp:150] Setting up Mrelu4_stage4
I0828 10:11:18.135812 22840 net.cpp:157] Top shape: 16 64 46 46 (2166784)
I0828 10:11:18.135812 22840 net.cpp:165] Memory required for data: 1933313036
I0828 10:11:18.135812 22840 layer_factory.hpp:77] Creating layer Mconv5_stage4
I0828 10:11:18.135812 22840 net.cpp:100] Creating Layer Mconv5_stage4
I0828 10:11:18.135812 22840 net.cpp:444] Mconv5_stage4 <- Mconv4_stage4
I0828 10:11:18.136812 22840 net.cpp:418] Mconv5_stage4 -> Mconv5_stage4
I0828 10:11:18.137810 22840 net.cpp:150] Setting up Mconv5_stage4
I0828 10:11:18.137810 22840 net.cpp:157] Top shape: 16 15 46 46 (507840)
I0828 10:11:18.137810 22840 net.cpp:165] Memory required for data: 1935344396
I0828 10:11:18.138808 22840 layer_factory.hpp:77] Creating layer loss_stage4
I0828 10:11:18.138808 22840 net.cpp:100] Creating Layer loss_stage4
I0828 10:11:18.138808 22840 net.cpp:444] loss_stage4 <- Mconv5_stage4
I0828 10:11:18.138808 22840 net.cpp:444] loss_stage4 <- label_lower_label_lower_0_split_2
…
