…
state {
  phase: TRAIN
  level: 0
  stage: ""
}
layer {
  name: "data"
  type: "CPMData"
  top: "image"
  top: "label"
  transform_param {
    stride: 4
    max_rotate_degree: 40
    crop_size_x: 96
    crop_size_y: 96
    scale_prob: 1
    scale_min: 0.8
    scale_max: 1.5
    target_dist: 1.171
    center_perterb_max: 0
    sigma: 4
    do_clahe: false
    num_parts: 12
    gray: 1
    np_in_lmdb: 12
    put_gaussian: false
  }
  cpmdata_param {
    source: "D:/deeplearning/trainingdata/AllData/lmdb/New"
    batch_size: 16
    backend: LMDB
  }
}
layer {
  name: "label_lower"
  type: "Slice"
  bottom: "label"
  top: "label_lower"
  top: "label_1st_lower"
  slice_param {
    slice_point: 13
    axis: 1
  }
}
layer {
  name: "pool_image_lower"
  type: "Pooling"
  bottom: "image"
  top: "pool_image_lower"
  pooling_param {
    pool: AVE
    kernel_size: 4
    stride: 4
  }
}
layer {
  name: "conv2_stage1"
  type: "Convolution"
  bottom: "image"
  top: "conv2_stage1"
  param {
    lr_mult: 5
    decay_mult: 1
  }
  param {
    lr_mult: 10
    decay_mult: 0
  }
  convolution_param {
    num_output: 128
    pad: 4
    kernel_size: 9
    weight_filler {
      type: "gaussian"
      std: 0.01
    }
    bias_filler {
      type: "constant"
    }
  }
}
layer {
  name: "relu2_stage1"
  type: "ReLU"
  bottom: "conv2_stage1"
  top: "conv2_stage1"
}
layer {
  name: "pool2_stage1"
  type: "Pooling"
  bottom: "conv2_stage1"
  top: "pool2_stage1"
  pooling_param {
    pool: MAX
    kernel_size: 3
    stride: 2
  }
}
layer {
  name: "conv3_stage1"
  type: "Convolution"
  bottom: "pool2_stage1"
  top: "conv3_stage1"
  param {
    lr_mult: 5
    decay_mult: 1
  }
  param {
    lr_mult: 10
    decay_mult: 0
  }
  convolution_param {
    num_output: 128
    pad: 4
    kernel_size: 9
    weight_filler {
      type: "gaussian"
      std: 0.01
    }
    bias_filler {
      type: "constant"
    }
  }
}
layer {
  name: "relu3_stage1"
  type: "ReLU"
  bottom: "conv3_stage1"
  top: "conv3_stage1"
}
layer {
  name: "pool3_stage1"
  type: "Pooling"
  bottom: "conv3_stage1"
  top: "pool3_stage1"
  pooling_param {
    pool: MAX
    kernel_size: 3
    stride: 2
  }
}
layer {
  name: "conv4_stage1"
  type: "Convolution"
  bottom: "pool3_stage1"
  top: "conv4_stage1"
  param {
    lr_mult: 5
    decay_mult: 1
  }
  param {
    lr_mult: 10
    decay_mult: 0
  }
  convolution_param {
    num_output: 64
    pad: 2
    kernel_size: 5
    weight_filler {
      type: "gaussian"
      std: 0.01
    }
    bias_filler {
      type: "constant"
    }
  }
}
layer {
  name: "relu4_stage1"
  type: "ReLU"
  bottom: "conv4_stage1"
  top: "conv4_stage1"
}
layer {
  name: "conv5_stage1"
  type: "Convolution"
  bottom: "conv4_stage1"
  top: "conv5_stage1"
  param {
    lr_mult: 5
    decay_mult: 1
  }
  param {
    lr_mult: 10
    decay_mult: 0
  }
  convolution_param {
    num_output: 64
    pad: 2
    kernel_size: 5
    weight_filler {
      type: "gaussian"
      std: 0.01
    }
    bias_filler {
      type: "constant"
    }
  }
}
layer {
  name: "relu5_stage1"
  type: "ReLU"
  bottom: "conv5_stage1"
  top: "conv5_stage1"
}
layer {
  name: "drop1_stage1"
  type: "Dropout"
  bottom: "conv5_stage1"
  top: "conv5_stage1"
  dropout_param {
    dropout_ratio: 0.5
  }
}
layer {
  name: "concat_conv5_stage1"
  type: "Concat"
  bottom: "conv4_stage1"
  bottom: "conv5_stage1"
  top: "concat_conv5_stage1"
  concat_param {
    axis: 1
  }
}
layer {
  name: "conv6_stage1"
  type: "Convolution"
  bottom: "concat_conv5_stage1"
  top: "conv6_stage1"
  param {
    lr_mult: 5
    decay_mult: 1
  }
  param {
    lr_mult: 10
    decay_mult: 0
  }
  convolution_param {
    num_output: 64
    pad: 0
    kernel_size: 1
    weight_filler {
      type: "gaussian"
      std: 0.01
    }
    bias_filler {
      type: "constant"
    }
  }
}
layer {
  name: "relu6_stage1"
  type: "ReLU"
  bottom: "conv6_stage1"
  top: "conv6_stage1"
}
layer {
  name: "drop2_stage1"
  type: "Dropout"
  bottom: "conv6_stage1"
  top: "conv6_stage1"
  dropout_param {
    dropout_ratio: 0.5
  }
}
layer {
  name: "conv7_stage1"
  type: "Convolution"
  bottom: "conv6_stage1"
  top: "conv7_stage1"
  param {
    lr_mult: 5
    decay_mult: 1
  }
  param {
    lr_mult: 10
    decay_mult: 0
  }
  convolution_param {
    num_output: 13
    pad: 0
    kernel_size: 1
    weight_filler {
      type: "gaussian"
      std: 0.01
    }
    bias_filler {
      type: "constant"
    }
  }
}
layer {
  name: "loss_stage1"
  type: "EuclideanLoss"
  bottom: "conv7_stage1"
  bottom: "label_1st_lower"
  top: "loss_stage1"
}
layer {
  name: "conv1_stage2"
  type: "Convolution"
  bottom: "pool3_stage1"
  top: "conv1_stage2"
  param {
    lr_mult: 1
    decay_mult: 1
  }
  param {
    lr_mult: 2
    decay_mult: 0
  }
  convolution_param {
    num_output: 64
    pad: 2
    kernel_size: 5
    weight_filler {
      type: "gaussian"
      std: 0.01
    }
    bias_filler {
      type: "constant"
    }
  }
}
layer {
  name: "relu1_stage2"
  type: "ReLU"
  bottom: "conv1_stage2"
  top: "conv1_stage2"
}
layer {
  name: "concat_stage2"
  type: "Concat"
  bottom: "conv1_stage2"
  bottom: "conv7_stage1"
  bottom: "pool_image_lower"
  top: "concat_stage2"
  concat_param {
    axis: 1
  }
}
layer {
  name: "Mconv1_stage2"
  type: "Convolution"
  bottom: "concat_stage2"
  top: "Mconv1_stage2"
  param {
    lr_mult: 1
    decay_mult: 1
  }
  param {
    lr_mult: 2
    decay_mult: 0
  }
  convolution_param {
    num_output: 64
    pad: 2
    kernel_size: 5
    weight_filler {
      type: "gaussian"
      std: 0.01
    }
    bias_filler {
      type: "constant"
    }
  }
}
layer {
  name: "Mrelu1_stage2"
  type: "ReLU"
  bottom: "Mconv1_stage2"
  top: "Mconv1_stage2"
}
layer {
  name: "Mconv3_stage2"
  type: "Convolution"
  bottom: "Mconv1_stage2"
  top: "Mconv3_stage2"
  param {
    lr_mult: 1
    decay_mult: 1
  }
  param {
    lr_mult: 2
    decay_mult: 0
  }
  convolution_param {
    num_output: 64
    pad: 2
    kernel_size: 5
    weight_filler {
      type: "gaussian"
      std: 0.01
    }
    bias_filler {
      type: "constant"
    }
  }
}
layer {
  name: "Mrelu3_stage2"
  type: "ReLU"
  bottom: "Mconv3_stage2"
  top: "Mconv3_stage2"
}
layer {
  name: "concat_Mconv3_stage2"
  type: "Concat"
  bottom: "Mconv1_stage2"
  bottom: "Mconv3_stage2"
  top: "concat_Mconv3_stage2"
  concat_param {
    axis: 1
  }
}
layer {
  name: "Mconv4_stage2"
  type: "Convolution"
  bottom: "concat_Mconv3_stage2"
  top: "Mconv4_stage2"
  param {
    lr_mult: 1
    decay_mult: 1
  }
  param {
    lr_mult: 2
    decay_mult: 0
  }
  convolution_param {
    num_output: 64
    pad: 0
    kernel_size: 1
    weight_filler {
      type: "gaussian"
      std: 0.01
    }
    bias_filler {
      type: "constant"
    }
  }
}
layer {
  name: "Mrelu4_stage2"
  type: "ReLU"
  bottom: "Mconv4_stage2"
  top: "Mconv4_stage2"
}
layer {
  name: "Mconv5_stage2"
  type: "Convolution"
  bottom: "Mconv4_stage2"
  top: "Mconv5_stage2"
  param {
    lr_mult: 1
    decay_mult: 1
  }
  param {
    lr_mult: 2
    decay_mult: 0
  }
  convolution_param {
    num_output: 13
    pad: 0
    kernel_size: 1
    weight_filler {
      type: "gaussian"
      std: 0.01
    }
    bias_filler {
      type: "constant"
    }
  }
}
layer {
  name: "loss_stage2"
  type: "EuclideanLoss"
  bottom: "Mconv5_stage2"
  bottom: "label_lower"
  top: "loss_stage2"
}
layer {
  name: "conv1_stage3"
  type: "Convolution"
  bottom: "pool3_stage1"
  top: "conv1_stage3"
  param {
    lr_mult: 1
    decay_mult: 1
  }
  param {
    lr_mult: 2
    decay_mult: 0
  }
  convolution_param {
    num_output: 64
    pad: 2
    kernel_size: 5
    weight_filler {
      type: "gaussian"
      std: 0.01
    }
    bias_filler {
      type: "constant"
    }
  }
}
layer {
  name: "relu1_stage3"
  type: "ReLU"
  bottom: "conv1_stage3"
  top: "conv1_stage3"
}
layer {
  name: "concat_stage3"
  type: "Concat"
  bottom: "conv1_stage3"
  bottom: "Mconv5_stage2"
  bottom: "pool_image_lower"
  top: "concat_stage3"
  concat_param {
    axis: 1
  }
}
layer {
  name: "Mconv1_stage3"
  type: "Convolution"
  bottom: "concat_stage3"
  top: "Mconv1_stage3"
  param {
    lr_mult: 1
    decay_mult: 1
  }
  param {
    lr_mult: 2
    decay_mult: 0
  }
  convolution_param {
    num_output: 64
    pad: 2
    kernel_size: 5
    weight_filler {
      type: "gaussian"
      std: 0.01
    }
    bias_filler {
      type: "constant"
    }
  }
}
layer {
  name: "Mrelu1_stage3"
  type: "ReLU"
  bottom: "Mconv1_stage3"
  top: "Mconv1_stage3"
}
layer {
  name: "Mconv3_stage3"
  type: "Convolution"
  bottom: "Mconv1_stage3"
  top: "Mconv3_stage3"
  param {
    lr_mult: 1
    decay_mult: 1
  }
  param {
    lr_mult: 2
    decay_mult: 0
  }
  convolution_param {
    num_output: 64
    pad: 2
    kernel_size: 5
    weight_filler {
      type: "gaussian"
      std: 0.01
    }
    bias_filler {
      type: "constant"
    }
  }
}
layer {
  name: "Mrelu3_stage3"
  type: "ReLU"
  bottom: "Mconv3_stage3"
  top: "Mconv3_stage3"
}
layer {
  name: "concat_Mconv3_stage3"
  type: "Concat"
  bottom: "Mconv1_stage3"
  bottom: "Mconv3_stage3"
  top: "concat_Mconv3_stage3"
  concat_param {
    axis: 1
  }
}
layer {
  name: "Mconv4_stage3"
  type: "Convolution"
  bottom: "concat_Mconv3_stage3"
  top: "Mconv4_stage3"
  param {
    lr_mult: 1
    decay_mult: 1
  }
  param {
    lr_mult: 2
    decay_mult: 0
  }
  convolution_param {
    num_output: 64
    pad: 0
    kernel_size: 1
    weight_filler {
      type: "gaussian"
      std: 0.01
    }
    bias_filler {
      type: "constant"
    }
  }
}
layer {
  name: "Mrelu4_stage3"
  type: "ReLU"
  bottom: "Mconv4_stage3"
  top: "Mconv4_stage3"
}
layer {
  name: "Mconv5_stage3"
  type: "Convolution"
  bottom: "Mconv4_stage3"
  top: "Mconv5_stage3"
  param {
    lr_mult: 1
    decay_mult: 1
  }
  param {
    lr_mult: 2
    decay_mult: 0
  }
  convolution_param {
    num_output: 13
    pad: 0
    kernel_size: 1
    weight_filler {
      type: "gaussian"
      std: 0.01
    }
    bias_filler {
      type: "constant"
    }
  }
}
layer {
  name: "loss_stage3"
  type: "EuclideanLoss"
  bottom: "Mconv5_stage3"
  bottom: "label_lower"
  top: "loss_stage3"
}
layer {
  name: "conv1_stage4"
  type: "Convolution"
  bottom: "pool3_stage1"
  top: "conv1_stage4"
  param {
    lr_mult: 1
    decay_mult: 1
  }
  param {
    lr_mult: 2
    decay_mult: 0
  }
  convolution_param {
    num_output: 32
    pad: 2
    kernel_size: 5
    weight_filler {
      type: "gaussian"
      std: 0.01
    }
    bias_filler {
      type: "constant"
    }
  }
}
layer {
  name: "relu1_stage4"
  type: "ReLU"
  bottom: "conv1_stage4"
  top: "conv1_stage4"
}
layer {
  name: "concat_stage4"
  type: "Concat"
  bottom: "conv1_stage4"
  bottom: "Mconv5_stage3"
  bottom: "pool_image_lower"
  top: "concat_stage4"
  concat_param {
    axis: 1
  }
}
layer {
  name: "Mconv1_stage4"
  type: "Convolution"
  bottom: "concat_stage4"
  top: "Mconv1_stage4"
  param {
    lr_mult: 1
    decay_mult: 1
  }
  param {
    lr_mult: 2
    decay_mult: 0
  }
  convolution_param {
    num_output: 64
    pad: 2
    kernel_size: 5
    weight_filler {
      type: "gaussian"
      std: 0.01
    }
    bias_filler {
      type: "constant"
    }
  }
}
layer {
  name: "Mrelu1_stage4"
  type: "ReLU"
  bottom: "Mconv1_stage4"
  top: "Mconv1_stage4"
}
layer {
  name: "Mconv3_stage4"
  type: "Convolution"
  bottom: "Mconv1_stage4"
  top: "Mconv3_stage4"
  param {
    lr_mult: 1
    decay_mult: 1
  }
  param {
    lr_mult: 2
    decay_mult: 0
  }
  convolution_param {
    num_output: 64
    pad: 2
    kernel_size: 5
    weight_filler {
      type: "gaussian"
      std: 0.01
    }
    bias_filler {
      type: "constant"
    }
  }
}
layer {
  name: "Mrelu3_stage4"
  type: "ReLU"
  bottom: "Mconv3_stage4"
  top: "Mconv3_stage4"
}
layer {
  name: "concat_Mconv3_stage4"
  type: "Concat"
  bottom: "Mconv1_stage4"
  bottom: "Mconv3_stage4"
  top: "concat_Mconv3_stage4"
  concat_param {
    axis: 1
  }
}
layer {
  name: "Mconv4_stage4"
  type: "Convolution"
  bottom: "concat_Mconv3_stage4"
  top: "Mconv4_stage4"
  param {
    lr_mult: 1
    decay_mult: 1
  }
  param {
    lr_mult: 2
    decay_mult: 0
  }
  convolution_param {
    num_output: 64
    pad: 0
    kernel_size: 1
    weight_filler {
      type: "gaussian"
      std: 0.01
    }
    bias_filler {
      type: "constant"
    }
  }
}
layer {
  name: "Mrelu4_stage4"
  type: "ReLU"
  bottom: "Mconv4_stage4"
  top: "Mconv4_stage4"
}
layer {
  name: "Mconv5_stage4"
  type: "Convolution"
  bottom: "Mconv4_stage4"
  top: "Mconv5_stage4"
  param {
    lr_mult: 1
    decay_mult: 1
  }
  param {
    lr_mult: 2
    decay_mult: 0
  }
  convolution_param {
    num_output: 13
    pad: 0
    kernel_size: 1
    weight_filler {
      type: "gaussian"
      std: 0.01
    }
    bias_filler {
      type: "constant"
    }
  }
}
layer {
  name: "loss_stage4"
  type: "EuclideanLoss"
  bottom: "Mconv5_stage4"
  bottom: "label_lower"
  top: "loss_stage4"
}
I1005 04:11:49.369747  6516 layer_factory.hpp:77] Creating layer data
I1005 04:11:49.369747  6516 common.cpp:36] System entropy source not available, using fallback algorithm to generate seed instead.
I1005 04:11:49.370746  6516 net.cpp:100] Creating Layer data
I1005 04:11:49.370746  6516 net.cpp:418] data -> image
I1005 04:11:49.370746  6516 net.cpp:418] data -> label
I1005 04:11:49.370746  6516 data_transformer.cpp:260] DataTransformer constructor done.
I1005 04:11:49.371745 12776 common.cpp:36] System entropy source not available, using fallback algorithm to generate seed instead.
I1005 04:11:49.378739 12776 db_lmdb.cpp:40] Opened lmdb D:/deeplearning/trainingdata/AllData/lmdb/New
I1005 04:11:49.419700  6516 cpm_data_layer.cpp:62] output data size: 16,1,96,96
I1005 04:11:49.420699  6516 cpm_data_layer.cpp:77] output label size: 16,26,24,24
I1005 04:11:49.424698  6516 net.cpp:150] Setting up data
I1005 04:11:49.424698  6516 net.cpp:157] Top shape: 16 1 96 96 (147456)
I1005 04:11:49.424698  6516 net.cpp:157] Top shape: 16 26 24 24 (239616)
I1005 04:11:49.424698  6516 net.cpp:165] Memory required for data: 1548288
I1005 04:11:49.424698  6516 layer_factory.hpp:77] Creating layer image_data_0_split
I1005 04:11:49.424698  6516 net.cpp:100] Creating Layer image_data_0_split
I1005 04:11:49.424698  6516 net.cpp:444] image_data_0_split <- image
I1005 04:11:49.424698  6516 net.cpp:418] image_data_0_split -> image_data_0_split_0
I1005 04:11:49.425698  6516 net.cpp:418] image_data_0_split -> image_data_0_split_1
I1005 04:11:49.425698  6516 net.cpp:150] Setting up image_data_0_split
I1005 04:11:49.425698  6516 net.cpp:157] Top shape: 16 1 96 96 (147456)
I1005 04:11:49.425698  6516 net.cpp:157] Top shape: 16 1 96 96 (147456)
I1005 04:11:49.425698  6516 net.cpp:165] Memory required for data: 2727936
I1005 04:11:49.425698  6516 layer_factory.hpp:77] Creating layer label_lower
I1005 04:11:49.425698  8032 common.cpp:36] System entropy source not available, using fallback algorithm to generate seed instead.
I1005 04:11:49.425698  6516 net.cpp:100] Creating Layer label_lower
I1005 04:11:49.425698  6516 net.cpp:444] label_lower <- label
I1005 04:11:49.425698  6516 net.cpp:418] label_lower -> label_lower
I1005 04:11:49.426695  6516 net.cpp:418] label_lower -> label_1st_lower
I1005 04:11:49.426695  6516 net.cpp:150] Setting up label_lower
I1005 04:11:49.426695  8032 data_transformer.cpp:71] dataset: Depth; img_size: [256 x 212]; meta.annolist_index: 10078; meta.write_number: 0; meta.total_write_number: 14552; meta.epoch: 0
I1005 04:11:49.426695  6516 net.cpp:157] Top shape: 16 13 24 24 (119808)
I1005 04:11:49.426695  6516 net.cpp:157] Top shape: 16 13 24 24 (119808)
I1005 04:11:49.426695  6516 net.cpp:165] Memory required for data: 3686400
I1005 04:11:49.426695  6516 layer_factory.hpp:77] Creating layer label_lower_label_lower_0_split
I1005 04:11:49.426695  6516 net.cpp:100] Creating Layer label_lower_label_lower_0_split
I1005 04:11:49.426695  6516 net.cpp:444] label_lower_label_lower_0_split <- label_lower
I1005 04:11:49.426695  6516 net.cpp:418] label_lower_label_lower_0_split -> label_lower_label_lower_0_split_0
I1005 04:11:49.426695  6516 net.cpp:418] label_lower_label_lower_0_split -> label_lower_label_lower_0_split_1
I1005 04:11:49.427695  6516 net.cpp:418] label_lower_label_lower_0_split -> label_lower_label_lower_0_split_2
I1005 04:11:49.427695  6516 net.cpp:150] Setting up label_lower_label_lower_0_split
I1005 04:11:49.427695  6516 net.cpp:157] Top shape: 16 13 24 24 (119808)
I1005 04:11:49.427695  6516 net.cpp:157] Top shape: 16 13 24 24 (119808)
I1005 04:11:49.427695  6516 net.cpp:157] Top shape: 16 13 24 24 (119808)
I1005 04:11:49.427695  6516 net.cpp:165] Memory required for data: 5124096
I1005 04:11:49.427695  6516 layer_factory.hpp:77] Creating layer pool_image_lower
I1005 04:11:49.427695  6516 net.cpp:100] Creating Layer pool_image_lower
I1005 04:11:49.427695  6516 net.cpp:444] pool_image_lower <- image_data_0_split_0
I1005 04:11:49.427695  6516 net.cpp:418] pool_image_lower -> pool_image_lower
I1005 04:11:49.744412  6516 net.cpp:150] Setting up pool_image_lower
I1005 04:11:49.744412  6516 net.cpp:157] Top shape: 16 1 24 24 (9216)
I1005 04:11:49.744412  6516 net.cpp:165] Memory required for data: 5160960
I1005 04:11:49.744412  6516 layer_factory.hpp:77] Creating layer pool_image_lower_pool_image_lower_0_split
I1005 04:11:49.744412  6516 net.cpp:100] Creating Layer pool_image_lower_pool_image_lower_0_split
I1005 04:11:49.745411  6516 net.cpp:444] pool_image_lower_pool_image_lower_0_split <- pool_image_lower
I1005 04:11:49.745411  6516 net.cpp:418] pool_image_lower_pool_image_lower_0_split -> pool_image_lower_pool_image_lower_0_split_0
I1005 04:11:49.745411  6516 net.cpp:418] pool_image_lower_pool_image_lower_0_split -> pool_image_lower_pool_image_lower_0_split_1
I1005 04:11:49.745411  6516 net.cpp:418] pool_image_lower_pool_image_lower_0_split -> pool_image_lower_pool_image_lower_0_split_2
I1005 04:11:49.745411  6516 net.cpp:150] Setting up pool_image_lower_pool_image_lower_0_split
I1005 04:11:49.745411  6516 net.cpp:157] Top shape: 16 1 24 24 (9216)
I1005 04:11:49.745411  6516 net.cpp:157] Top shape: 16 1 24 24 (9216)
I1005 04:11:49.745411  6516 net.cpp:157] Top shape: 16 1 24 24 (9216)
I1005 04:11:49.745411  6516 net.cpp:165] Memory required for data: 5271552
I1005 04:11:49.745411  6516 layer_factory.hpp:77] Creating layer conv2_stage1
I1005 04:11:49.745411  6516 net.cpp:100] Creating Layer conv2_stage1
I1005 04:11:49.745411  6516 net.cpp:444] conv2_stage1 <- image_data_0_split_1
I1005 04:11:49.746410  6516 net.cpp:418] conv2_stage1 -> conv2_stage1
I1005 04:11:49.748409  6516 net.cpp:150] Setting up conv2_stage1
I1005 04:11:49.748409  6516 net.cpp:157] Top shape: 16 128 96 96 (18874368)
I1005 04:11:49.748409  6516 net.cpp:165] Memory required for data: 80769024
I1005 04:11:49.748409  6516 layer_factory.hpp:77] Creating layer relu2_stage1
I1005 04:11:49.748409  6516 net.cpp:100] Creating Layer relu2_stage1
I1005 04:11:49.748409  6516 net.cpp:444] relu2_stage1 <- conv2_stage1
I1005 04:11:49.748409  6516 net.cpp:405] relu2_stage1 -> conv2_stage1 (in-place)
I1005 04:11:49.749408  6516 net.cpp:150] Setting up relu2_stage1
I1005 04:11:49.749408  6516 net.cpp:157] Top shape: 16 128 96 96 (18874368)
I1005 04:11:49.749408  6516 net.cpp:165] Memory required for data: 156266496
I1005 04:11:49.749408  6516 layer_factory.hpp:77] Creating layer pool2_stage1
I1005 04:11:49.749408  6516 net.cpp:100] Creating Layer pool2_stage1
I1005 04:11:49.749408  6516 net.cpp:444] pool2_stage1 <- conv2_stage1
I1005 04:11:49.750407  6516 net.cpp:418] pool2_stage1 -> pool2_stage1
I1005 04:11:49.750407  6516 net.cpp:150] Setting up pool2_stage1
I1005 04:11:49.750407  6516 net.cpp:157] Top shape: 16 128 48 48 (4718592)
I1005 04:11:49.750407  6516 net.cpp:165] Memory required for data: 175140864
I1005 04:11:49.750407  6516 layer_factory.hpp:77] Creating layer conv3_stage1
I1005 04:11:49.750407  6516 net.cpp:100] Creating Layer conv3_stage1
I1005 04:11:49.750407  6516 net.cpp:444] conv3_stage1 <- pool2_stage1
I1005 04:11:49.750407  6516 net.cpp:418] conv3_stage1 -> conv3_stage1
I1005 04:11:49.770390  6516 net.cpp:150] Setting up conv3_stage1
I1005 04:11:49.770390  6516 net.cpp:157] Top shape: 16 128 48 48 (4718592)
I1005 04:11:49.770390  6516 net.cpp:165] Memory required for data: 194015232
I1005 04:11:49.770390  6516 layer_factory.hpp:77] Creating layer relu3_stage1
I1005 04:11:49.771389  6516 net.cpp:100] Creating Layer relu3_stage1
I1005 04:11:49.771389  6516 net.cpp:444] relu3_stage1 <- conv3_stage1
I1005 04:11:49.771389  6516 net.cpp:405] relu3_stage1 -> conv3_stage1 (in-place)
I1005 04:11:49.771389  6516 net.cpp:150] Setting up relu3_stage1
I1005 04:11:49.771389  6516 net.cpp:157] Top shape: 16 128 48 48 (4718592)
I1005 04:11:49.771389  6516 net.cpp:165] Memory required for data: 212889600
I1005 04:11:49.771389  6516 layer_factory.hpp:77] Creating layer pool3_stage1
I1005 04:11:49.771389  6516 net.cpp:100] Creating Layer pool3_stage1
I1005 04:11:49.771389  6516 net.cpp:444] pool3_stage1 <- conv3_stage1
I1005 04:11:49.772387  6516 net.cpp:418] pool3_stage1 -> pool3_stage1
I1005 04:11:49.772387  6516 net.cpp:150] Setting up pool3_stage1
I1005 04:11:49.772387  6516 net.cpp:157] Top shape: 16 128 24 24 (1179648)
I1005 04:11:49.772387  6516 net.cpp:165] Memory required for data: 217608192
I1005 04:11:49.772387  6516 layer_factory.hpp:77] Creating layer pool3_stage1_pool3_stage1_0_split
I1005 04:11:49.772387  6516 net.cpp:100] Creating Layer pool3_stage1_pool3_stage1_0_split
I1005 04:11:49.772387  6516 net.cpp:444] pool3_stage1_pool3_stage1_0_split <- pool3_stage1
I1005 04:11:49.772387  6516 net.cpp:418] pool3_stage1_pool3_stage1_0_split -> pool3_stage1_pool3_stage1_0_split_0
I1005 04:11:49.772387  6516 net.cpp:418] pool3_stage1_pool3_stage1_0_split -> pool3_stage1_pool3_stage1_0_split_1
I1005 04:11:49.772387  6516 net.cpp:418] pool3_stage1_pool3_stage1_0_split -> pool3_stage1_pool3_stage1_0_split_2
I1005 04:11:49.772387  6516 net.cpp:418] pool3_stage1_pool3_stage1_0_split -> pool3_stage1_pool3_stage1_0_split_3
I1005 04:11:49.773385  6516 net.cpp:150] Setting up pool3_stage1_pool3_stage1_0_split
I1005 04:11:49.773385  6516 net.cpp:157] Top shape: 16 128 24 24 (1179648)
I1005 04:11:49.773385  6516 net.cpp:157] Top shape: 16 128 24 24 (1179648)
I1005 04:11:49.773385  6516 net.cpp:157] Top shape: 16 128 24 24 (1179648)
I1005 04:11:49.773385  6516 net.cpp:157] Top shape: 16 128 24 24 (1179648)
I1005 04:11:49.773385  6516 net.cpp:165] Memory required for data: 236482560
I1005 04:11:49.773385  6516 layer_factory.hpp:77] Creating layer conv4_stage1
I1005 04:11:49.773385  6516 net.cpp:100] Creating Layer conv4_stage1
I1005 04:11:49.773385  6516 net.cpp:444] conv4_stage1 <- pool3_stage1_pool3_stage1_0_split_0
I1005 04:11:49.773385  6516 net.cpp:418] conv4_stage1 -> conv4_stage1
I1005 04:11:49.779379  6516 net.cpp:150] Setting up conv4_stage1
I1005 04:11:49.780378  6516 net.cpp:157] Top shape: 16 64 24 24 (589824)
I1005 04:11:49.781379  6516 net.cpp:165] Memory required for data: 238841856
I1005 04:11:49.781379  6516 layer_factory.hpp:77] Creating layer relu4_stage1
I1005 04:11:49.781379  6516 net.cpp:100] Creating Layer relu4_stage1
I1005 04:11:49.781379  6516 net.cpp:444] relu4_stage1 <- conv4_stage1
I1005 04:11:49.781379  6516 net.cpp:405] relu4_stage1 -> conv4_stage1 (in-place)
I1005 04:11:49.781379  6516 net.cpp:150] Setting up relu4_stage1
I1005 04:11:49.781379  6516 net.cpp:157] Top shape: 16 64 24 24 (589824)
I1005 04:11:49.781379  6516 net.cpp:165] Memory required for data: 241201152
I1005 04:11:49.782378  6516 layer_factory.hpp:77] Creating layer conv4_stage1_relu4_stage1_0_split
I1005 04:11:49.782378  6516 net.cpp:100] Creating Layer conv4_stage1_relu4_stage1_0_split
I1005 04:11:49.782378  6516 net.cpp:444] conv4_stage1_relu4_stage1_0_split <- conv4_stage1
I1005 04:11:49.782378  6516 net.cpp:418] conv4_stage1_relu4_stage1_0_split -> conv4_stage1_relu4_stage1_0_split_0
I1005 04:11:49.782378  6516 net.cpp:418] conv4_stage1_relu4_stage1_0_split -> conv4_stage1_relu4_stage1_0_split_1
I1005 04:11:49.782378  6516 net.cpp:150] Setting up conv4_stage1_relu4_stage1_0_split
I1005 04:11:49.782378  6516 net.cpp:157] Top shape: 16 64 24 24 (589824)
I1005 04:11:49.782378  6516 net.cpp:157] Top shape: 16 64 24 24 (589824)
I1005 04:11:49.782378  6516 net.cpp:165] Memory required for data: 245919744
I1005 04:11:49.782378  6516 layer_factory.hpp:77] Creating layer conv5_stage1
I1005 04:11:49.782378  6516 net.cpp:100] Creating Layer conv5_stage1
I1005 04:11:49.782378  6516 net.cpp:444] conv5_stage1 <- conv4_stage1_relu4_stage1_0_split_0
I1005 04:11:49.783377  6516 net.cpp:418] conv5_stage1 -> conv5_stage1
I1005 04:11:49.785375  6516 net.cpp:150] Setting up conv5_stage1
I1005 04:11:49.785375  6516 net.cpp:157] Top shape: 16 64 24 24 (589824)
I1005 04:11:49.785375  6516 net.cpp:165] Memory required for data: 248279040
I1005 04:11:49.786375  6516 layer_factory.hpp:77] Creating layer relu5_stage1
I1005 04:11:49.786375  6516 net.cpp:100] Creating Layer relu5_stage1
I1005 04:11:49.786375  6516 net.cpp:444] relu5_stage1 <- conv5_stage1
I1005 04:11:49.786375  6516 net.cpp:405] relu5_stage1 -> conv5_stage1 (in-place)
I1005 04:11:49.786375  6516 net.cpp:150] Setting up relu5_stage1
I1005 04:11:49.786375  6516 net.cpp:157] Top shape: 16 64 24 24 (589824)
I1005 04:11:49.786375  6516 net.cpp:165] Memory required for data: 250638336
I1005 04:11:49.786375  6516 layer_factory.hpp:77] Creating layer drop1_stage1
I1005 04:11:49.786375  6516 net.cpp:100] Creating Layer drop1_stage1
I1005 04:11:49.787374  6516 net.cpp:444] drop1_stage1 <- conv5_stage1
I1005 04:11:49.787374  6516 net.cpp:405] drop1_stage1 -> conv5_stage1 (in-place)
I1005 04:11:49.787374  6516 net.cpp:150] Setting up drop1_stage1
I1005 04:11:49.787374  6516 net.cpp:157] Top shape: 16 64 24 24 (589824)
I1005 04:11:49.787374  6516 net.cpp:165] Memory required for data: 252997632
I1005 04:11:49.787374  6516 layer_factory.hpp:77] Creating layer concat_conv5_stage1
I1005 04:11:49.787374  6516 net.cpp:100] Creating Layer concat_conv5_stage1
I1005 04:11:49.787374  6516 net.cpp:444] concat_conv5_stage1 <- conv4_stage1_relu4_stage1_0_split_1
I1005 04:11:49.787374  6516 net.cpp:444] concat_conv5_stage1 <- conv5_stage1
I1005 04:11:49.787374  6516 net.cpp:418] concat_conv5_stage1 -> concat_conv5_stage1
I1005 04:11:49.787374  6516 net.cpp:150] Setting up concat_conv5_stage1
I1005 04:11:49.787374  6516 net.cpp:157] Top shape: 16 128 24 24 (1179648)
I1005 04:11:49.787374  6516 net.cpp:165] Memory required for data: 257716224
I1005 04:11:49.787374  6516 layer_factory.hpp:77] Creating layer conv6_stage1
I1005 04:11:49.788372  6516 net.cpp:100] Creating Layer conv6_stage1
I1005 04:11:49.788372  6516 net.cpp:444] conv6_stage1 <- concat_conv5_stage1
I1005 04:11:49.788372  6516 net.cpp:418] conv6_stage1 -> conv6_stage1
I1005 04:11:49.789372  6516 net.cpp:150] Setting up conv6_stage1
I1005 04:11:49.790370  6516 net.cpp:157] Top shape: 16 64 24 24 (589824)
I1005 04:11:49.790370  6516 net.cpp:165] Memory required for data: 260075520
I1005 04:11:49.790370  6516 layer_factory.hpp:77] Creating layer relu6_stage1
I1005 04:11:49.790370  6516 net.cpp:100] Creating Layer relu6_stage1
I1005 04:11:49.790370  6516 net.cpp:444] relu6_stage1 <- conv6_stage1
I1005 04:11:49.791368  6516 net.cpp:405] relu6_stage1 -> conv6_stage1 (in-place)
I1005 04:11:49.791368  6516 net.cpp:150] Setting up relu6_stage1
I1005 04:11:49.791368  6516 net.cpp:157] Top shape: 16 64 24 24 (589824)
I1005 04:11:49.791368  6516 net.cpp:165] Memory required for data: 262434816
I1005 04:11:49.791368  6516 layer_factory.hpp:77] Creating layer drop2_stage1
I1005 04:11:49.791368  6516 net.cpp:100] Creating Layer drop2_stage1
I1005 04:11:49.791368  6516 net.cpp:444] drop2_stage1 <- conv6_stage1
I1005 04:11:49.791368  6516 net.cpp:405] drop2_stage1 -> conv6_stage1 (in-place)
I1005 04:11:49.792368  6516 net.cpp:150] Setting up drop2_stage1
I1005 04:11:49.792368  6516 net.cpp:157] Top shape: 16 64 24 24 (589824)
I1005 04:11:49.792368  6516 net.cpp:165] Memory required for data: 264794112
I1005 04:11:49.792368  6516 layer_factory.hpp:77] Creating layer conv7_stage1
I1005 04:11:49.792368  6516 net.cpp:100] Creating Layer conv7_stage1
I1005 04:11:49.792368  6516 net.cpp:444] conv7_stage1 <- conv6_stage1
I1005 04:11:49.792368  6516 net.cpp:418] conv7_stage1 -> conv7_stage1
I1005 04:11:49.794368  6516 net.cpp:150] Setting up conv7_stage1
I1005 04:11:49.794368  6516 net.cpp:157] Top shape: 16 13 24 24 (119808)
I1005 04:11:49.794368  6516 net.cpp:165] Memory required for data: 265273344
I1005 04:11:49.794368  6516 layer_factory.hpp:77] Creating layer conv7_stage1_conv7_stage1_0_split
I1005 04:11:49.794368  6516 net.cpp:100] Creating Layer conv7_stage1_conv7_stage1_0_split
I1005 04:11:49.794368  6516 net.cpp:444] conv7_stage1_conv7_stage1_0_split <- conv7_stage1
I1005 04:11:49.794368  6516 net.cpp:418] conv7_stage1_conv7_stage1_0_split -> conv7_stage1_conv7_stage1_0_split_0
I1005 04:11:49.795366  6516 net.cpp:418] conv7_stage1_conv7_stage1_0_split -> conv7_stage1_conv7_stage1_0_split_1
I1005 04:11:49.795366  6516 net.cpp:150] Setting up conv7_stage1_conv7_stage1_0_split
I1005 04:11:49.795366  6516 net.cpp:157] Top shape: 16 13 24 24 (119808)
I1005 04:11:49.795366  6516 net.cpp:157] Top shape: 16 13 24 24 (119808)
I1005 04:11:49.795366  6516 net.cpp:165] Memory required for data: 266231808
I1005 04:11:49.795366  6516 layer_factory.hpp:77] Creating layer loss_stage1
I1005 04:11:49.795366  6516 net.cpp:100] Creating Layer loss_stage1
I1005 04:11:49.795366  6516 net.cpp:444] loss_stage1 <- conv7_stage1_conv7_stage1_0_split_0
I1005 04:11:49.795366  6516 net.cpp:444] loss_stage1 <- label_1st_lower
I1005 04:11:49.795366  6516 net.cpp:418] loss_stage1 -> loss_stage1
I1005 04:11:49.795366  6516 net.cpp:150] Setting up loss_stage1
I1005 04:11:49.795366  6516 net.cpp:157] Top shape: (1)
I1005 04:11:49.796365  6516 net.cpp:160]     with loss weight 1
I1005 04:11:49.796365  6516 net.cpp:165] Memory required for data: 266231812
I1005 04:11:49.796365  6516 layer_factory.hpp:77] Creating layer conv1_stage2
I1005 04:11:49.796365  6516 net.cpp:100] Creating Layer conv1_stage2
I1005 04:11:49.796365  6516 net.cpp:444] conv1_stage2 <- pool3_stage1_pool3_stage1_0_split_1
I1005 04:11:49.796365  6516 net.cpp:418] conv1_stage2 -> conv1_stage2
I1005 04:11:49.800375  6516 net.cpp:150] Setting up conv1_stage2
I1005 04:11:49.800375  6516 net.cpp:157] Top shape: 16 64 24 24 (589824)
I1005 04:11:49.800375  6516 net.cpp:165] Memory required for data: 268591108
I1005 04:11:49.800375  6516 layer_factory.hpp:77] Creating layer relu1_stage2
I1005 04:11:49.800375  6516 net.cpp:100] Creating Layer relu1_stage2
I1005 04:11:49.800375  6516 net.cpp:444] relu1_stage2 <- conv1_stage2
I1005 04:11:49.800375  6516 net.cpp:405] relu1_stage2 -> conv1_stage2 (in-place)
I1005 04:11:49.801362  6516 net.cpp:150] Setting up relu1_stage2
I1005 04:11:49.801362  6516 net.cpp:157] Top shape: 16 64 24 24 (589824)
I1005 04:11:49.801362  6516 net.cpp:165] Memory required for data: 270950404
I1005 04:11:49.801362  6516 layer_factory.hpp:77] Creating layer concat_stage2
I1005 04:11:49.801362  6516 net.cpp:100] Creating Layer concat_stage2
I1005 04:11:49.801362  6516 net.cpp:444] concat_stage2 <- conv1_stage2
I1005 04:11:49.801362  6516 net.cpp:444] concat_stage2 <- conv7_stage1_conv7_stage1_0_split_1
I1005 04:11:49.801362  6516 net.cpp:444] concat_stage2 <- pool_image_lower_pool_image_lower_0_split_0
I1005 04:11:49.801362  6516 net.cpp:418] concat_stage2 -> concat_stage2
I1005 04:11:49.801362  6516 net.cpp:150] Setting up concat_stage2
I1005 04:11:49.802361  6516 net.cpp:157] Top shape: 16 78 24 24 (718848)
I1005 04:11:49.802361  6516 net.cpp:165] Memory required for data: 273825796
I1005 04:11:49.802361  6516 layer_factory.hpp:77] Creating layer Mconv1_stage2
I1005 04:11:49.802361  6516 net.cpp:100] Creating Layer Mconv1_stage2
I1005 04:11:49.802361  6516 net.cpp:444] Mconv1_stage2 <- concat_stage2
I1005 04:11:49.802361  6516 net.cpp:418] Mconv1_stage2 -> Mconv1_stage2
I1005 04:11:49.805357  6516 net.cpp:150] Setting up Mconv1_stage2
I1005 04:11:49.805357  6516 net.cpp:157] Top shape: 16 64 24 24 (589824)
I1005 04:11:49.805357  6516 net.cpp:165] Memory required for data: 276185092
I1005 04:11:49.805357  6516 layer_factory.hpp:77] Creating layer Mrelu1_stage2
I1005 04:11:49.805357  6516 net.cpp:100] Creating Layer Mrelu1_stage2
I1005 04:11:49.805357  6516 net.cpp:444] Mrelu1_stage2 <- Mconv1_stage2
I1005 04:11:49.805357  6516 net.cpp:405] Mrelu1_stage2 -> Mconv1_stage2 (in-place)
I1005 04:11:49.806356  6516 net.cpp:150] Setting up Mrelu1_stage2
I1005 04:11:49.806356  6516 net.cpp:157] Top shape: 16 64 24 24 (589824)
I1005 04:11:49.806356  6516 net.cpp:165] Memory required for data: 278544388
I1005 04:11:49.806356  6516 layer_factory.hpp:77] Creating layer Mconv1_stage2_Mrelu1_stage2_0_split
I1005 04:11:49.806356  6516 net.cpp:100] Creating Layer Mconv1_stage2_Mrelu1_stage2_0_split
I1005 04:11:49.807356  6516 net.cpp:444] Mconv1_stage2_Mrelu1_stage2_0_split <- Mconv1_stage2
I1005 04:11:49.807356  6516 net.cpp:418] Mconv1_stage2_Mrelu1_stage2_0_split -> Mconv1_stage2_Mrelu1_stage2_0_split_0
I1005 04:11:49.807356  6516 net.cpp:418] Mconv1_stage2_Mrelu1_stage2_0_split -> Mconv1_stage2_Mrelu1_stage2_0_split_1
I1005 04:11:49.807356  6516 net.cpp:150] Setting up Mconv1_stage2_Mrelu1_stage2_0_split
I1005 04:11:49.807356  6516 net.cpp:157] Top shape: 16 64 24 24 (589824)
I1005 04:11:49.807356  6516 net.cpp:157] Top shape: 16 64 24 24 (589824)
I1005 04:11:49.807356  6516 net.cpp:165] Memory required for data: 283262980
I1005 04:11:49.807356  6516 layer_factory.hpp:77] Creating layer Mconv3_stage2
I1005 04:11:49.807356  6516 net.cpp:100] Creating Layer Mconv3_stage2
I1005 04:11:49.807356  6516 net.cpp:444] Mconv3_stage2 <- Mconv1_stage2_Mrelu1_stage2_0_split_0
I1005 04:11:49.808352  6516 net.cpp:418] Mconv3_stage2 -> Mconv3_stage2
I1005 04:11:49.810351  6516 net.cpp:150] Setting up Mconv3_stage2
I1005 04:11:49.810351  6516 net.cpp:157] Top shape: 16 64 24 24 (589824)
I1005 04:11:49.810351  6516 net.cpp:165] Memory required for data: 285622276
I1005 04:11:49.810351  6516 layer_factory.hpp:77] Creating layer Mrelu3_stage2
I1005 04:11:49.810351  6516 net.cpp:100] Creating Layer Mrelu3_stage2
I1005 04:11:49.811352  6516 net.cpp:444] Mrelu3_stage2 <- Mconv3_stage2
I1005 04:11:49.811352  6516 net.cpp:405] Mrelu3_stage2 -> Mconv3_stage2 (in-place)
I1005 04:11:49.812350  6516 net.cpp:150] Setting up Mrelu3_stage2
I1005 04:11:49.812350  6516 net.cpp:157] Top shape: 16 64 24 24 (589824)
I1005 04:11:49.812350  6516 net.cpp:165] Memory required for data: 287981572
I1005 04:11:49.812350  6516 layer_factory.hpp:77] Creating layer concat_Mconv3_stage2
I1005 04:11:49.812350  6516 net.cpp:100] Creating Layer concat_Mconv3_stage2
I1005 04:11:49.812350  6516 net.cpp:444] concat_Mconv3_stage2 <- Mconv1_stage2_Mrelu1_stage2_0_split_1
I1005 04:11:49.812350  6516 net.cpp:444] concat_Mconv3_stage2 <- Mconv3_stage2
I1005 04:11:49.812350  6516 net.cpp:418] concat_Mconv3_stage2 -> concat_Mconv3_stage2
I1005 04:11:49.813349  6516 net.cpp:150] Setting up concat_Mconv3_stage2
I1005 04:11:49.813349  6516 net.cpp:157] Top shape: 16 128 24 24 (1179648)
I1005 04:11:49.813349  6516 net.cpp:165] Memory required for data: 292700164
I1005 04:11:49.813349  6516 layer_factory.hpp:77] Creating layer Mconv4_stage2
I1005 04:11:49.813349  6516 net.cpp:100] Creating Layer Mconv4_stage2
I1005 04:11:49.813349  6516 net.cpp:444] Mconv4_stage2 <- concat_Mconv3_stage2
I1005 04:11:49.813349  6516 net.cpp:418] Mconv4_stage2 -> Mconv4_stage2
I1005 04:11:49.815347  6516 net.cpp:150] Setting up Mconv4_stage2
I1005 04:11:49.815347  6516 net.cpp:157] Top shape: 16 64 24 24 (589824)
I1005 04:11:49.815347  6516 net.cpp:165] Memory required for data: 295059460
I1005 04:11:49.815347  6516 layer_factory.hpp:77] Creating layer Mrelu4_stage2
I1005 04:11:49.815347  6516 net.cpp:100] Creating Layer Mrelu4_stage2
I1005 04:11:49.815347  6516 net.cpp:444] Mrelu4_stage2 <- Mconv4_stage2
I1005 04:11:49.815347  6516 net.cpp:405] Mrelu4_stage2 -> Mconv4_stage2 (in-place)
I1005 04:11:49.816345  6516 net.cpp:150] Setting up Mrelu4_stage2
I1005 04:11:49.816345  6516 net.cpp:157] Top shape: 16 64 24 24 (589824)
I1005 04:11:49.816345  6516 net.cpp:165] Memory required for data: 297418756
I1005 04:11:49.816345  6516 layer_factory.hpp:77] Creating layer Mconv5_stage2
I1005 04:11:49.816345  6516 net.cpp:100] Creating Layer Mconv5_stage2
I1005 04:11:49.816345  6516 net.cpp:444] Mconv5_stage2 <- Mconv4_stage2
I1005 04:11:49.816345  6516 net.cpp:418] Mconv5_stage2 -> Mconv5_stage2
I1005 04:11:49.818344  6516 net.cpp:150] Setting up Mconv5_stage2
I1005 04:11:49.818344  6516 net.cpp:157] Top shape: 16 13 24 24 (119808)
I1005 04:11:49.818344  6516 net.cpp:165] Memory required for data: 297897988
I1005 04:11:49.818344  6516 layer_factory.hpp:77] Creating layer Mconv5_stage2_Mconv5_stage2_0_split
I1005 04:11:49.818344  6516 net.cpp:100] Creating Layer Mconv5_stage2_Mconv5_stage2_0_split
I1005 04:11:49.818344  6516 net.cpp:444] Mconv5_stage2_Mconv5_stage2_0_split <- Mconv5_stage2
I1005 04:11:49.818344  6516 net.cpp:418] Mconv5_stage2_Mconv5_stage2_0_split -> Mconv5_stage2_Mconv5_stage2_0_split_0
I1005 04:11:49.818344  6516 net.cpp:418] Mconv5_stage2_Mconv5_stage2_0_split -> Mconv5_stage2_Mconv5_stage2_0_split_1
I1005 04:11:49.818344  6516 net.cpp:150] Setting up Mconv5_stage2_Mconv5_stage2_0_split
I1005 04:11:49.818344  6516 net.cpp:157] Top shape: 16 13 24 24 (119808)
I1005 04:11:49.818344  6516 net.cpp:157] Top shape: 16 13 24 24 (119808)
I1005 04:11:49.820343  6516 net.cpp:165] Memory required for data: 298856452
I1005 04:11:49.820343  6516 layer_factory.hpp:77] Creating layer loss_stage2
I1005 04:11:49.820343  6516 net.cpp:100] Creating Layer loss_stage2
I1005 04:11:49.820343  6516 net.cpp:444] loss_stage2 <- Mconv5_stage2_Mconv5_stage2_0_split_0
I1005 04:11:49.820343  6516 net.cpp:444] loss_stage2 <- label_lower_label_lower_0_split_0
I1005 04:11:49.820343  6516 net.cpp:418] loss_stage2 -> loss_stage2
I1005 04:11:49.821343  6516 net.cpp:150] Setting up loss_stage2
I1005 04:11:49.821343  6516 net.cpp:157] Top shape: (1)
I1005 04:11:49.821343  6516 net.cpp:160]     with loss weight 1
I1005 04:11:49.821343  6516 net.cpp:165] Memory required for data: 298856456
I1005 04:11:49.821343  6516 layer_factory.hpp:77] Creating layer conv1_stage3
I1005 04:11:49.821343  6516 net.cpp:100] Creating Layer conv1_stage3
I1005 04:11:49.821343  6516 net.cpp:444] conv1_stage3 <- pool3_stage1_pool3_stage1_0_split_2
I1005 04:11:49.821343  6516 net.cpp:418] conv1_stage3 -> conv1_stage3
I1005 04:11:49.826337  6516 net.cpp:150] Setting up conv1_stage3
I1005 04:11:49.827339  6516 net.cpp:157] Top shape: 16 64 24 24 (589824)
I1005 04:11:49.827339  6516 net.cpp:165] Memory required for data: 301215752
I1005 04:11:49.827339  6516 layer_factory.hpp:77] Creating layer relu1_stage3
I1005 04:11:49.827339  6516 net.cpp:100] Creating Layer relu1_stage3
I1005 04:11:49.827339  6516 net.cpp:444] relu1_stage3 <- conv1_stage3
I1005 04:11:49.827339  6516 net.cpp:405] relu1_stage3 -> conv1_stage3 (in-place)
I1005 04:11:49.827339  6516 net.cpp:150] Setting up relu1_stage3
I1005 04:11:49.827339  6516 net.cpp:157] Top shape: 16 64 24 24 (589824)
I1005 04:11:49.828336  6516 net.cpp:165] Memory required for data: 303575048
I1005 04:11:49.828336  6516 layer_factory.hpp:77] Creating layer concat_stage3
I1005 04:11:49.828336  6516 net.cpp:100] Creating Layer concat_stage3
I1005 04:11:49.828336  6516 net.cpp:444] concat_stage3 <- conv1_stage3
I1005 04:11:49.828336  6516 net.cpp:444] concat_stage3 <- Mconv5_stage2_Mconv5_stage2_0_split_1
I1005 04:11:49.828336  6516 net.cpp:444] concat_stage3 <- pool_image_lower_pool_image_lower_0_split_1
I1005 04:11:49.828336  6516 net.cpp:418] concat_stage3 -> concat_stage3
I1005 04:11:49.830335  6516 net.cpp:150] Setting up concat_stage3
I1005 04:11:49.830335  6516 net.cpp:157] Top shape: 16 78 24 24 (718848)
I1005 04:11:49.831334  6516 net.cpp:165] Memory required for data: 306450440
I1005 04:11:49.831334  6516 layer_factory.hpp:77] Creating layer Mconv1_stage3
I1005 04:11:49.831334  6516 net.cpp:100] Creating Layer Mconv1_stage3
I1005 04:11:49.831334  6516 net.cpp:444] Mconv1_stage3 <- concat_stage3
I1005 04:11:49.831334  6516 net.cpp:418] Mconv1_stage3 -> Mconv1_stage3
I1005 04:11:49.834331  6516 net.cpp:150] Setting up Mconv1_stage3
I1005 04:11:49.834331  6516 net.cpp:157] Top shape: 16 64 24 24 (589824)
I1005 04:11:49.834331  6516 net.cpp:165] Memory required for data: 308809736
I1005 04:11:49.834331  6516 layer_factory.hpp:77] Creating layer Mrelu1_stage3
I1005 04:11:49.834331  6516 net.cpp:100] Creating Layer Mrelu1_stage3
I1005 04:11:49.834331  6516 net.cpp:444] Mrelu1_stage3 <- Mconv1_stage3
I1005 04:11:49.834331  6516 net.cpp:405] Mrelu1_stage3 -> Mconv1_stage3 (in-place)
I1005 04:11:49.835331  6516 net.cpp:150] Setting up Mrelu1_stage3
I1005 04:11:49.835331  6516 net.cpp:157] Top shape: 16 64 24 24 (589824)
I1005 04:11:49.835331  6516 net.cpp:165] Memory required for data: 311169032
I1005 04:11:49.835331  6516 layer_factory.hpp:77] Creating layer Mconv1_stage3_Mrelu1_stage3_0_split
I1005 04:11:49.835331  6516 net.cpp:100] Creating Layer Mconv1_stage3_Mrelu1_stage3_0_split
I1005 04:11:49.835331  6516 net.cpp:444] Mconv1_stage3_Mrelu1_stage3_0_split <- Mconv1_stage3
I1005 04:11:49.835331  6516 net.cpp:418] Mconv1_stage3_Mrelu1_stage3_0_split -> Mconv1_stage3_Mrelu1_stage3_0_split_0
I1005 04:11:49.835331  6516 net.cpp:418] Mconv1_stage3_Mrelu1_stage3_0_split -> Mconv1_stage3_Mrelu1_stage3_0_split_1
I1005 04:11:49.835331  6516 net.cpp:150] Setting up Mconv1_stage3_Mrelu1_stage3_0_split
I1005 04:11:49.835331  6516 net.cpp:157] Top shape: 16 64 24 24 (589824)
I1005 04:11:49.836330  6516 net.cpp:157] Top shape: 16 64 24 24 (589824)
I1005 04:11:49.836330  6516 net.cpp:165] Memory required for data: 315887624
I1005 04:11:49.836330  6516 layer_factory.hpp:77] Creating layer Mconv3_stage3
I1005 04:11:49.836330  6516 net.cpp:100] Creating Layer Mconv3_stage3
I1005 04:11:49.836330  6516 net.cpp:444] Mconv3_stage3 <- Mconv1_stage3_Mrelu1_stage3_0_split_0
I1005 04:11:49.836330  6516 net.cpp:418] Mconv3_stage3 -> Mconv3_stage3
I1005 04:11:49.839327  6516 net.cpp:150] Setting up Mconv3_stage3
I1005 04:11:49.840327  6516 net.cpp:157] Top shape: 16 64 24 24 (589824)
I1005 04:11:49.840327  6516 net.cpp:165] Memory required for data: 318246920
I1005 04:11:49.840327  6516 layer_factory.hpp:77] Creating layer Mrelu3_stage3
I1005 04:11:49.840327  6516 net.cpp:100] Creating Layer Mrelu3_stage3
I1005 04:11:49.840327  6516 net.cpp:444] Mrelu3_stage3 <- Mconv3_stage3
I1005 04:11:49.840327  6516 net.cpp:405] Mrelu3_stage3 -> Mconv3_stage3 (in-place)
I1005 04:11:49.841325  6516 net.cpp:150] Setting up Mrelu3_stage3
I1005 04:11:49.841325  6516 net.cpp:157] Top shape: 16 64 24 24 (589824)
I1005 04:11:49.842325  6516 net.cpp:165] Memory required for data: 320606216
I1005 04:11:49.842325  6516 layer_factory.hpp:77] Creating layer concat_Mconv3_stage3
I1005 04:11:49.842325  6516 net.cpp:100] Creating Layer concat_Mconv3_stage3
I1005 04:11:49.842325  6516 net.cpp:444] concat_Mconv3_stage3 <- Mconv1_stage3_Mrelu1_stage3_0_split_1
I1005 04:11:49.842325  6516 net.cpp:444] concat_Mconv3_stage3 <- Mconv3_stage3
I1005 04:11:49.842325  6516 net.cpp:418] concat_Mconv3_stage3 -> concat_Mconv3_stage3
I1005 04:11:49.842325  6516 net.cpp:150] Setting up concat_Mconv3_stage3
I1005 04:11:49.842325  6516 net.cpp:157] Top shape: 16 128 24 24 (1179648)
I1005 04:11:49.842325  6516 net.cpp:165] Memory required for data: 325324808
I1005 04:11:49.842325  6516 layer_factory.hpp:77] Creating layer Mconv4_stage3
I1005 04:11:49.842325  6516 net.cpp:100] Creating Layer Mconv4_stage3
I1005 04:11:49.842325  6516 net.cpp:444] Mconv4_stage3 <- concat_Mconv3_stage3
I1005 04:11:49.843322  6516 net.cpp:418] Mconv4_stage3 -> Mconv4_stage3
I1005 04:11:49.844322  6516 net.cpp:150] Setting up Mconv4_stage3
I1005 04:11:49.845320  6516 net.cpp:157] Top shape: 16 64 24 24 (589824)
I1005 04:11:49.845320  6516 net.cpp:165] Memory required for data: 327684104
I1005 04:11:49.845320  6516 layer_factory.hpp:77] Creating layer Mrelu4_stage3
I1005 04:11:49.845320  6516 net.cpp:100] Creating Layer Mrelu4_stage3
I1005 04:11:49.845320  6516 net.cpp:444] Mrelu4_stage3 <- Mconv4_stage3
I1005 04:11:49.846319  6516 net.cpp:405] Mrelu4_stage3 -> Mconv4_stage3 (in-place)
I1005 04:11:49.846319  6516 net.cpp:150] Setting up Mrelu4_stage3
I1005 04:11:49.846319  6516 net.cpp:157] Top shape: 16 64 24 24 (589824)
I1005 04:11:49.846319  6516 net.cpp:165] Memory required for data: 330043400
I1005 04:11:49.846319  6516 layer_factory.hpp:77] Creating layer Mconv5_stage3
I1005 04:11:49.846319  6516 net.cpp:100] Creating Layer Mconv5_stage3
I1005 04:11:49.846319  6516 net.cpp:444] Mconv5_stage3 <- Mconv4_stage3
I1005 04:11:49.846319  6516 net.cpp:418] Mconv5_stage3 -> Mconv5_stage3
I1005 04:11:49.848317  6516 net.cpp:150] Setting up Mconv5_stage3
I1005 04:11:49.848317  6516 net.cpp:157] Top shape: 16 13 24 24 (119808)
I1005 04:11:49.848317  6516 net.cpp:165] Memory required for data: 330522632
I1005 04:11:49.848317  6516 layer_factory.hpp:77] Creating layer Mconv5_stage3_Mconv5_stage3_0_split
I1005 04:11:49.848317  6516 net.cpp:100] Creating Layer Mconv5_stage3_Mconv5_stage3_0_split
I1005 04:11:49.850316  6516 net.cpp:444] Mconv5_stage3_Mconv5_stage3_0_split <- Mconv5_stage3
I1005 04:11:49.850316  6516 net.cpp:418] Mconv5_stage3_Mconv5_stage3_0_split -> Mconv5_stage3_Mconv5_stage3_0_split_0
I1005 04:11:49.850316  6516 net.cpp:418] Mconv5_stage3_Mconv5_stage3_0_split -> Mconv5_stage3_Mconv5_stage3_0_split_1
I1005 04:11:49.850316  6516 net.cpp:150] Setting up Mconv5_stage3_Mconv5_stage3_0_split
I1005 04:11:49.850316  6516 net.cpp:157] Top shape: 16 13 24 24 (119808)
I1005 04:11:49.850316  6516 net.cpp:157] Top shape: 16 13 24 24 (119808)
I1005 04:11:49.851315  6516 net.cpp:165] Memory required for data: 331481096
I1005 04:11:49.851315  6516 layer_factory.hpp:77] Creating layer loss_stage3
I1005 04:11:49.851315  6516 net.cpp:100] Creating Layer loss_stage3
I1005 04:11:49.851315  6516 net.cpp:444] loss_stage3 <- Mconv5_stage3_Mconv5_stage3_0_split_0
I1005 04:11:49.851315  6516 net.cpp:444] loss_stage3 <- label_lower_label_lower_0_split_1
I1005 04:11:49.851315  6516 net.cpp:418] loss_stage3 -> loss_stage3
I1005 04:11:49.851315  6516 net.cpp:150] Setting up loss_stage3
I1005 04:11:49.851315  6516 net.cpp:157] Top shape: (1)
I1005 04:11:49.851315  6516 net.cpp:160]     with loss weight 1
I1005 04:11:49.851315  6516 net.cpp:165] Memory required for data: 331481100
I1005 04:11:49.851315  6516 layer_factory.hpp:77] Creating layer conv1_stage4
I1005 04:11:49.851315  6516 net.cpp:100] Creating Layer conv1_stage4
I1005 04:11:49.851315  6516 net.cpp:444] conv1_stage4 <- pool3_stage1_pool3_stage1_0_split_3
I1005 04:11:49.852313  6516 net.cpp:418] conv1_stage4 -> conv1_stage4
I1005 04:11:49.854312  6516 net.cpp:150] Setting up conv1_stage4
I1005 04:11:49.854312  6516 net.cpp:157] Top shape: 16 32 24 24 (294912)
I1005 04:11:49.854312  6516 net.cpp:165] Memory required for data: 332660748
I1005 04:11:49.855311  6516 layer_factory.hpp:77] Creating layer relu1_stage4
I1005 04:11:49.855311  6516 net.cpp:100] Creating Layer relu1_stage4
I1005 04:11:49.855311  6516 net.cpp:444] relu1_stage4 <- conv1_stage4
I1005 04:11:49.855311  6516 net.cpp:405] relu1_stage4 -> conv1_stage4 (in-place)
I1005 04:11:49.855311  6516 net.cpp:150] Setting up relu1_stage4
I1005 04:11:49.855311  6516 net.cpp:157] Top shape: 16 32 24 24 (294912)
I1005 04:11:49.855311  6516 net.cpp:165] Memory required for data: 333840396
I1005 04:11:49.855311  6516 layer_factory.hpp:77] Creating layer concat_stage4
I1005 04:11:49.856312  6516 net.cpp:100] Creating Layer concat_stage4
I1005 04:11:49.856312  6516 net.cpp:444] concat_stage4 <- conv1_stage4
I1005 04:11:49.856312  6516 net.cpp:444] concat_stage4 <- Mconv5_stage3_Mconv5_stage3_0_split_1
I1005 04:11:49.856312  6516 net.cpp:444] concat_stage4 <- pool_image_lower_pool_image_lower_0_split_2
I1005 04:11:49.856312  6516 net.cpp:418] concat_stage4 -> concat_stage4
I1005 04:11:49.856312  6516 net.cpp:150] Setting up concat_stage4
I1005 04:11:49.856312  6516 net.cpp:157] Top shape: 16 46 24 24 (423936)
I1005 04:11:49.856312  6516 net.cpp:165] Memory required for data: 335536140
I1005 04:11:49.856312  6516 layer_factory.hpp:77] Creating layer Mconv1_stage4
I1005 04:11:49.856312  6516 net.cpp:100] Creating Layer Mconv1_stage4
I1005 04:11:49.856312  6516 net.cpp:444] Mconv1_stage4 <- concat_stage4
I1005 04:11:49.857309  6516 net.cpp:418] Mconv1_stage4 -> Mconv1_stage4
I1005 04:11:49.859308  6516 net.cpp:150] Setting up Mconv1_stage4
I1005 04:11:49.860311  6516 net.cpp:157] Top shape: 16 64 24 24 (589824)
I1005 04:11:49.861308  6516 net.cpp:165] Memory required for data: 337895436
I1005 04:11:49.861308  6516 layer_factory.hpp:77] Creating layer Mrelu1_stage4
I1005 04:11:49.861308  6516 net.cpp:100] Creating Layer Mrelu1_stage4
I1005 04:11:49.861308  6516 net.cpp:444] Mrelu1_stage4 <- Mconv1_stage4
I1005 04:11:49.861308  6516 net.cpp:405] Mrelu1_stage4 -> Mconv1_stage4 (in-place)
I1005 04:11:49.862305  6516 net.cpp:150] Setting up Mrelu1_stage4
I1005 04:11:49.862305  6516 net.cpp:157] Top shape: 16 64 24 24 (589824)
I1005 04:11:49.862305  6516 net.cpp:165] Memory required for data: 340254732
I1005 04:11:49.863304  6516 layer_factory.hpp:77] Creating layer Mconv1_stage4_Mrelu1_stage4_0_split
I1005 04:11:49.863304  6516 net.cpp:100] Creating Layer Mconv1_stage4_Mrelu1_stage4_0_split
I1005 04:11:49.863304  6516 net.cpp:444] Mconv1_stage4_Mrelu1_stage4_0_split <- Mconv1_stage4
I1005 04:11:49.863304  6516 net.cpp:418] Mconv1_stage4_Mrelu1_stage4_0_split -> Mconv1_stage4_Mrelu1_stage4_0_split_0
I1005 04:11:49.863304  6516 net.cpp:418] Mconv1_stage4_Mrelu1_stage4_0_split -> Mconv1_stage4_Mrelu1_stage4_0_split_1
I1005 04:11:49.863304  6516 net.cpp:150] Setting up Mconv1_stage4_Mrelu1_stage4_0_split
I1005 04:11:49.863304  6516 net.cpp:157] Top shape: 16 64 24 24 (589824)
I1005 04:11:49.863304  6516 net.cpp:157] Top shape: 16 64 24 24 (589824)
I1005 04:11:49.863304  6516 net.cpp:165] Memory required for data: 344973324
I1005 04:11:49.864303  6516 layer_factory.hpp:77] Creating layer Mconv3_stage4
I1005 04:11:49.864303  6516 net.cpp:100] Creating Layer Mconv3_stage4
I1005 04:11:49.864303  6516 net.cpp:444] Mconv3_stage4 <- Mconv1_stage4_Mrelu1_stage4_0_split_0
I1005 04:11:49.864303  6516 net.cpp:418] Mconv3_stage4 -> Mconv3_stage4
I1005 04:11:49.867301  6516 net.cpp:150] Setting up Mconv3_stage4
I1005 04:11:49.867301  6516 net.cpp:157] Top shape: 16 64 24 24 (589824)
I1005 04:11:49.867301  6516 net.cpp:165] Memory required for data: 347332620
I1005 04:11:49.868300  6516 layer_factory.hpp:77] Creating layer Mrelu3_stage4
I1005 04:11:49.868300  6516 net.cpp:100] Creating Layer Mrelu3_stage4
I1005 04:11:49.868300  6516 net.cpp:444] Mrelu3_stage4 <- Mconv3_stage4
I1005 04:11:49.868300  6516 net.cpp:405] Mrelu3_stage4 -> Mconv3_stage4 (in-place)
I1005 04:11:49.868300  6516 net.cpp:150] Setting up Mrelu3_stage4
I1005 04:11:49.868300  6516 net.cpp:157] Top shape: 16 64 24 24 (589824)
I1005 04:11:49.868300  6516 net.cpp:165] Memory required for data: 349691916
I1005 04:11:49.868300  6516 layer_factory.hpp:77] Creating layer concat_Mconv3_stage4
I1005 04:11:49.868300  6516 net.cpp:100] Creating Layer concat_Mconv3_stage4
I1005 04:11:49.870299  6516 net.cpp:444] concat_Mconv3_stage4 <- Mconv1_stage4_Mrelu1_stage4_0_split_1
I1005 04:11:49.870299  6516 net.cpp:444] concat_Mconv3_stage4 <- Mconv3_stage4
I1005 04:11:49.870299  6516 net.cpp:418] concat_Mconv3_stage4 -> concat_Mconv3_stage4
I1005 04:11:49.870299  6516 net.cpp:150] Setting up concat_Mconv3_stage4
I1005 04:11:49.870299  6516 net.cpp:157] Top shape: 16 128 24 24 (1179648)
I1005 04:11:49.870299  6516 net.cpp:165] Memory required for data: 354410508
I1005 04:11:49.870299  6516 layer_factory.hpp:77] Creating layer Mconv4_stage4
I1005 04:11:49.871299  6516 net.cpp:100] Creating Layer Mconv4_stage4
I1005 04:11:49.871299  6516 net.cpp:444] Mconv4_stage4 <- concat_Mconv3_stage4
I1005 04:11:49.871299  6516 net.cpp:418] Mconv4_stage4 -> Mconv4_stage4
I1005 04:11:49.872298  6516 net.cpp:150] Setting up Mconv4_stage4
I1005 04:11:49.873296  6516 net.cpp:157] Top shape: 16 64 24 24 (589824)
I1005 04:11:49.873296  6516 net.cpp:165] Memory required for data: 356769804
I1005 04:11:49.873296  6516 layer_factory.hpp:77] Creating layer Mrelu4_stage4
I1005 04:11:49.873296  6516 net.cpp:100] Creating Layer Mrelu4_stage4
I1005 04:11:49.873296  6516 net.cpp:444] Mrelu4_stage4 <- Mconv4_stage4
I1005 04:11:49.873296  6516 net.cpp:405] Mrelu4_stage4 -> Mconv4_stage4 (in-place)
I1005 04:11:49.873296  6516 net.cpp:150] Setting up Mrelu4_stage4
I1005 04:11:49.873296  6516 net.cpp:157] Top shape: 16 64 24 24 (589824)
I1005 04:11:49.874294  6516 net.cpp:165] Memory required for data: 359129100
I1005 04:11:49.874294  6516 layer_factory.hpp:77] Creating layer Mconv5_stage4
I1005 04:11:49.874294  6516 net.cpp:100] Creating Layer Mconv5_stage4
I1005 04:11:49.874294  6516 net.cpp:444] Mconv5_stage4 <- Mconv4_stage4
I1005 04:11:49.874294  6516 net.cpp:418] Mconv5_stage4 -> Mconv5_stage4
I1005 04:11:49.876294  6516 net.cpp:150] Setting up Mconv5_stage4
I1005 04:11:49.876294  6516 net.cpp:157] Top shape: 16 13 24 24 (119808)
I1005 04:11:49.876294  6516 net.cpp:165] Memory required for data: 359608332
I1005 04:11:49.877292  6516 layer_factory.hpp:77] Creating layer loss_stage4
I1005 04:11:49.877292  6516 net.cpp:100] Creating Layer loss_stage4
I1005 04:11:49.877292  6516 net.cpp:444] loss_stage4 <- Mconv5_stage4
I1005 04:11:49.877292  6516 net.cpp:444] loss_stage4 <- label_lower_label_lower_0_split_2
…
