…
  phase: TRAIN
  level: 0
  stage: ""
}
layer {
  name: "data"
  type: "CPMData"
  top: "image"
  top: "label"
  transform_param {
    stride: 4
    max_rotate_degree: 40
    crop_size_x: 96
    crop_size_y: 96
    scale_prob: 1
    scale_min: 0.9
    scale_max: 1.3
    target_dist: 1.171
    center_perterb_max: 0
    sigma: 4
    do_clahe: false
    num_parts: 12
    gray: 1
    np_in_lmdb: 12
    put_gaussian: false
  }
  cpmdata_param {
    source: "D:/deeplearning/trainingdata/AllData/lmdb/Depth_half4_v1"
    batch_size: 16
    backend: LMDB
  }
}
layer {
  name: "label_lower"
  type: "Slice"
  bottom: "label"
  top: "label_lower"
  top: "label_1st_lower"
  slice_param {
    slice_point: 13
    axis: 1
  }
}
layer {
  name: "pool_image_lower"
  type: "Pooling"
  bottom: "image"
  top: "pool_image_lower"
  pooling_param {
    pool: AVE
    kernel_size: 4
    stride: 4
  }
}
layer {
  name: "conv2_stage1"
  type: "Convolution"
  bottom: "image"
  top: "conv2_stage1"
  param {
    lr_mult: 5
    decay_mult: 1
  }
  param {
    lr_mult: 10
    decay_mult: 0
  }
  convolution_param {
    num_output: 128
    pad: 4
    kernel_size: 9
    weight_filler {
      type: "gaussian"
      std: 0.01
    }
    bias_filler {
      type: "constant"
    }
  }
}
layer {
  name: "relu2_stage1"
  type: "ReLU"
  bottom: "conv2_stage1"
  top: "conv2_stage1"
}
layer {
  name: "pool2_stage1"
  type: "Pooling"
  bottom: "conv2_stage1"
  top: "pool2_stage1"
  pooling_param {
    pool: MAX
    kernel_size: 3
    stride: 2
  }
}
layer {
  name: "conv3_stage1"
  type: "Convolution"
  bottom: "pool2_stage1"
  top: "conv3_stage1"
  param {
    lr_mult: 5
    decay_mult: 1
  }
  param {
    lr_mult: 10
    decay_mult: 0
  }
  convolution_param {
    num_output: 128
    pad: 4
    kernel_size: 9
    weight_filler {
      type: "gaussian"
      std: 0.01
    }
    bias_filler {
      type: "constant"
    }
  }
}
layer {
  name: "relu3_stage1"
  type: "ReLU"
  bottom: "conv3_stage1"
  top: "conv3_stage1"
}
layer {
  name: "pool3_stage1"
  type: "Pooling"
  bottom: "conv3_stage1"
  top: "pool3_stage1"
  pooling_param {
    pool: MAX
    kernel_size: 3
    stride: 2
  }
}
layer {
  name: "conv4_stage1"
  type: "Convolution"
  bottom: "pool3_stage1"
  top: "conv4_stage1"
  param {
    lr_mult: 5
    decay_mult: 1
  }
  param {
    lr_mult: 10
    decay_mult: 0
  }
  convolution_param {
    num_output: 64
    pad: 2
    kernel_size: 5
    weight_filler {
      type: "gaussian"
      std: 0.01
    }
    bias_filler {
      type: "constant"
    }
  }
}
layer {
  name: "relu4_stage1"
  type: "ReLU"
  bottom: "conv4_stage1"
  top: "conv4_stage1"
}
layer {
  name: "conv5_stage1"
  type: "Convolution"
  bottom: "conv4_stage1"
  top: "conv5_stage1"
  param {
    lr_mult: 5
    decay_mult: 1
  }
  param {
    lr_mult: 10
    decay_mult: 0
  }
  convolution_param {
    num_output: 512
    pad: 4
    kernel_size: 9
    weight_filler {
      type: "gaussian"
      std: 0.01
    }
    bias_filler {
      type: "constant"
    }
  }
}
layer {
  name: "relu5_stage1"
  type: "ReLU"
  bottom: "conv5_stage1"
  top: "conv5_stage1"
}
layer {
  name: "drop1_stage1"
  type: "Dropout"
  bottom: "conv5_stage1"
  top: "conv5_stage1"
  dropout_param {
    dropout_ratio: 0.5
  }
}
layer {
  name: "concat_conv5_stage1"
  type: "Concat"
  bottom: "conv4_stage1"
  bottom: "conv5_stage1"
  top: "concat_conv5_stage1"
  concat_param {
    axis: 1
  }
}
layer {
  name: "conv6_stage1"
  type: "Convolution"
  bottom: "concat_conv5_stage1"
  top: "conv6_stage1"
  param {
    lr_mult: 5
    decay_mult: 1
  }
  param {
    lr_mult: 10
    decay_mult: 0
  }
  convolution_param {
    num_output: 64
    pad: 0
    kernel_size: 1
    weight_filler {
      type: "gaussian"
      std: 0.01
    }
    bias_filler {
      type: "constant"
    }
  }
}
layer {
  name: "relu6_stage1"
  type: "ReLU"
  bottom: "conv6_stage1"
  top: "conv6_stage1"
}
layer {
  name: "drop2_stage1"
  type: "Dropout"
  bottom: "conv6_stage1"
  top: "conv6_stage1"
  dropout_param {
    dropout_ratio: 0.5
  }
}
layer {
  name: "conv7_stage1"
  type: "Convolution"
  bottom: "conv6_stage1"
  top: "conv7_stage1"
  param {
    lr_mult: 5
    decay_mult: 1
  }
  param {
    lr_mult: 10
    decay_mult: 0
  }
  convolution_param {
    num_output: 13
    pad: 0
    kernel_size: 1
    weight_filler {
      type: "gaussian"
      std: 0.01
    }
    bias_filler {
      type: "constant"
    }
  }
}
layer {
  name: "loss_stage1"
  type: "EuclideanLoss"
  bottom: "conv7_stage1"
  bottom: "label_1st_lower"
  top: "loss_stage1"
}
layer {
  name: "conv1_stage2"
  type: "Convolution"
  bottom: "pool3_stage1"
  top: "conv1_stage2"
  param {
    lr_mult: 1
    decay_mult: 1
  }
  param {
    lr_mult: 2
    decay_mult: 0
  }
  convolution_param {
    num_output: 64
    pad: 2
    kernel_size: 5
    weight_filler {
      type: "gaussian"
      std: 0.01
    }
    bias_filler {
      type: "constant"
    }
  }
}
layer {
  name: "relu1_stage2"
  type: "ReLU"
  bottom: "conv1_stage2"
  top: "conv1_stage2"
}
layer {
  name: "concat_stage2"
  type: "Concat"
  bottom: "conv1_stage2"
  bottom: "conv7_stage1"
  bottom: "pool_image_lower"
  top: "concat_stage2"
  concat_param {
    axis: 1
  }
}
layer {
  name: "Mconv1_stage2"
  type: "Convolution"
  bottom: "concat_stage2"
  top: "Mconv1_stage2"
  param {
    lr_mult: 1
    decay_mult: 1
  }
  param {
    lr_mult: 2
    decay_mult: 0
  }
  convolution_param {
    num_output: 64
    pad: 5
    kernel_size: 11
    weight_filler {
      type: "gaussian"
      std: 0.01
    }
    bias_filler {
      type: "constant"
    }
  }
}
layer {
  name: "Mrelu1_stage2"
  type: "ReLU"
  bottom: "Mconv1_stage2"
  top: "Mconv1_stage2"
}
layer {
  name: "Mconv3_stage2"
  type: "Convolution"
  bottom: "Mconv1_stage2"
  top: "Mconv3_stage2"
  param {
    lr_mult: 1
    decay_mult: 1
  }
  param {
    lr_mult: 2
    decay_mult: 0
  }
  convolution_param {
    num_output: 64
    pad: 5
    kernel_size: 11
    weight_filler {
      type: "gaussian"
      std: 0.01
    }
    bias_filler {
      type: "constant"
    }
  }
}
layer {
  name: "Mrelu3_stage2"
  type: "ReLU"
  bottom: "Mconv3_stage2"
  top: "Mconv3_stage2"
}
layer {
  name: "concat_Mconv3_stage2"
  type: "Concat"
  bottom: "Mconv1_stage2"
  bottom: "Mconv3_stage2"
  top: "concat_Mconv3_stage2"
  concat_param {
    axis: 1
  }
}
layer {
  name: "Mconv4_stage2"
  type: "Convolution"
  bottom: "concat_Mconv3_stage2"
  top: "Mconv4_stage2"
  param {
    lr_mult: 1
    decay_mult: 1
  }
  param {
    lr_mult: 2
    decay_mult: 0
  }
  convolution_param {
    num_output: 64
    pad: 0
    kernel_size: 1
    weight_filler {
      type: "gaussian"
      std: 0.01
    }
    bias_filler {
      type: "constant"
    }
  }
}
layer {
  name: "Mrelu4_stage2"
  type: "ReLU"
  bottom: "Mconv4_stage2"
  top: "Mconv4_stage2"
}
layer {
  name: "Mconv5_stage2"
  type: "Convolution"
  bottom: "Mconv4_stage2"
  top: "Mconv5_stage2"
  param {
    lr_mult: 1
    decay_mult: 1
  }
  param {
    lr_mult: 2
    decay_mult: 0
  }
  convolution_param {
    num_output: 13
    pad: 0
    kernel_size: 1
    weight_filler {
      type: "gaussian"
      std: 0.01
    }
    bias_filler {
      type: "constant"
    }
  }
}
layer {
  name: "loss_stage2"
  type: "EuclideanLoss"
  bottom: "Mconv5_stage2"
  bottom: "label_lower"
  top: "loss_stage2"
}
layer {
  name: "conv1_stage3"
  type: "Convolution"
  bottom: "pool3_stage1"
  top: "conv1_stage3"
  param {
    lr_mult: 1
    decay_mult: 1
  }
  param {
    lr_mult: 2
    decay_mult: 0
  }
  convolution_param {
    num_output: 64
    pad: 2
    kernel_size: 5
    weight_filler {
      type: "gaussian"
      std: 0.01
    }
    bias_filler {
      type: "constant"
    }
  }
}
layer {
  name: "relu1_stage3"
  type: "ReLU"
  bottom: "conv1_stage3"
  top: "conv1_stage3"
}
layer {
  name: "concat_stage3"
  type: "Concat"
  bottom: "conv1_stage3"
  bottom: "Mconv5_stage2"
  bottom: "pool_image_lower"
  top: "concat_stage3"
  concat_param {
    axis: 1
  }
}
layer {
  name: "Mconv1_stage3"
  type: "Convolution"
  bottom: "concat_stage3"
  top: "Mconv1_stage3"
  param {
    lr_mult: 1
    decay_mult: 1
  }
  param {
    lr_mult: 2
    decay_mult: 0
  }
  convolution_param {
    num_output: 64
    pad: 5
    kernel_size: 11
    weight_filler {
      type: "gaussian"
      std: 0.01
    }
    bias_filler {
      type: "constant"
    }
  }
}
layer {
  name: "Mrelu1_stage3"
  type: "ReLU"
  bottom: "Mconv1_stage3"
  top: "Mconv1_stage3"
}
layer {
  name: "Mconv3_stage3"
  type: "Convolution"
  bottom: "Mconv1_stage3"
  top: "Mconv3_stage3"
  param {
    lr_mult: 1
    decay_mult: 1
  }
  param {
    lr_mult: 2
    decay_mult: 0
  }
  convolution_param {
    num_output: 64
    pad: 5
    kernel_size: 11
    weight_filler {
      type: "gaussian"
      std: 0.01
    }
    bias_filler {
      type: "constant"
    }
  }
}
layer {
  name: "Mrelu3_stage3"
  type: "ReLU"
  bottom: "Mconv3_stage3"
  top: "Mconv3_stage3"
}
layer {
  name: "concat_Mconv3_stage3"
  type: "Concat"
  bottom: "Mconv1_stage3"
  bottom: "Mconv3_stage3"
  top: "concat_Mconv3_stage3"
  concat_param {
    axis: 1
  }
}
layer {
  name: "Mconv4_stage3"
  type: "Convolution"
  bottom: "concat_Mconv3_stage3"
  top: "Mconv4_stage3"
  param {
    lr_mult: 1
    decay_mult: 1
  }
  param {
    lr_mult: 2
    decay_mult: 0
  }
  convolution_param {
    num_output: 64
    pad: 0
    kernel_size: 1
    weight_filler {
      type: "gaussian"
      std: 0.01
    }
    bias_filler {
      type: "constant"
    }
  }
}
layer {
  name: "Mrelu4_stage3"
  type: "ReLU"
  bottom: "Mconv4_stage3"
  top: "Mconv4_stage3"
}
layer {
  name: "Mconv5_stage3"
  type: "Convolution"
  bottom: "Mconv4_stage3"
  top: "Mconv5_stage3"
  param {
    lr_mult: 1
    decay_mult: 1
  }
  param {
    lr_mult: 2
    decay_mult: 0
  }
  convolution_param {
    num_output: 13
    pad: 0
    kernel_size: 1
    weight_filler {
      type: "gaussian"
      std: 0.01
    }
    bias_filler {
      type: "constant"
    }
  }
}
layer {
  name: "loss_stage3"
  type: "EuclideanLoss"
  bottom: "Mconv5_stage3"
  bottom: "label_lower"
  top: "loss_stage3"
}
layer {
  name: "conv1_stage4"
  type: "Convolution"
  bottom: "pool3_stage1"
  top: "conv1_stage4"
  param {
    lr_mult: 1
    decay_mult: 1
  }
  param {
    lr_mult: 2
    decay_mult: 0
  }
  convolution_param {
    num_output: 32
    pad: 2
    kernel_size: 5
    weight_filler {
      type: "gaussian"
      std: 0.01
    }
    bias_filler {
      type: "constant"
    }
  }
}
layer {
  name: "relu1_stage4"
  type: "ReLU"
  bottom: "conv1_stage4"
  top: "conv1_stage4"
}
layer {
  name: "concat_stage4"
  type: "Concat"
  bottom: "conv1_stage4"
  bottom: "Mconv5_stage3"
  bottom: "pool_image_lower"
  top: "concat_stage4"
  concat_param {
    axis: 1
  }
}
layer {
  name: "Mconv1_stage4"
  type: "Convolution"
  bottom: "concat_stage4"
  top: "Mconv1_stage4"
  param {
    lr_mult: 1
    decay_mult: 1
  }
  param {
    lr_mult: 2
    decay_mult: 0
  }
  convolution_param {
    num_output: 64
    pad: 5
    kernel_size: 11
    weight_filler {
      type: "gaussian"
      std: 0.01
    }
    bias_filler {
      type: "constant"
    }
  }
}
layer {
  name: "Mrelu1_stage4"
  type: "ReLU"
  bottom: "Mconv1_stage4"
  top: "Mconv1_stage4"
}
layer {
  name: "Mconv3_stage4"
  type: "Convolution"
  bottom: "Mconv1_stage4"
  top: "Mconv3_stage4"
  param {
    lr_mult: 1
    decay_mult: 1
  }
  param {
    lr_mult: 2
    decay_mult: 0
  }
  convolution_param {
    num_output: 64
    pad: 5
    kernel_size: 11
    weight_filler {
      type: "gaussian"
      std: 0.01
    }
    bias_filler {
      type: "constant"
    }
  }
}
layer {
  name: "Mrelu3_stage4"
  type: "ReLU"
  bottom: "Mconv3_stage4"
  top: "Mconv3_stage4"
}
layer {
  name: "concat_Mconv3_stage4"
  type: "Concat"
  bottom: "Mconv1_stage4"
  bottom: "Mconv3_stage4"
  top: "concat_Mconv3_stage4"
  concat_param {
    axis: 1
  }
}
layer {
  name: "Mconv4_stage4"
  type: "Convolution"
  bottom: "concat_Mconv3_stage4"
  top: "Mconv4_stage4"
  param {
    lr_mult: 1
    decay_mult: 1
  }
  param {
    lr_mult: 2
    decay_mult: 0
  }
  convolution_param {
    num_output: 64
    pad: 0
    kernel_size: 1
    weight_filler {
      type: "gaussian"
      std: 0.01
    }
    bias_filler {
      type: "constant"
    }
  }
}
layer {
  name: "Mrelu4_stage4"
  type: "ReLU"
  bottom: "Mconv4_stage4"
  top: "Mconv4_stage4"
}
layer {
  name: "Mconv5_stage4"
  type: "Convolution"
  bottom: "Mconv4_stage4"
  top: "Mconv5_stage4"
  param {
    lr_mult: 1
    decay_mult: 1
  }
  param {
    lr_mult: 2
    decay_mult: 0
  }
  convolution_param {
    num_output: 13
    pad: 0
    kernel_size: 1
    weight_filler {
      type: "gaussian"
      std: 0.01
    }
    bias_filler {
      type: "constant"
    }
  }
}
layer {
  name: "loss_stage4"
  type: "EuclideanLoss"
  bottom: "Mconv5_stage4"
  bottom: "label_lower"
  top: "loss_stage4"
}
I1001 01:54:42.212254 13932 layer_factory.hpp:77] Creating layer data
I1001 01:54:42.213253 13932 common.cpp:36] System entropy source not available, using fallback algorithm to generate seed instead.
I1001 01:54:42.213253 13932 net.cpp:100] Creating Layer data
I1001 01:54:42.213253 13932 net.cpp:418] data -> image
I1001 01:54:42.213253 13932 net.cpp:418] data -> label
I1001 01:54:42.213253 13932 data_transformer.cpp:260] DataTransformer constructor done.
I1001 01:54:42.220252 10280 common.cpp:36] System entropy source not available, using fallback algorithm to generate seed instead.
I1001 01:54:42.227249 10280 db_lmdb.cpp:40] Opened lmdb D:/deeplearning/trainingdata/AllData/lmdb/Depth_half4_v1
I1001 01:54:42.398198 13932 cpm_data_layer.cpp:62] output data size: 16,1,96,96
I1001 01:54:42.398198 13932 cpm_data_layer.cpp:77] output label size: 16,26,24,24
I1001 01:54:42.403198 13932 net.cpp:150] Setting up data
I1001 01:54:42.403198 13932 net.cpp:157] Top shape: 16 1 96 96 (147456)
I1001 01:54:42.403198 13932 net.cpp:157] Top shape: 16 26 24 24 (239616)
I1001 01:54:42.403198 13932 net.cpp:165] Memory required for data: 1548288
I1001 01:54:42.403198 13932 layer_factory.hpp:77] Creating layer image_data_0_split
I1001 01:54:42.403198 13932 net.cpp:100] Creating Layer image_data_0_split
I1001 01:54:42.403198 13932 net.cpp:444] image_data_0_split <- image
I1001 01:54:42.403198 13932 net.cpp:418] image_data_0_split -> image_data_0_split_0
I1001 01:54:42.403198 13932 net.cpp:418] image_data_0_split -> image_data_0_split_1
I1001 01:54:42.404196 13932 net.cpp:150] Setting up image_data_0_split
I1001 01:54:42.404196 13932 net.cpp:157] Top shape: 16 1 96 96 (147456)
I1001 01:54:42.404196 13932 net.cpp:157] Top shape: 16 1 96 96 (147456)
I1001 01:54:42.404196 13932 net.cpp:165] Memory required for data: 2727936
I1001 01:54:42.404196 13932 layer_factory.hpp:77] Creating layer label_lower
I1001 01:54:42.404196 13932 net.cpp:100] Creating Layer label_lower
I1001 01:54:42.404196  9488 common.cpp:36] System entropy source not available, using fallback algorithm to generate seed instead.
I1001 01:54:42.404196 13932 net.cpp:444] label_lower <- label
I1001 01:54:42.404196 13932 net.cpp:418] label_lower -> label_lower
I1001 01:54:42.404196 13932 net.cpp:418] label_lower -> label_1st_lower
I1001 01:54:42.405196 13932 net.cpp:150] Setting up label_lower
I1001 01:54:42.405196 13932 net.cpp:157] Top shape: 16 13 24 24 (119808)
I1001 01:54:42.405196 13932 net.cpp:157] Top shape: 16 13 24 24 (119808)
I1001 01:54:42.405196 13932 net.cpp:165] Memory required for data: 3686400
I1001 01:54:42.405196 13932 layer_factory.hpp:77] Creating layer label_lower_label_lower_0_split
I1001 01:54:42.405196 13932 net.cpp:100] Creating Layer label_lower_label_lower_0_split
I1001 01:54:42.405196 13932 net.cpp:444] label_lower_label_lower_0_split <- label_lower
I1001 01:54:42.405196  9488 data_transformer.cpp:71] dataset: Depth; img_size: [512 x 384]; meta.annolist_index: 6813; meta.write_number: 0; meta.total_write_number: 14172; meta.epoch: 0
I1001 01:54:42.405196 13932 net.cpp:418] label_lower_label_lower_0_split -> label_lower_label_lower_0_split_0
I1001 01:54:42.405196 13932 net.cpp:418] label_lower_label_lower_0_split -> label_lower_label_lower_0_split_1
I1001 01:54:42.405196 13932 net.cpp:418] label_lower_label_lower_0_split -> label_lower_label_lower_0_split_2
I1001 01:54:42.406195 13932 net.cpp:150] Setting up label_lower_label_lower_0_split
I1001 01:54:42.406195 13932 net.cpp:157] Top shape: 16 13 24 24 (119808)
I1001 01:54:42.406195 13932 net.cpp:157] Top shape: 16 13 24 24 (119808)
I1001 01:54:42.406195 13932 net.cpp:157] Top shape: 16 13 24 24 (119808)
I1001 01:54:42.406195 13932 net.cpp:165] Memory required for data: 5124096
I1001 01:54:42.406195 13932 layer_factory.hpp:77] Creating layer pool_image_lower
I1001 01:54:42.406195 13932 net.cpp:100] Creating Layer pool_image_lower
I1001 01:54:42.406195 13932 net.cpp:444] pool_image_lower <- image_data_0_split_0
I1001 01:54:42.406195 13932 net.cpp:418] pool_image_lower -> pool_image_lower
I1001 01:54:42.713104 13932 net.cpp:150] Setting up pool_image_lower
I1001 01:54:42.714104 13932 net.cpp:157] Top shape: 16 1 24 24 (9216)
I1001 01:54:42.714104 13932 net.cpp:165] Memory required for data: 5160960
I1001 01:54:42.714104 13932 layer_factory.hpp:77] Creating layer pool_image_lower_pool_image_lower_0_split
I1001 01:54:42.714104 13932 net.cpp:100] Creating Layer pool_image_lower_pool_image_lower_0_split
I1001 01:54:42.714104 13932 net.cpp:444] pool_image_lower_pool_image_lower_0_split <- pool_image_lower
I1001 01:54:42.714104 13932 net.cpp:418] pool_image_lower_pool_image_lower_0_split -> pool_image_lower_pool_image_lower_0_split_0
I1001 01:54:42.714104 13932 net.cpp:418] pool_image_lower_pool_image_lower_0_split -> pool_image_lower_pool_image_lower_0_split_1
I1001 01:54:42.714104 13932 net.cpp:418] pool_image_lower_pool_image_lower_0_split -> pool_image_lower_pool_image_lower_0_split_2
I1001 01:54:42.714104 13932 net.cpp:150] Setting up pool_image_lower_pool_image_lower_0_split
I1001 01:54:42.715103 13932 net.cpp:157] Top shape: 16 1 24 24 (9216)
I1001 01:54:42.715103 13932 net.cpp:157] Top shape: 16 1 24 24 (9216)
I1001 01:54:42.715103 13932 net.cpp:157] Top shape: 16 1 24 24 (9216)
I1001 01:54:42.715103 13932 net.cpp:165] Memory required for data: 5271552
I1001 01:54:42.715103 13932 layer_factory.hpp:77] Creating layer conv2_stage1
I1001 01:54:42.715103 13932 net.cpp:100] Creating Layer conv2_stage1
I1001 01:54:42.715103 13932 net.cpp:444] conv2_stage1 <- image_data_0_split_1
I1001 01:54:42.715103 13932 net.cpp:418] conv2_stage1 -> conv2_stage1
I1001 01:54:42.718103 13932 net.cpp:150] Setting up conv2_stage1
I1001 01:54:42.718103 13932 net.cpp:157] Top shape: 16 128 96 96 (18874368)
I1001 01:54:42.718103 13932 net.cpp:165] Memory required for data: 80769024
I1001 01:54:42.718103 13932 layer_factory.hpp:77] Creating layer relu2_stage1
I1001 01:54:42.718103 13932 net.cpp:100] Creating Layer relu2_stage1
I1001 01:54:42.718103 13932 net.cpp:444] relu2_stage1 <- conv2_stage1
I1001 01:54:42.718103 13932 net.cpp:405] relu2_stage1 -> conv2_stage1 (in-place)
I1001 01:54:42.719102 13932 net.cpp:150] Setting up relu2_stage1
I1001 01:54:42.719102 13932 net.cpp:157] Top shape: 16 128 96 96 (18874368)
I1001 01:54:42.719102 13932 net.cpp:165] Memory required for data: 156266496
I1001 01:54:42.719102 13932 layer_factory.hpp:77] Creating layer pool2_stage1
I1001 01:54:42.719102 13932 net.cpp:100] Creating Layer pool2_stage1
I1001 01:54:42.719102 13932 net.cpp:444] pool2_stage1 <- conv2_stage1
I1001 01:54:42.719102 13932 net.cpp:418] pool2_stage1 -> pool2_stage1
I1001 01:54:42.719102 13932 net.cpp:150] Setting up pool2_stage1
I1001 01:54:42.719102 13932 net.cpp:157] Top shape: 16 128 48 48 (4718592)
I1001 01:54:42.719102 13932 net.cpp:165] Memory required for data: 175140864
I1001 01:54:42.719102 13932 layer_factory.hpp:77] Creating layer conv3_stage1
I1001 01:54:42.719102 13932 net.cpp:100] Creating Layer conv3_stage1
I1001 01:54:42.720103 13932 net.cpp:444] conv3_stage1 <- pool2_stage1
I1001 01:54:42.720103 13932 net.cpp:418] conv3_stage1 -> conv3_stage1
I1001 01:54:42.739096 13932 net.cpp:150] Setting up conv3_stage1
I1001 01:54:42.739096 13932 net.cpp:157] Top shape: 16 128 48 48 (4718592)
I1001 01:54:42.739096 13932 net.cpp:165] Memory required for data: 194015232
I1001 01:54:42.739096 13932 layer_factory.hpp:77] Creating layer relu3_stage1
I1001 01:54:42.740097 13932 net.cpp:100] Creating Layer relu3_stage1
I1001 01:54:42.740097 13932 net.cpp:444] relu3_stage1 <- conv3_stage1
I1001 01:54:42.740097 13932 net.cpp:405] relu3_stage1 -> conv3_stage1 (in-place)
I1001 01:54:42.740097 13932 net.cpp:150] Setting up relu3_stage1
I1001 01:54:42.740097 13932 net.cpp:157] Top shape: 16 128 48 48 (4718592)
I1001 01:54:42.740097 13932 net.cpp:165] Memory required for data: 212889600
I1001 01:54:42.740097 13932 layer_factory.hpp:77] Creating layer pool3_stage1
I1001 01:54:42.740097 13932 net.cpp:100] Creating Layer pool3_stage1
I1001 01:54:42.740097 13932 net.cpp:444] pool3_stage1 <- conv3_stage1
I1001 01:54:42.740097 13932 net.cpp:418] pool3_stage1 -> pool3_stage1
I1001 01:54:42.741096 13932 net.cpp:150] Setting up pool3_stage1
I1001 01:54:42.741096 13932 net.cpp:157] Top shape: 16 128 24 24 (1179648)
I1001 01:54:42.741096 13932 net.cpp:165] Memory required for data: 217608192
I1001 01:54:42.741096 13932 layer_factory.hpp:77] Creating layer pool3_stage1_pool3_stage1_0_split
I1001 01:54:42.741096 13932 net.cpp:100] Creating Layer pool3_stage1_pool3_stage1_0_split
I1001 01:54:42.741096 13932 net.cpp:444] pool3_stage1_pool3_stage1_0_split <- pool3_stage1
I1001 01:54:42.741096 13932 net.cpp:418] pool3_stage1_pool3_stage1_0_split -> pool3_stage1_pool3_stage1_0_split_0
I1001 01:54:42.741096 13932 net.cpp:418] pool3_stage1_pool3_stage1_0_split -> pool3_stage1_pool3_stage1_0_split_1
I1001 01:54:42.741096 13932 net.cpp:418] pool3_stage1_pool3_stage1_0_split -> pool3_stage1_pool3_stage1_0_split_2
I1001 01:54:42.741096 13932 net.cpp:418] pool3_stage1_pool3_stage1_0_split -> pool3_stage1_pool3_stage1_0_split_3
I1001 01:54:42.741096 13932 net.cpp:150] Setting up pool3_stage1_pool3_stage1_0_split
I1001 01:54:42.741096 13932 net.cpp:157] Top shape: 16 128 24 24 (1179648)
I1001 01:54:42.741096 13932 net.cpp:157] Top shape: 16 128 24 24 (1179648)
I1001 01:54:42.742096 13932 net.cpp:157] Top shape: 16 128 24 24 (1179648)
I1001 01:54:42.742096 13932 net.cpp:157] Top shape: 16 128 24 24 (1179648)
I1001 01:54:42.742096 13932 net.cpp:165] Memory required for data: 236482560
I1001 01:54:42.742096 13932 layer_factory.hpp:77] Creating layer conv4_stage1
I1001 01:54:42.742096 13932 net.cpp:100] Creating Layer conv4_stage1
I1001 01:54:42.742096 13932 net.cpp:444] conv4_stage1 <- pool3_stage1_pool3_stage1_0_split_0
I1001 01:54:42.742096 13932 net.cpp:418] conv4_stage1 -> conv4_stage1
I1001 01:54:42.747094 13932 net.cpp:150] Setting up conv4_stage1
I1001 01:54:42.747094 13932 net.cpp:157] Top shape: 16 64 24 24 (589824)
I1001 01:54:42.747094 13932 net.cpp:165] Memory required for data: 238841856
I1001 01:54:42.747094 13932 layer_factory.hpp:77] Creating layer relu4_stage1
I1001 01:54:42.747094 13932 net.cpp:100] Creating Layer relu4_stage1
I1001 01:54:42.747094 13932 net.cpp:444] relu4_stage1 <- conv4_stage1
I1001 01:54:42.747094 13932 net.cpp:405] relu4_stage1 -> conv4_stage1 (in-place)
I1001 01:54:42.748095 13932 net.cpp:150] Setting up relu4_stage1
I1001 01:54:42.749094 13932 net.cpp:157] Top shape: 16 64 24 24 (589824)
I1001 01:54:42.749094 13932 net.cpp:165] Memory required for data: 241201152
I1001 01:54:42.749094 13932 layer_factory.hpp:77] Creating layer conv4_stage1_relu4_stage1_0_split
I1001 01:54:42.749094 13932 net.cpp:100] Creating Layer conv4_stage1_relu4_stage1_0_split
I1001 01:54:42.749094 13932 net.cpp:444] conv4_stage1_relu4_stage1_0_split <- conv4_stage1
I1001 01:54:42.749094 13932 net.cpp:418] conv4_stage1_relu4_stage1_0_split -> conv4_stage1_relu4_stage1_0_split_0
I1001 01:54:42.750093 13932 net.cpp:418] conv4_stage1_relu4_stage1_0_split -> conv4_stage1_relu4_stage1_0_split_1
I1001 01:54:42.750093 13932 net.cpp:150] Setting up conv4_stage1_relu4_stage1_0_split
I1001 01:54:42.750093 13932 net.cpp:157] Top shape: 16 64 24 24 (589824)
I1001 01:54:42.750093 13932 net.cpp:157] Top shape: 16 64 24 24 (589824)
I1001 01:54:42.750093 13932 net.cpp:165] Memory required for data: 245919744
I1001 01:54:42.750093 13932 layer_factory.hpp:77] Creating layer conv5_stage1
I1001 01:54:42.750093 13932 net.cpp:100] Creating Layer conv5_stage1
I1001 01:54:42.750093 13932 net.cpp:444] conv5_stage1 <- conv4_stage1_relu4_stage1_0_split_0
I1001 01:54:42.750093 13932 net.cpp:418] conv5_stage1 -> conv5_stage1
I1001 01:54:42.787087 13932 net.cpp:150] Setting up conv5_stage1
I1001 01:54:42.787087 13932 net.cpp:157] Top shape: 16 512 24 24 (4718592)
I1001 01:54:42.788096 13932 net.cpp:165] Memory required for data: 264794112
I1001 01:54:42.788096 13932 layer_factory.hpp:77] Creating layer relu5_stage1
I1001 01:54:42.788096 13932 net.cpp:100] Creating Layer relu5_stage1
I1001 01:54:42.788096 13932 net.cpp:444] relu5_stage1 <- conv5_stage1
I1001 01:54:42.788096 13932 net.cpp:405] relu5_stage1 -> conv5_stage1 (in-place)
I1001 01:54:42.788096 13932 net.cpp:150] Setting up relu5_stage1
I1001 01:54:42.788096 13932 net.cpp:157] Top shape: 16 512 24 24 (4718592)
I1001 01:54:42.788096 13932 net.cpp:165] Memory required for data: 283668480
I1001 01:54:42.789083 13932 layer_factory.hpp:77] Creating layer drop1_stage1
I1001 01:54:42.789083 13932 net.cpp:100] Creating Layer drop1_stage1
I1001 01:54:42.789083 13932 net.cpp:444] drop1_stage1 <- conv5_stage1
I1001 01:54:42.789083 13932 net.cpp:405] drop1_stage1 -> conv5_stage1 (in-place)
I1001 01:54:42.789083 13932 net.cpp:150] Setting up drop1_stage1
I1001 01:54:42.789083 13932 net.cpp:157] Top shape: 16 512 24 24 (4718592)
I1001 01:54:42.789083 13932 net.cpp:165] Memory required for data: 302542848
I1001 01:54:42.789083 13932 layer_factory.hpp:77] Creating layer concat_conv5_stage1
I1001 01:54:42.789083 13932 net.cpp:100] Creating Layer concat_conv5_stage1
I1001 01:54:42.789083 13932 net.cpp:444] concat_conv5_stage1 <- conv4_stage1_relu4_stage1_0_split_1
I1001 01:54:42.789083 13932 net.cpp:444] concat_conv5_stage1 <- conv5_stage1
I1001 01:54:42.789083 13932 net.cpp:418] concat_conv5_stage1 -> concat_conv5_stage1
I1001 01:54:42.790082 13932 net.cpp:150] Setting up concat_conv5_stage1
I1001 01:54:42.790082 13932 net.cpp:157] Top shape: 16 576 24 24 (5308416)
I1001 01:54:42.790082 13932 net.cpp:165] Memory required for data: 323776512
I1001 01:54:42.790082 13932 layer_factory.hpp:77] Creating layer conv6_stage1
I1001 01:54:42.790082 13932 net.cpp:100] Creating Layer conv6_stage1
I1001 01:54:42.790082 13932 net.cpp:444] conv6_stage1 <- concat_conv5_stage1
I1001 01:54:42.790082 13932 net.cpp:418] conv6_stage1 -> conv6_stage1
I1001 01:54:42.792081 13932 net.cpp:150] Setting up conv6_stage1
I1001 01:54:42.793081 13932 net.cpp:157] Top shape: 16 64 24 24 (589824)
I1001 01:54:42.793081 13932 net.cpp:165] Memory required for data: 326135808
I1001 01:54:42.793081 13932 layer_factory.hpp:77] Creating layer relu6_stage1
I1001 01:54:42.793081 13932 net.cpp:100] Creating Layer relu6_stage1
I1001 01:54:42.793081 13932 net.cpp:444] relu6_stage1 <- conv6_stage1
I1001 01:54:42.793081 13932 net.cpp:405] relu6_stage1 -> conv6_stage1 (in-place)
I1001 01:54:42.793081 13932 net.cpp:150] Setting up relu6_stage1
I1001 01:54:42.793081 13932 net.cpp:157] Top shape: 16 64 24 24 (589824)
I1001 01:54:42.793081 13932 net.cpp:165] Memory required for data: 328495104
I1001 01:54:42.793081 13932 layer_factory.hpp:77] Creating layer drop2_stage1
I1001 01:54:42.794080 13932 net.cpp:100] Creating Layer drop2_stage1
I1001 01:54:42.794080 13932 net.cpp:444] drop2_stage1 <- conv6_stage1
I1001 01:54:42.794080 13932 net.cpp:405] drop2_stage1 -> conv6_stage1 (in-place)
I1001 01:54:42.794080 13932 net.cpp:150] Setting up drop2_stage1
I1001 01:54:42.794080 13932 net.cpp:157] Top shape: 16 64 24 24 (589824)
I1001 01:54:42.794080 13932 net.cpp:165] Memory required for data: 330854400
I1001 01:54:42.794080 13932 layer_factory.hpp:77] Creating layer conv7_stage1
I1001 01:54:42.794080 13932 net.cpp:100] Creating Layer conv7_stage1
I1001 01:54:42.794080 13932 net.cpp:444] conv7_stage1 <- conv6_stage1
I1001 01:54:42.794080 13932 net.cpp:418] conv7_stage1 -> conv7_stage1
I1001 01:54:42.796080 13932 net.cpp:150] Setting up conv7_stage1
I1001 01:54:42.797080 13932 net.cpp:157] Top shape: 16 13 24 24 (119808)
I1001 01:54:42.797080 13932 net.cpp:165] Memory required for data: 331333632
I1001 01:54:42.797080 13932 layer_factory.hpp:77] Creating layer conv7_stage1_conv7_stage1_0_split
I1001 01:54:42.797080 13932 net.cpp:100] Creating Layer conv7_stage1_conv7_stage1_0_split
I1001 01:54:42.797080 13932 net.cpp:444] conv7_stage1_conv7_stage1_0_split <- conv7_stage1
I1001 01:54:42.798079 13932 net.cpp:418] conv7_stage1_conv7_stage1_0_split -> conv7_stage1_conv7_stage1_0_split_0
I1001 01:54:42.798079 13932 net.cpp:418] conv7_stage1_conv7_stage1_0_split -> conv7_stage1_conv7_stage1_0_split_1
I1001 01:54:42.798079 13932 net.cpp:150] Setting up conv7_stage1_conv7_stage1_0_split
I1001 01:54:42.798079 13932 net.cpp:157] Top shape: 16 13 24 24 (119808)
I1001 01:54:42.798079 13932 net.cpp:157] Top shape: 16 13 24 24 (119808)
I1001 01:54:42.798079 13932 net.cpp:165] Memory required for data: 332292096
I1001 01:54:42.798079 13932 layer_factory.hpp:77] Creating layer loss_stage1
I1001 01:54:42.798079 13932 net.cpp:100] Creating Layer loss_stage1
I1001 01:54:42.798079 13932 net.cpp:444] loss_stage1 <- conv7_stage1_conv7_stage1_0_split_0
I1001 01:54:42.798079 13932 net.cpp:444] loss_stage1 <- label_1st_lower
I1001 01:54:42.798079 13932 net.cpp:418] loss_stage1 -> loss_stage1
I1001 01:54:42.798079 13932 net.cpp:150] Setting up loss_stage1
I1001 01:54:42.799080 13932 net.cpp:157] Top shape: (1)
I1001 01:54:42.799080 13932 net.cpp:160]     with loss weight 1
I1001 01:54:42.799080 13932 net.cpp:165] Memory required for data: 332292100
I1001 01:54:42.799080 13932 layer_factory.hpp:77] Creating layer conv1_stage2
I1001 01:54:42.799080 13932 net.cpp:100] Creating Layer conv1_stage2
I1001 01:54:42.799080 13932 net.cpp:444] conv1_stage2 <- pool3_stage1_pool3_stage1_0_split_1
I1001 01:54:42.799080 13932 net.cpp:418] conv1_stage2 -> conv1_stage2
I1001 01:54:42.803078 13932 net.cpp:150] Setting up conv1_stage2
I1001 01:54:42.803078 13932 net.cpp:157] Top shape: 16 64 24 24 (589824)
I1001 01:54:42.803078 13932 net.cpp:165] Memory required for data: 334651396
I1001 01:54:42.803078 13932 layer_factory.hpp:77] Creating layer relu1_stage2
I1001 01:54:42.803078 13932 net.cpp:100] Creating Layer relu1_stage2
I1001 01:54:42.803078 13932 net.cpp:444] relu1_stage2 <- conv1_stage2
I1001 01:54:42.803078 13932 net.cpp:405] relu1_stage2 -> conv1_stage2 (in-place)
I1001 01:54:42.804077 13932 net.cpp:150] Setting up relu1_stage2
I1001 01:54:42.804077 13932 net.cpp:157] Top shape: 16 64 24 24 (589824)
I1001 01:54:42.804077 13932 net.cpp:165] Memory required for data: 337010692
I1001 01:54:42.804077 13932 layer_factory.hpp:77] Creating layer concat_stage2
I1001 01:54:42.804077 13932 net.cpp:100] Creating Layer concat_stage2
I1001 01:54:42.804077 13932 net.cpp:444] concat_stage2 <- conv1_stage2
I1001 01:54:42.804077 13932 net.cpp:444] concat_stage2 <- conv7_stage1_conv7_stage1_0_split_1
I1001 01:54:42.804077 13932 net.cpp:444] concat_stage2 <- pool_image_lower_pool_image_lower_0_split_0
I1001 01:54:42.804077 13932 net.cpp:418] concat_stage2 -> concat_stage2
I1001 01:54:42.804077 13932 net.cpp:150] Setting up concat_stage2
I1001 01:54:42.804077 13932 net.cpp:157] Top shape: 16 78 24 24 (718848)
I1001 01:54:42.804077 13932 net.cpp:165] Memory required for data: 339886084
I1001 01:54:42.804077 13932 layer_factory.hpp:77] Creating layer Mconv1_stage2
I1001 01:54:42.805078 13932 net.cpp:100] Creating Layer Mconv1_stage2
I1001 01:54:42.805078 13932 net.cpp:444] Mconv1_stage2 <- concat_stage2
I1001 01:54:42.805078 13932 net.cpp:418] Mconv1_stage2 -> Mconv1_stage2
I1001 01:54:42.814075 13932 net.cpp:150] Setting up Mconv1_stage2
I1001 01:54:42.814075 13932 net.cpp:157] Top shape: 16 64 24 24 (589824)
I1001 01:54:42.814075 13932 net.cpp:165] Memory required for data: 342245380
I1001 01:54:42.814075 13932 layer_factory.hpp:77] Creating layer Mrelu1_stage2
I1001 01:54:42.815074 13932 net.cpp:100] Creating Layer Mrelu1_stage2
I1001 01:54:42.815074 13932 net.cpp:444] Mrelu1_stage2 <- Mconv1_stage2
I1001 01:54:42.815074 13932 net.cpp:405] Mrelu1_stage2 -> Mconv1_stage2 (in-place)
I1001 01:54:42.815074 13932 net.cpp:150] Setting up Mrelu1_stage2
I1001 01:54:42.815074 13932 net.cpp:157] Top shape: 16 64 24 24 (589824)
I1001 01:54:42.816076 13932 net.cpp:165] Memory required for data: 344604676
I1001 01:54:42.816076 13932 layer_factory.hpp:77] Creating layer Mconv1_stage2_Mrelu1_stage2_0_split
I1001 01:54:42.816076 13932 net.cpp:100] Creating Layer Mconv1_stage2_Mrelu1_stage2_0_split
I1001 01:54:42.816076 13932 net.cpp:444] Mconv1_stage2_Mrelu1_stage2_0_split <- Mconv1_stage2
I1001 01:54:42.817073 13932 net.cpp:418] Mconv1_stage2_Mrelu1_stage2_0_split -> Mconv1_stage2_Mrelu1_stage2_0_split_0
I1001 01:54:42.817073 13932 net.cpp:418] Mconv1_stage2_Mrelu1_stage2_0_split -> Mconv1_stage2_Mrelu1_stage2_0_split_1
I1001 01:54:42.817073 13932 net.cpp:150] Setting up Mconv1_stage2_Mrelu1_stage2_0_split
I1001 01:54:42.817073 13932 net.cpp:157] Top shape: 16 64 24 24 (589824)
I1001 01:54:42.817073 13932 net.cpp:157] Top shape: 16 64 24 24 (589824)
I1001 01:54:42.817073 13932 net.cpp:165] Memory required for data: 349323268
I1001 01:54:42.817073 13932 layer_factory.hpp:77] Creating layer Mconv3_stage2
I1001 01:54:42.817073 13932 net.cpp:100] Creating Layer Mconv3_stage2
I1001 01:54:42.817073 13932 net.cpp:444] Mconv3_stage2 <- Mconv1_stage2_Mrelu1_stage2_0_split_0
I1001 01:54:42.817073 13932 net.cpp:418] Mconv3_stage2 -> Mconv3_stage2
I1001 01:54:42.826073 13932 net.cpp:150] Setting up Mconv3_stage2
I1001 01:54:42.826073 13932 net.cpp:157] Top shape: 16 64 24 24 (589824)
I1001 01:54:42.826073 13932 net.cpp:165] Memory required for data: 351682564
I1001 01:54:42.826073 13932 layer_factory.hpp:77] Creating layer Mrelu3_stage2
I1001 01:54:42.826073 13932 net.cpp:100] Creating Layer Mrelu3_stage2
I1001 01:54:42.826073 13932 net.cpp:444] Mrelu3_stage2 <- Mconv3_stage2
I1001 01:54:42.826073 13932 net.cpp:405] Mrelu3_stage2 -> Mconv3_stage2 (in-place)
I1001 01:54:42.827071 13932 net.cpp:150] Setting up Mrelu3_stage2
I1001 01:54:42.827071 13932 net.cpp:157] Top shape: 16 64 24 24 (589824)
I1001 01:54:42.827071 13932 net.cpp:165] Memory required for data: 354041860
I1001 01:54:42.827071 13932 layer_factory.hpp:77] Creating layer concat_Mconv3_stage2
I1001 01:54:42.827071 13932 net.cpp:100] Creating Layer concat_Mconv3_stage2
I1001 01:54:42.827071 13932 net.cpp:444] concat_Mconv3_stage2 <- Mconv1_stage2_Mrelu1_stage2_0_split_1
I1001 01:54:42.827071 13932 net.cpp:444] concat_Mconv3_stage2 <- Mconv3_stage2
I1001 01:54:42.827071 13932 net.cpp:418] concat_Mconv3_stage2 -> concat_Mconv3_stage2
I1001 01:54:42.828089 13932 net.cpp:150] Setting up concat_Mconv3_stage2
I1001 01:54:42.828089 13932 net.cpp:157] Top shape: 16 128 24 24 (1179648)
I1001 01:54:42.828089 13932 net.cpp:165] Memory required for data: 358760452
I1001 01:54:42.828089 13932 layer_factory.hpp:77] Creating layer Mconv4_stage2
I1001 01:54:42.828089 13932 net.cpp:100] Creating Layer Mconv4_stage2
I1001 01:54:42.828089 13932 net.cpp:444] Mconv4_stage2 <- concat_Mconv3_stage2
I1001 01:54:42.828089 13932 net.cpp:418] Mconv4_stage2 -> Mconv4_stage2
I1001 01:54:42.829072 13932 net.cpp:150] Setting up Mconv4_stage2
I1001 01:54:42.830072 13932 net.cpp:157] Top shape: 16 64 24 24 (589824)
I1001 01:54:42.830072 13932 net.cpp:165] Memory required for data: 361119748
I1001 01:54:42.830072 13932 layer_factory.hpp:77] Creating layer Mrelu4_stage2
I1001 01:54:42.830072 13932 net.cpp:100] Creating Layer Mrelu4_stage2
I1001 01:54:42.830072 13932 net.cpp:444] Mrelu4_stage2 <- Mconv4_stage2
I1001 01:54:42.830072 13932 net.cpp:405] Mrelu4_stage2 -> Mconv4_stage2 (in-place)
I1001 01:54:42.830072 13932 net.cpp:150] Setting up Mrelu4_stage2
I1001 01:54:42.830072 13932 net.cpp:157] Top shape: 16 64 24 24 (589824)
I1001 01:54:42.830072 13932 net.cpp:165] Memory required for data: 363479044
I1001 01:54:42.831073 13932 layer_factory.hpp:77] Creating layer Mconv5_stage2
I1001 01:54:42.831073 13932 net.cpp:100] Creating Layer Mconv5_stage2
I1001 01:54:42.831073 13932 net.cpp:444] Mconv5_stage2 <- Mconv4_stage2
I1001 01:54:42.831073 13932 net.cpp:418] Mconv5_stage2 -> Mconv5_stage2
I1001 01:54:42.833071 13932 net.cpp:150] Setting up Mconv5_stage2
I1001 01:54:42.833071 13932 net.cpp:157] Top shape: 16 13 24 24 (119808)
I1001 01:54:42.833071 13932 net.cpp:165] Memory required for data: 363958276
I1001 01:54:42.833071 13932 layer_factory.hpp:77] Creating layer Mconv5_stage2_Mconv5_stage2_0_split
I1001 01:54:42.833071 13932 net.cpp:100] Creating Layer Mconv5_stage2_Mconv5_stage2_0_split
I1001 01:54:42.833071 13932 net.cpp:444] Mconv5_stage2_Mconv5_stage2_0_split <- Mconv5_stage2
I1001 01:54:42.833071 13932 net.cpp:418] Mconv5_stage2_Mconv5_stage2_0_split -> Mconv5_stage2_Mconv5_stage2_0_split_0
I1001 01:54:42.833071 13932 net.cpp:418] Mconv5_stage2_Mconv5_stage2_0_split -> Mconv5_stage2_Mconv5_stage2_0_split_1
I1001 01:54:42.833071 13932 net.cpp:150] Setting up Mconv5_stage2_Mconv5_stage2_0_split
I1001 01:54:42.833071 13932 net.cpp:157] Top shape: 16 13 24 24 (119808)
I1001 01:54:42.833071 13932 net.cpp:157] Top shape: 16 13 24 24 (119808)
I1001 01:54:42.834069 13932 net.cpp:165] Memory required for data: 364916740
I1001 01:54:42.834069 13932 layer_factory.hpp:77] Creating layer loss_stage2
I1001 01:54:42.834069 13932 net.cpp:100] Creating Layer loss_stage2
I1001 01:54:42.834069 13932 net.cpp:444] loss_stage2 <- Mconv5_stage2_Mconv5_stage2_0_split_0
I1001 01:54:42.834069 13932 net.cpp:444] loss_stage2 <- label_lower_label_lower_0_split_0
I1001 01:54:42.834069 13932 net.cpp:418] loss_stage2 -> loss_stage2
I1001 01:54:42.834069 13932 net.cpp:150] Setting up loss_stage2
I1001 01:54:42.834069 13932 net.cpp:157] Top shape: (1)
I1001 01:54:42.834069 13932 net.cpp:160]     with loss weight 1
I1001 01:54:42.834069 13932 net.cpp:165] Memory required for data: 364916744
I1001 01:54:42.834069 13932 layer_factory.hpp:77] Creating layer conv1_stage3
I1001 01:54:42.835068 13932 net.cpp:100] Creating Layer conv1_stage3
I1001 01:54:42.836072 13932 net.cpp:444] conv1_stage3 <- pool3_stage1_pool3_stage1_0_split_2
I1001 01:54:42.836072 13932 net.cpp:418] conv1_stage3 -> conv1_stage3
I1001 01:54:42.842067 13932 net.cpp:150] Setting up conv1_stage3
I1001 01:54:42.842067 13932 net.cpp:157] Top shape: 16 64 24 24 (589824)
I1001 01:54:42.842067 13932 net.cpp:165] Memory required for data: 367276040
I1001 01:54:42.842067 13932 layer_factory.hpp:77] Creating layer relu1_stage3
I1001 01:54:42.842067 13932 net.cpp:100] Creating Layer relu1_stage3
I1001 01:54:42.842067 13932 net.cpp:444] relu1_stage3 <- conv1_stage3
I1001 01:54:42.842067 13932 net.cpp:405] relu1_stage3 -> conv1_stage3 (in-place)
I1001 01:54:42.843068 13932 net.cpp:150] Setting up relu1_stage3
I1001 01:54:42.843068 13932 net.cpp:157] Top shape: 16 64 24 24 (589824)
I1001 01:54:42.843068 13932 net.cpp:165] Memory required for data: 369635336
I1001 01:54:42.843068 13932 layer_factory.hpp:77] Creating layer concat_stage3
I1001 01:54:42.843068 13932 net.cpp:100] Creating Layer concat_stage3
I1001 01:54:42.843068 13932 net.cpp:444] concat_stage3 <- conv1_stage3
I1001 01:54:42.843068 13932 net.cpp:444] concat_stage3 <- Mconv5_stage2_Mconv5_stage2_0_split_1
I1001 01:54:42.843068 13932 net.cpp:444] concat_stage3 <- pool_image_lower_pool_image_lower_0_split_1
I1001 01:54:42.843068 13932 net.cpp:418] concat_stage3 -> concat_stage3
I1001 01:54:42.843068 13932 net.cpp:150] Setting up concat_stage3
I1001 01:54:42.843068 13932 net.cpp:157] Top shape: 16 78 24 24 (718848)
I1001 01:54:42.844069 13932 net.cpp:165] Memory required for data: 372510728
I1001 01:54:42.844069 13932 layer_factory.hpp:77] Creating layer Mconv1_stage3
I1001 01:54:42.844069 13932 net.cpp:100] Creating Layer Mconv1_stage3
I1001 01:54:42.844069 13932 net.cpp:444] Mconv1_stage3 <- concat_stage3
I1001 01:54:42.844069 13932 net.cpp:418] Mconv1_stage3 -> Mconv1_stage3
I1001 01:54:42.854065 13932 net.cpp:150] Setting up Mconv1_stage3
I1001 01:54:42.854065 13932 net.cpp:157] Top shape: 16 64 24 24 (589824)
I1001 01:54:42.854065 13932 net.cpp:165] Memory required for data: 374870024
I1001 01:54:42.854065 13932 layer_factory.hpp:77] Creating layer Mrelu1_stage3
I1001 01:54:42.854065 13932 net.cpp:100] Creating Layer Mrelu1_stage3
I1001 01:54:42.854065 13932 net.cpp:444] Mrelu1_stage3 <- Mconv1_stage3
I1001 01:54:42.854065 13932 net.cpp:405] Mrelu1_stage3 -> Mconv1_stage3 (in-place)
I1001 01:54:42.855064 13932 net.cpp:150] Setting up Mrelu1_stage3
I1001 01:54:42.855064 13932 net.cpp:157] Top shape: 16 64 24 24 (589824)
I1001 01:54:42.856063 13932 net.cpp:165] Memory required for data: 377229320
I1001 01:54:42.856063 13932 layer_factory.hpp:77] Creating layer Mconv1_stage3_Mrelu1_stage3_0_split
I1001 01:54:42.856063 13932 net.cpp:100] Creating Layer Mconv1_stage3_Mrelu1_stage3_0_split
I1001 01:54:42.856063 13932 net.cpp:444] Mconv1_stage3_Mrelu1_stage3_0_split <- Mconv1_stage3
I1001 01:54:42.856063 13932 net.cpp:418] Mconv1_stage3_Mrelu1_stage3_0_split -> Mconv1_stage3_Mrelu1_stage3_0_split_0
I1001 01:54:42.856063 13932 net.cpp:418] Mconv1_stage3_Mrelu1_stage3_0_split -> Mconv1_stage3_Mrelu1_stage3_0_split_1
I1001 01:54:42.856063 13932 net.cpp:150] Setting up Mconv1_stage3_Mrelu1_stage3_0_split
I1001 01:54:42.856063 13932 net.cpp:157] Top shape: 16 64 24 24 (589824)
I1001 01:54:42.856063 13932 net.cpp:157] Top shape: 16 64 24 24 (589824)
I1001 01:54:42.856063 13932 net.cpp:165] Memory required for data: 381947912
I1001 01:54:42.857064 13932 layer_factory.hpp:77] Creating layer Mconv3_stage3
I1001 01:54:42.857064 13932 net.cpp:100] Creating Layer Mconv3_stage3
I1001 01:54:42.857064 13932 net.cpp:444] Mconv3_stage3 <- Mconv1_stage3_Mrelu1_stage3_0_split_0
I1001 01:54:42.857064 13932 net.cpp:418] Mconv3_stage3 -> Mconv3_stage3
I1001 01:54:42.865061 13932 net.cpp:150] Setting up Mconv3_stage3
I1001 01:54:42.865061 13932 net.cpp:157] Top shape: 16 64 24 24 (589824)
I1001 01:54:42.865061 13932 net.cpp:165] Memory required for data: 384307208
I1001 01:54:42.866060 13932 layer_factory.hpp:77] Creating layer Mrelu3_stage3
I1001 01:54:42.866060 13932 net.cpp:100] Creating Layer Mrelu3_stage3
I1001 01:54:42.866060 13932 net.cpp:444] Mrelu3_stage3 <- Mconv3_stage3
I1001 01:54:42.866060 13932 net.cpp:405] Mrelu3_stage3 -> Mconv3_stage3 (in-place)
I1001 01:54:42.866060 13932 net.cpp:150] Setting up Mrelu3_stage3
I1001 01:54:42.866060 13932 net.cpp:157] Top shape: 16 64 24 24 (589824)
I1001 01:54:42.866060 13932 net.cpp:165] Memory required for data: 386666504
I1001 01:54:42.866060 13932 layer_factory.hpp:77] Creating layer concat_Mconv3_stage3
I1001 01:54:42.867060 13932 net.cpp:100] Creating Layer concat_Mconv3_stage3
I1001 01:54:42.867060 13932 net.cpp:444] concat_Mconv3_stage3 <- Mconv1_stage3_Mrelu1_stage3_0_split_1
I1001 01:54:42.867060 13932 net.cpp:444] concat_Mconv3_stage3 <- Mconv3_stage3
I1001 01:54:42.867060 13932 net.cpp:418] concat_Mconv3_stage3 -> concat_Mconv3_stage3
I1001 01:54:42.867060 13932 net.cpp:150] Setting up concat_Mconv3_stage3
I1001 01:54:42.867060 13932 net.cpp:157] Top shape: 16 128 24 24 (1179648)
I1001 01:54:42.867060 13932 net.cpp:165] Memory required for data: 391385096
I1001 01:54:42.867060 13932 layer_factory.hpp:77] Creating layer Mconv4_stage3
I1001 01:54:42.867060 13932 net.cpp:100] Creating Layer Mconv4_stage3
I1001 01:54:42.867060 13932 net.cpp:444] Mconv4_stage3 <- concat_Mconv3_stage3
I1001 01:54:42.867060 13932 net.cpp:418] Mconv4_stage3 -> Mconv4_stage3
I1001 01:54:42.869062 13932 net.cpp:150] Setting up Mconv4_stage3
I1001 01:54:42.869062 13932 net.cpp:157] Top shape: 16 64 24 24 (589824)
I1001 01:54:42.869062 13932 net.cpp:165] Memory required for data: 393744392
I1001 01:54:42.869062 13932 layer_factory.hpp:77] Creating layer Mrelu4_stage3
I1001 01:54:42.869062 13932 net.cpp:100] Creating Layer Mrelu4_stage3
I1001 01:54:42.869062 13932 net.cpp:444] Mrelu4_stage3 <- Mconv4_stage3
I1001 01:54:42.869062 13932 net.cpp:405] Mrelu4_stage3 -> Mconv4_stage3 (in-place)
I1001 01:54:42.870064 13932 net.cpp:150] Setting up Mrelu4_stage3
I1001 01:54:42.870064 13932 net.cpp:157] Top shape: 16 64 24 24 (589824)
I1001 01:54:42.870064 13932 net.cpp:165] Memory required for data: 396103688
I1001 01:54:42.870064 13932 layer_factory.hpp:77] Creating layer Mconv5_stage3
I1001 01:54:42.870064 13932 net.cpp:100] Creating Layer Mconv5_stage3
I1001 01:54:42.870064 13932 net.cpp:444] Mconv5_stage3 <- Mconv4_stage3
I1001 01:54:42.871060 13932 net.cpp:418] Mconv5_stage3 -> Mconv5_stage3
I1001 01:54:42.873060 13932 net.cpp:150] Setting up Mconv5_stage3
I1001 01:54:42.873060 13932 net.cpp:157] Top shape: 16 13 24 24 (119808)
I1001 01:54:42.873060 13932 net.cpp:165] Memory required for data: 396582920
I1001 01:54:42.873060 13932 layer_factory.hpp:77] Creating layer Mconv5_stage3_Mconv5_stage3_0_split
I1001 01:54:42.873060 13932 net.cpp:100] Creating Layer Mconv5_stage3_Mconv5_stage3_0_split
I1001 01:54:42.873060 13932 net.cpp:444] Mconv5_stage3_Mconv5_stage3_0_split <- Mconv5_stage3
I1001 01:54:42.873060 13932 net.cpp:418] Mconv5_stage3_Mconv5_stage3_0_split -> Mconv5_stage3_Mconv5_stage3_0_split_0
I1001 01:54:42.873060 13932 net.cpp:418] Mconv5_stage3_Mconv5_stage3_0_split -> Mconv5_stage3_Mconv5_stage3_0_split_1
I1001 01:54:42.873060 13932 net.cpp:150] Setting up Mconv5_stage3_Mconv5_stage3_0_split
I1001 01:54:42.873060 13932 net.cpp:157] Top shape: 16 13 24 24 (119808)
I1001 01:54:42.874058 13932 net.cpp:157] Top shape: 16 13 24 24 (119808)
I1001 01:54:42.875059 13932 net.cpp:165] Memory required for data: 397541384
I1001 01:54:42.875059 13932 layer_factory.hpp:77] Creating layer loss_stage3
I1001 01:54:42.875059 13932 net.cpp:100] Creating Layer loss_stage3
I1001 01:54:42.875059 13932 net.cpp:444] loss_stage3 <- Mconv5_stage3_Mconv5_stage3_0_split_0
I1001 01:54:42.875059 13932 net.cpp:444] loss_stage3 <- label_lower_label_lower_0_split_1
I1001 01:54:42.876056 13932 net.cpp:418] loss_stage3 -> loss_stage3
I1001 01:54:42.876056 13932 net.cpp:150] Setting up loss_stage3
I1001 01:54:42.876056 13932 net.cpp:157] Top shape: (1)
I1001 01:54:42.876056 13932 net.cpp:160]     with loss weight 1
I1001 01:54:42.876056 13932 net.cpp:165] Memory required for data: 397541388
I1001 01:54:42.876056 13932 layer_factory.hpp:77] Creating layer conv1_stage4
I1001 01:54:42.876056 13932 net.cpp:100] Creating Layer conv1_stage4
I1001 01:54:42.876056 13932 net.cpp:444] conv1_stage4 <- pool3_stage1_pool3_stage1_0_split_3
I1001 01:54:42.876056 13932 net.cpp:418] conv1_stage4 -> conv1_stage4
I1001 01:54:42.879056 13932 net.cpp:150] Setting up conv1_stage4
I1001 01:54:42.879056 13932 net.cpp:157] Top shape: 16 32 24 24 (294912)
I1001 01:54:42.879056 13932 net.cpp:165] Memory required for data: 398721036
I1001 01:54:42.880056 13932 layer_factory.hpp:77] Creating layer relu1_stage4
I1001 01:54:42.880056 13932 net.cpp:100] Creating Layer relu1_stage4
I1001 01:54:42.880056 13932 net.cpp:444] relu1_stage4 <- conv1_stage4
I1001 01:54:42.880056 13932 net.cpp:405] relu1_stage4 -> conv1_stage4 (in-place)
I1001 01:54:42.880056 13932 net.cpp:150] Setting up relu1_stage4
I1001 01:54:42.880056 13932 net.cpp:157] Top shape: 16 32 24 24 (294912)
I1001 01:54:42.880056 13932 net.cpp:165] Memory required for data: 399900684
I1001 01:54:42.880056 13932 layer_factory.hpp:77] Creating layer concat_stage4
I1001 01:54:42.880056 13932 net.cpp:100] Creating Layer concat_stage4
I1001 01:54:42.881057 13932 net.cpp:444] concat_stage4 <- conv1_stage4
I1001 01:54:42.881057 13932 net.cpp:444] concat_stage4 <- Mconv5_stage3_Mconv5_stage3_0_split_1
I1001 01:54:42.881057 13932 net.cpp:444] concat_stage4 <- pool_image_lower_pool_image_lower_0_split_2
I1001 01:54:42.881057 13932 net.cpp:418] concat_stage4 -> concat_stage4
I1001 01:54:42.881057 13932 net.cpp:150] Setting up concat_stage4
I1001 01:54:42.881057 13932 net.cpp:157] Top shape: 16 46 24 24 (423936)
I1001 01:54:42.881057 13932 net.cpp:165] Memory required for data: 401596428
I1001 01:54:42.881057 13932 layer_factory.hpp:77] Creating layer Mconv1_stage4
I1001 01:54:42.881057 13932 net.cpp:100] Creating Layer Mconv1_stage4
I1001 01:54:42.881057 13932 net.cpp:444] Mconv1_stage4 <- concat_stage4
I1001 01:54:42.881057 13932 net.cpp:418] Mconv1_stage4 -> Mconv1_stage4
I1001 01:54:42.888056 13932 net.cpp:150] Setting up Mconv1_stage4
I1001 01:54:42.889053 13932 net.cpp:157] Top shape: 16 64 24 24 (589824)
I1001 01:54:42.889053 13932 net.cpp:165] Memory required for data: 403955724
I1001 01:54:42.889053 13932 layer_factory.hpp:77] Creating layer Mrelu1_stage4
I1001 01:54:42.889053 13932 net.cpp:100] Creating Layer Mrelu1_stage4
I1001 01:54:42.889053 13932 net.cpp:444] Mrelu1_stage4 <- Mconv1_stage4
I1001 01:54:42.889053 13932 net.cpp:405] Mrelu1_stage4 -> Mconv1_stage4 (in-place)
I1001 01:54:42.890053 13932 net.cpp:150] Setting up Mrelu1_stage4
I1001 01:54:42.890053 13932 net.cpp:157] Top shape: 16 64 24 24 (589824)
I1001 01:54:42.890053 13932 net.cpp:165] Memory required for data: 406315020
I1001 01:54:42.890053 13932 layer_factory.hpp:77] Creating layer Mconv1_stage4_Mrelu1_stage4_0_split
I1001 01:54:42.890053 13932 net.cpp:100] Creating Layer Mconv1_stage4_Mrelu1_stage4_0_split
I1001 01:54:42.890053 13932 net.cpp:444] Mconv1_stage4_Mrelu1_stage4_0_split <- Mconv1_stage4
I1001 01:54:42.890053 13932 net.cpp:418] Mconv1_stage4_Mrelu1_stage4_0_split -> Mconv1_stage4_Mrelu1_stage4_0_split_0
I1001 01:54:42.890053 13932 net.cpp:418] Mconv1_stage4_Mrelu1_stage4_0_split -> Mconv1_stage4_Mrelu1_stage4_0_split_1
I1001 01:54:42.890053 13932 net.cpp:150] Setting up Mconv1_stage4_Mrelu1_stage4_0_split
I1001 01:54:42.891052 13932 net.cpp:157] Top shape: 16 64 24 24 (589824)
I1001 01:54:42.891052 13932 net.cpp:157] Top shape: 16 64 24 24 (589824)
I1001 01:54:42.891052 13932 net.cpp:165] Memory required for data: 411033612
I1001 01:54:42.891052 13932 layer_factory.hpp:77] Creating layer Mconv3_stage4
I1001 01:54:42.891052 13932 net.cpp:100] Creating Layer Mconv3_stage4
I1001 01:54:42.891052 13932 net.cpp:444] Mconv3_stage4 <- Mconv1_stage4_Mrelu1_stage4_0_split_0
I1001 01:54:42.891052 13932 net.cpp:418] Mconv3_stage4 -> Mconv3_stage4
I1001 01:54:42.900051 13932 net.cpp:150] Setting up Mconv3_stage4
I1001 01:54:42.900051 13932 net.cpp:157] Top shape: 16 64 24 24 (589824)
I1001 01:54:42.900051 13932 net.cpp:165] Memory required for data: 413392908
I1001 01:54:42.900051 13932 layer_factory.hpp:77] Creating layer Mrelu3_stage4
I1001 01:54:42.900051 13932 net.cpp:100] Creating Layer Mrelu3_stage4
I1001 01:54:42.900051 13932 net.cpp:444] Mrelu3_stage4 <- Mconv3_stage4
I1001 01:54:42.900051 13932 net.cpp:405] Mrelu3_stage4 -> Mconv3_stage4 (in-place)
I1001 01:54:42.902050 13932 net.cpp:150] Setting up Mrelu3_stage4
I1001 01:54:42.902050 13932 net.cpp:157] Top shape: 16 64 24 24 (589824)
I1001 01:54:42.902050 13932 net.cpp:165] Memory required for data: 415752204
I1001 01:54:42.902050 13932 layer_factory.hpp:77] Creating layer concat_Mconv3_stage4
I1001 01:54:42.902050 13932 net.cpp:100] Creating Layer concat_Mconv3_stage4
I1001 01:54:42.902050 13932 net.cpp:444] concat_Mconv3_stage4 <- Mconv1_stage4_Mrelu1_stage4_0_split_1
I1001 01:54:42.902050 13932 net.cpp:444] concat_Mconv3_stage4 <- Mconv3_stage4
I1001 01:54:42.902050 13932 net.cpp:418] concat_Mconv3_stage4 -> concat_Mconv3_stage4
I1001 01:54:42.902050 13932 net.cpp:150] Setting up concat_Mconv3_stage4
I1001 01:54:42.902050 13932 net.cpp:157] Top shape: 16 128 24 24 (1179648)
I1001 01:54:42.902050 13932 net.cpp:165] Memory required for data: 420470796
I1001 01:54:42.903050 13932 layer_factory.hpp:77] Creating layer Mconv4_stage4
I1001 01:54:42.903050 13932 net.cpp:100] Creating Layer Mconv4_stage4
I1001 01:54:42.903050 13932 net.cpp:444] Mconv4_stage4 <- concat_Mconv3_stage4
I1001 01:54:42.903050 13932 net.cpp:418] Mconv4_stage4 -> Mconv4_stage4
I1001 01:54:42.906049 13932 net.cpp:150] Setting up Mconv4_stage4
I1001 01:54:42.906049 13932 net.cpp:157] Top shape: 16 64 24 24 (589824)
I1001 01:54:42.906049 13932 net.cpp:165] Memory required for data: 422830092
I1001 01:54:42.906049 13932 layer_factory.hpp:77] Creating layer Mrelu4_stage4
I1001 01:54:42.906049 13932 net.cpp:100] Creating Layer Mrelu4_stage4
I1001 01:54:42.906049 13932 net.cpp:444] Mrelu4_stage4 <- Mconv4_stage4
I1001 01:54:42.906049 13932 net.cpp:405] Mrelu4_stage4 -> Mconv4_stage4 (in-place)
I1001 01:54:42.907047 13932 net.cpp:150] Setting up Mrelu4_stage4
I1001 01:54:42.907047 13932 net.cpp:157] Top shape: 16 64 24 24 (589824)
I1001 01:54:42.907047 13932 net.cpp:165] Memory required for data: 425189388
I1001 01:54:42.907047 13932 layer_factory.hpp:77] Creating layer Mconv5_stage4
I1001 01:54:42.907047 13932 net.cpp:100] Creating Layer Mconv5_stage4
I1001 01:54:42.907047 13932 net.cpp:444] Mconv5_stage4 <- Mconv4_stage4
I1001 01:54:42.907047 13932 net.cpp:418] Mconv5_stage4 -> Mconv5_stage4
I1001 01:54:42.909046 13932 net.cpp:150] Setting up Mconv5_stage4
I1001 01:54:42.909046 13932 net.cpp:157] Top shape: 16 13 24 24 (119808)
I1001 01:54:42.909046 13932 net.cpp:165] Memory required for data: 425668620
I1001 01:54:42.909046 13932 layer_factory.hpp:77] Creating layer loss_stage4
I1001 01:54:42.909046 13932 net.cpp:100] Creating Layer loss_stage4
I1001 01:54:42.909046 13932 net.cpp:444] loss_stage4 <- Mconv5_stage4
I1001 01:54:42.909046 13932 net.cpp:444] loss_stage4 <- label_lower_label_lower_0_split_2
…
