…
I1125 18:24:55.351109 31568 net.cpp:58] Initializing net from parameters: 
state {
  phase: TRAIN
  level: 0
  stage: ""
}
layer {
  name: "data"
  type: "CPMData"
  top: "image"
  top: "label"
  transform_param {
    stride: 4
    max_rotate_degree: 25
    crop_size_x: 96
    crop_size_y: 96
    scale_prob: 1
    scale_min: 0.6
    scale_max: 1
    target_dist: 1.171
    center_perterb_max: 0
    sigma: 4
    do_clahe: false
    num_parts: 12
    gray: 1
    np_in_lmdb: 12
    put_gaussian: false
  }
  cpmdata_param {
    source: "D:/deeplearning/trainingdata/AllData/lmdb/New2"
    batch_size: 16
    backend: LMDB
  }
}
layer {
  name: "label_lower"
  type: "Slice"
  bottom: "label"
  top: "label_lower"
  top: "label_1st_lower"
  slice_param {
    slice_point: 13
    axis: 1
  }
}
layer {
  name: "pool_image_lower"
  type: "Pooling"
  bottom: "image"
  top: "pool_image_lower"
  pooling_param {
    pool: AVE
    kernel_size: 4
    stride: 4
  }
}
layer {
  name: "conv2_stage1"
  type: "Convolution"
  bottom: "image"
  top: "conv2_stage1"
  param {
    lr_mult: 5
    decay_mult: 1
  }
  param {
    lr_mult: 10
    decay_mult: 0
  }
  convolution_param {
    num_output: 128
    pad: 4
    kernel_size: 9
    weight_filler {
      type: "gaussian"
      std: 0.01
    }
    bias_filler {
      type: "constant"
    }
  }
}
layer {
  name: "relu2_stage1"
  type: "ReLU"
  bottom: "conv2_stage1"
  top: "conv2_stage1"
}
layer {
  name: "pool2_stage1"
  type: "Pooling"
  bottom: "conv2_stage1"
  top: "pool2_stage1"
  pooling_param {
    pool: MAX
    kernel_size: 3
    stride: 2
  }
}
layer {
  name: "conv3_stage1"
  type: "Convolution"
  bottom: "pool2_stage1"
  top: "conv3_stage1"
  param {
    lr_mult: 5
    decay_mult: 1
  }
  param {
    lr_mult: 10
    decay_mult: 0
  }
  convolution_param {
    num_output: 128
    pad: 4
    kernel_size: 9
    weight_filler {
      type: "gaussian"
      std: 0.01
    }
    bias_filler {
      type: "constant"
    }
  }
}
layer {
  name: "relu3_stage1"
  type: "ReLU"
  bottom: "conv3_stage1"
  top: "conv3_stage1"
}
layer {
  name: "pool3_stage1"
  type: "Pooling"
  bottom: "conv3_stage1"
  top: "pool3_stage1"
  pooling_param {
    pool: MAX
    kernel_size: 3
    stride: 2
  }
}
layer {
  name: "conv4_stage1"
  type: "Convolution"
  bottom: "pool3_stage1"
  top: "conv4_stage1"
  param {
    lr_mult: 5
    decay_mult: 1
  }
  param {
    lr_mult: 10
    decay_mult: 0
  }
  convolution_param {
    num_output: 64
    pad: 2
    kernel_size: 5
    weight_filler {
      type: "gaussian"
      std: 0.01
    }
    bias_filler {
      type: "constant"
    }
  }
}
layer {
  name: "relu4_stage1"
  type: "ReLU"
  bottom: "conv4_stage1"
  top: "conv4_stage1"
}
layer {
  name: "conv5_stage1"
  type: "Convolution"
  bottom: "conv4_stage1"
  top: "conv5_stage1"
  param {
    lr_mult: 5
    decay_mult: 1
  }
  param {
    lr_mult: 10
    decay_mult: 0
  }
  convolution_param {
    num_output: 64
    pad: 2
    kernel_size: 5
    weight_filler {
      type: "gaussian"
      std: 0.01
    }
    bias_filler {
      type: "constant"
    }
  }
}
layer {
  name: "relu5_stage1"
  type: "ReLU"
  bottom: "conv5_stage1"
  top: "conv5_stage1"
}
layer {
  name: "drop1_stage1"
  type: "Dropout"
  bottom: "conv5_stage1"
  top: "conv5_stage1"
  dropout_param {
    dropout_ratio: 0.5
  }
}
layer {
  name: "concat_conv5_stage1"
  type: "Concat"
  bottom: "pool3_stage1"
  bottom: "conv4_stage1"
  bottom: "conv5_stage1"
  top: "concat_conv5_stage1"
  concat_param {
    axis: 1
  }
}
layer {
  name: "conv6_stage1"
  type: "Convolution"
  bottom: "concat_conv5_stage1"
  top: "conv6_stage1"
  param {
    lr_mult: 5
    decay_mult: 1
  }
  param {
    lr_mult: 10
    decay_mult: 0
  }
  convolution_param {
    num_output: 64
    pad: 0
    kernel_size: 1
    weight_filler {
      type: "gaussian"
      std: 0.01
    }
    bias_filler {
      type: "constant"
    }
  }
}
layer {
  name: "relu6_stage1"
  type: "ReLU"
  bottom: "conv6_stage1"
  top: "conv6_stage1"
}
layer {
  name: "drop2_stage1"
  type: "Dropout"
  bottom: "conv6_stage1"
  top: "conv6_stage1"
  dropout_param {
    dropout_ratio: 0.5
  }
}
layer {
  name: "conv7_stage1"
  type: "Convolution"
  bottom: "conv6_stage1"
  top: "conv7_stage1"
  param {
    lr_mult: 5
    decay_mult: 1
  }
  param {
    lr_mult: 10
    decay_mult: 0
  }
  convolution_param {
    num_output: 13
    pad: 0
    kernel_size: 1
    weight_filler {
      type: "gaussian"
      std: 0.01
    }
    bias_filler {
      type: "constant"
    }
  }
}
layer {
  name: "loss_stage1"
  type: "EuclideanLoss"
  bottom: "conv7_stage1"
  bottom: "label_1st_lower"
  top: "loss_stage1"
}
layer {
  name: "concat_stage2"
  type: "Concat"
  bottom: "pool3_stage1"
  bottom: "conv7_stage1"
  bottom: "pool_image_lower"
  top: "concat_stage2"
  concat_param {
    axis: 1
  }
}
layer {
  name: "Mconv1_stage2"
  type: "Convolution"
  bottom: "concat_stage2"
  top: "Mconv1_stage2"
  param {
    lr_mult: 1
    decay_mult: 1
  }
  param {
    lr_mult: 2
    decay_mult: 0
  }
  convolution_param {
    num_output: 64
    pad: 2
    kernel_size: 5
    weight_filler {
      type: "gaussian"
      std: 0.01
    }
    bias_filler {
      type: "constant"
    }
  }
}
layer {
  name: "Mrelu1_stage2"
  type: "ReLU"
  bottom: "Mconv1_stage2"
  top: "Mconv1_stage2"
}
layer {
  name: "Mconv3_stage2"
  type: "Convolution"
  bottom: "Mconv1_stage2"
  top: "Mconv3_stage2"
  param {
    lr_mult: 1
    decay_mult: 1
  }
  param {
    lr_mult: 2
    decay_mult: 0
  }
  convolution_param {
    num_output: 64
    pad: 2
    kernel_size: 5
    weight_filler {
      type: "gaussian"
      std: 0.01
    }
    bias_filler {
      type: "constant"
    }
  }
}
layer {
  name: "Mrelu3_stage2"
  type: "ReLU"
  bottom: "Mconv3_stage2"
  top: "Mconv3_stage2"
}
layer {
  name: "concat_Mconv3_stage2"
  type: "Concat"
  bottom: "Mconv1_stage2"
  bottom: "Mconv3_stage2"
  top: "concat_Mconv3_stage2"
  concat_param {
    axis: 1
  }
}
layer {
  name: "Mconv4_stage2"
  type: "Convolution"
  bottom: "concat_Mconv3_stage2"
  top: "Mconv4_stage2"
  param {
    lr_mult: 1
    decay_mult: 1
  }
  param {
    lr_mult: 2
    decay_mult: 0
  }
  convolution_param {
    num_output: 64
    pad: 0
    kernel_size: 1
    weight_filler {
      type: "gaussian"
      std: 0.01
    }
    bias_filler {
      type: "constant"
    }
  }
}
layer {
  name: "Mrelu4_stage2"
  type: "ReLU"
  bottom: "Mconv4_stage2"
  top: "Mconv4_stage2"
}
layer {
  name: "Mconv5_stage2"
  type: "Convolution"
  bottom: "Mconv4_stage2"
  top: "Mconv5_stage2"
  param {
    lr_mult: 1
    decay_mult: 1
  }
  param {
    lr_mult: 2
    decay_mult: 0
  }
  convolution_param {
    num_output: 13
    pad: 0
    kernel_size: 1
    weight_filler {
      type: "gaussian"
      std: 0.01
    }
    bias_filler {
      type: "constant"
    }
  }
}
layer {
  name: "loss_stage2"
  type: "EuclideanLoss"
  bottom: "Mconv5_stage2"
  bottom: "label_lower"
  top: "loss_stage2"
}
layer {
  name: "concat_stage3"
  type: "Concat"
  bottom: "pool3_stage1"
  bottom: "Mconv5_stage2"
  bottom: "pool_image_lower"
  top: "concat_stage3"
  concat_param {
    axis: 1
  }
}
layer {
  name: "Mconv1_stage3"
  type: "Convolution"
  bottom: "concat_stage3"
  top: "Mconv1_stage3"
  param {
    lr_mult: 1
    decay_mult: 1
  }
  param {
    lr_mult: 2
    decay_mult: 0
  }
  convolution_param {
    num_output: 64
    pad: 2
    kernel_size: 5
    weight_filler {
      type: "gaussian"
      std: 0.01
    }
    bias_filler {
      type: "constant"
    }
  }
}
layer {
  name: "Mrelu1_stage3"
  type: "ReLU"
  bottom: "Mconv1_stage3"
  top: "Mconv1_stage3"
}
layer {
  name: "Mconv3_stage3"
  type: "Convolution"
  bottom: "Mconv1_stage3"
  top: "Mconv3_stage3"
  param {
    lr_mult: 1
    decay_mult: 1
  }
  param {
    lr_mult: 2
    decay_mult: 0
  }
  convolution_param {
    num_output: 64
    pad: 2
    kernel_size: 5
    weight_filler {
      type: "gaussian"
      std: 0.01
    }
    bias_filler {
      type: "constant"
    }
  }
}
layer {
  name: "Mrelu3_stage3"
  type: "ReLU"
  bottom: "Mconv3_stage3"
  top: "Mconv3_stage3"
}
layer {
  name: "concat_Mconv3_stage3"
  type: "Concat"
  bottom: "Mconv1_stage3"
  bottom: "Mconv3_stage3"
  top: "concat_Mconv3_stage3"
  concat_param {
    axis: 1
  }
}
layer {
  name: "Mconv4_stage3"
  type: "Convolution"
  bottom: "concat_Mconv3_stage3"
  top: "Mconv4_stage3"
  param {
    lr_mult: 1
    decay_mult: 1
  }
  param {
    lr_mult: 2
    decay_mult: 0
  }
  convolution_param {
    num_output: 64
    pad: 0
    kernel_size: 1
    weight_filler {
      type: "gaussian"
      std: 0.01
    }
    bias_filler {
      type: "constant"
    }
  }
}
layer {
  name: "Mrelu4_stage3"
  type: "ReLU"
  bottom: "Mconv4_stage3"
  top: "Mconv4_stage3"
}
layer {
  name: "Mconv5_stage3"
  type: "Convolution"
  bottom: "Mconv4_stage3"
  top: "Mconv5_stage3"
  param {
    lr_mult: 1
    decay_mult: 1
  }
  param {
    lr_mult: 2
    decay_mult: 0
  }
  convolution_param {
    num_output: 13
    pad: 0
    kernel_size: 1
    weight_filler {
      type: "gaussian"
      std: 0.01
    }
    bias_filler {
      type: "constant"
    }
  }
}
layer {
  name: "loss_stage3"
  type: "EuclideanLoss"
  bottom: "Mconv5_stage3"
  bottom: "label_lower"
  top: "loss_stage3"
}
layer {
  name: "concat_stage4"
  type: "Concat"
  bottom: "pool3_stage1"
  bottom: "Mconv5_stage3"
  bottom: "pool_image_lower"
  top: "concat_stage4"
  concat_param {
    axis: 1
  }
}
layer {
  name: "Mconv1_stage4"
  type: "Convolution"
  bottom: "concat_stage4"
  top: "Mconv1_stage4"
  param {
    lr_mult: 1
    decay_mult: 1
  }
  param {
    lr_mult: 2
    decay_mult: 0
  }
  convolution_param {
    num_output: 64
    pad: 2
    kernel_size: 5
    weight_filler {
      type: "gaussian"
      std: 0.01
    }
    bias_filler {
      type: "constant"
    }
  }
}
layer {
  name: "Mrelu1_stage4"
  type: "ReLU"
  bottom: "Mconv1_stage4"
  top: "Mconv1_stage4"
}
layer {
  name: "Mconv3_stage4"
  type: "Convolution"
  bottom: "Mconv1_stage4"
  top: "Mconv3_stage4"
  param {
    lr_mult: 1
    decay_mult: 1
  }
  param {
    lr_mult: 2
    decay_mult: 0
  }
  convolution_param {
    num_output: 64
    pad: 2
    kernel_size: 5
    weight_filler {
      type: "gaussian"
      std: 0.01
    }
    bias_filler {
      type: "constant"
    }
  }
}
layer {
  name: "Mrelu3_stage4"
  type: "ReLU"
  bottom: "Mconv3_stage4"
  top: "Mconv3_stage4"
}
layer {
  name: "concat_Mconv3_stage4"
  type: "Concat"
  bottom: "Mconv1_stage4"
  bottom: "Mconv3_stage4"
  top: "concat_Mconv3_stage4"
  concat_param {
    axis: 1
  }
}
layer {
  name: "Mconv4_stage4"
  type: "Convolution"
  bottom: "concat_Mconv3_stage4"
  top: "Mconv4_stage4"
  param {
    lr_mult: 1
    decay_mult: 1
  }
  param {
    lr_mult: 2
    decay_mult: 0
  }
  convolution_param {
    num_output: 64
    pad: 0
    kernel_size: 1
    weight_filler {
      type: "gaussian"
      std: 0.01
    }
    bias_filler {
      type: "constant"
    }
  }
}
layer {
  name: "Mrelu4_stage4"
  type: "ReLU"
  bottom: "Mconv4_stage4"
  top: "Mconv4_stage4"
}
layer {
  name: "Mconv5_stage4"
  type: "Convolution"
  bottom: "Mconv4_stage4"
  top: "Mconv5_stage4"
  param {
    lr_mult: 1
    decay_mult: 1
  }
  param {
    lr_mult: 2
    decay_mult: 0
  }
  convolution_param {
    num_output: 13
    pad: 0
    kernel_size: 1
    weight_filler {
      type: "gaussian"
      std: 0.01
    }
    bias_filler {
      type: "constant"
    }
  }
}
layer {
  name: "loss_stage4"
  type: "EuclideanLoss"
  bottom: "Mconv5_stage4"
  bottom: "label_lower"
  top: "loss_stage4"
}
I1125 18:24:55.362099 31568 layer_factory.hpp:77] Creating layer data
I1125 18:24:55.362099 31568 common.cpp:36] System entropy source not available, using fallback algorithm to generate seed instead.
I1125 18:24:55.363106 31568 net.cpp:100] Creating Layer data
I1125 18:24:55.363106 31568 net.cpp:418] data -> image
I1125 18:24:55.363106 31568 net.cpp:418] data -> label
I1125 18:24:55.363106 31568 data_transformer.cpp:260] DataTransformer constructor done.
I1125 18:24:55.366096 31208 common.cpp:36] System entropy source not available, using fallback algorithm to generate seed instead.
I1125 18:24:55.372090 31208 db_lmdb.cpp:40] Opened lmdb D:/deeplearning/trainingdata/AllData/lmdb/New2
I1125 18:24:55.412055 31568 cpm_data_layer.cpp:62] output data size: 16,1,96,96
I1125 18:24:55.412055 31568 cpm_data_layer.cpp:77] output label size: 16,26,24,24
I1125 18:24:55.417049 31568 net.cpp:150] Setting up data
I1125 18:24:55.417049 31568 net.cpp:157] Top shape: 16 1 96 96 (147456)
I1125 18:24:55.417049 31568 net.cpp:157] Top shape: 16 26 24 24 (239616)
I1125 18:24:55.417049 31568 net.cpp:165] Memory required for data: 1548288
I1125 18:24:55.417049 31568 layer_factory.hpp:77] Creating layer image_data_0_split
I1125 18:24:55.417049 31568 net.cpp:100] Creating Layer image_data_0_split
I1125 18:24:55.418048 31568 net.cpp:444] image_data_0_split <- image
I1125 18:24:55.418048 31568 net.cpp:418] image_data_0_split -> image_data_0_split_0
I1125 18:24:55.418048 31568 net.cpp:418] image_data_0_split -> image_data_0_split_1
I1125 18:24:55.418048 31568 net.cpp:150] Setting up image_data_0_split
I1125 18:24:55.418048 31568 net.cpp:157] Top shape: 16 1 96 96 (147456)
I1125 18:24:55.418048 31568 net.cpp:157] Top shape: 16 1 96 96 (147456)
I1125 18:24:55.418048 31568 net.cpp:165] Memory required for data: 2727936
I1125 18:24:55.418048 31568 layer_factory.hpp:77] Creating layer label_lower
I1125 18:24:55.418048 31568 net.cpp:100] Creating Layer label_lower
I1125 18:24:55.418048 31568 net.cpp:444] label_lower <- label
I1125 18:24:55.418048 32604 common.cpp:36] System entropy source not available, using fallback algorithm to generate seed instead.
I1125 18:24:55.418048 31568 net.cpp:418] label_lower -> label_lower
I1125 18:24:55.419049 31568 net.cpp:418] label_lower -> label_1st_lower
I1125 18:24:55.419049 31568 net.cpp:150] Setting up label_lower
I1125 18:24:55.419049 31568 net.cpp:157] Top shape: 16 13 24 24 (119808)
I1125 18:24:55.419049 31568 net.cpp:157] Top shape: 16 13 24 24 (119808)
I1125 18:24:55.419049 31568 net.cpp:165] Memory required for data: 3686400
I1125 18:24:55.419049 31568 layer_factory.hpp:77] Creating layer label_lower_label_lower_0_split
I1125 18:24:55.419049 31568 net.cpp:100] Creating Layer label_lower_label_lower_0_split
I1125 18:24:55.419049 31568 net.cpp:444] label_lower_label_lower_0_split <- label_lower
I1125 18:24:55.419049 31568 net.cpp:418] label_lower_label_lower_0_split -> label_lower_label_lower_0_split_0
I1125 18:24:55.419049 31568 net.cpp:418] label_lower_label_lower_0_split -> label_lower_label_lower_0_split_1
I1125 18:24:55.419049 31568 net.cpp:418] label_lower_label_lower_0_split -> label_lower_label_lower_0_split_2
I1125 18:24:55.420047 32604 data_transformer.cpp:71] dataset: Depth; img_size: [512 x 384]; meta.annolist_index: 3828; meta.write_number: 0; meta.total_write_number: 14444; meta.epoch: 0
I1125 18:24:55.420047 31568 net.cpp:150] Setting up label_lower_label_lower_0_split
I1125 18:24:55.420047 31568 net.cpp:157] Top shape: 16 13 24 24 (119808)
I1125 18:24:55.420047 31568 net.cpp:157] Top shape: 16 13 24 24 (119808)
I1125 18:24:55.420047 31568 net.cpp:157] Top shape: 16 13 24 24 (119808)
I1125 18:24:55.420047 31568 net.cpp:165] Memory required for data: 5124096
I1125 18:24:55.420047 31568 layer_factory.hpp:77] Creating layer pool_image_lower
I1125 18:24:55.420047 31568 net.cpp:100] Creating Layer pool_image_lower
I1125 18:24:55.420047 31568 net.cpp:444] pool_image_lower <- image_data_0_split_0
I1125 18:24:55.420047 31568 net.cpp:418] pool_image_lower -> pool_image_lower
I1125 18:24:55.716784 31568 net.cpp:150] Setting up pool_image_lower
I1125 18:24:55.717795 31568 net.cpp:157] Top shape: 16 1 24 24 (9216)
I1125 18:24:55.717795 31568 net.cpp:165] Memory required for data: 5160960
I1125 18:24:55.717795 31568 layer_factory.hpp:77] Creating layer pool_image_lower_pool_image_lower_0_split
I1125 18:24:55.717795 31568 net.cpp:100] Creating Layer pool_image_lower_pool_image_lower_0_split
I1125 18:24:55.717795 31568 net.cpp:444] pool_image_lower_pool_image_lower_0_split <- pool_image_lower
I1125 18:24:55.717795 31568 net.cpp:418] pool_image_lower_pool_image_lower_0_split -> pool_image_lower_pool_image_lower_0_split_0
I1125 18:24:55.717795 31568 net.cpp:418] pool_image_lower_pool_image_lower_0_split -> pool_image_lower_pool_image_lower_0_split_1
I1125 18:24:55.718780 31568 net.cpp:418] pool_image_lower_pool_image_lower_0_split -> pool_image_lower_pool_image_lower_0_split_2
I1125 18:24:55.718780 31568 net.cpp:150] Setting up pool_image_lower_pool_image_lower_0_split
I1125 18:24:55.718780 31568 net.cpp:157] Top shape: 16 1 24 24 (9216)
I1125 18:24:55.718780 31568 net.cpp:157] Top shape: 16 1 24 24 (9216)
I1125 18:24:55.718780 31568 net.cpp:157] Top shape: 16 1 24 24 (9216)
I1125 18:24:55.718780 31568 net.cpp:165] Memory required for data: 5271552
I1125 18:24:55.718780 31568 layer_factory.hpp:77] Creating layer conv2_stage1
I1125 18:24:55.719780 31568 net.cpp:100] Creating Layer conv2_stage1
I1125 18:24:55.719780 31568 net.cpp:444] conv2_stage1 <- image_data_0_split_1
I1125 18:24:55.719780 31568 net.cpp:418] conv2_stage1 -> conv2_stage1
I1125 18:24:55.722780 31568 net.cpp:150] Setting up conv2_stage1
I1125 18:24:55.722780 31568 net.cpp:157] Top shape: 16 128 96 96 (18874368)
I1125 18:24:55.722780 31568 net.cpp:165] Memory required for data: 80769024
I1125 18:24:55.722780 31568 layer_factory.hpp:77] Creating layer relu2_stage1
I1125 18:24:55.722780 31568 net.cpp:100] Creating Layer relu2_stage1
I1125 18:24:55.722780 31568 net.cpp:444] relu2_stage1 <- conv2_stage1
I1125 18:24:55.723779 31568 net.cpp:405] relu2_stage1 -> conv2_stage1 (in-place)
I1125 18:24:55.724778 31568 net.cpp:150] Setting up relu2_stage1
I1125 18:24:55.724778 31568 net.cpp:157] Top shape: 16 128 96 96 (18874368)
I1125 18:24:55.724778 31568 net.cpp:165] Memory required for data: 156266496
I1125 18:24:55.724778 31568 layer_factory.hpp:77] Creating layer pool2_stage1
I1125 18:24:55.724778 31568 net.cpp:100] Creating Layer pool2_stage1
I1125 18:24:55.725775 31568 net.cpp:444] pool2_stage1 <- conv2_stage1
I1125 18:24:55.725775 31568 net.cpp:418] pool2_stage1 -> pool2_stage1
I1125 18:24:55.725775 31568 net.cpp:150] Setting up pool2_stage1
I1125 18:24:55.725775 31568 net.cpp:157] Top shape: 16 128 48 48 (4718592)
I1125 18:24:55.725775 31568 net.cpp:165] Memory required for data: 175140864
I1125 18:24:55.725775 31568 layer_factory.hpp:77] Creating layer conv3_stage1
I1125 18:24:55.725775 31568 net.cpp:100] Creating Layer conv3_stage1
I1125 18:24:55.725775 31568 net.cpp:444] conv3_stage1 <- pool2_stage1
I1125 18:24:55.725775 31568 net.cpp:418] conv3_stage1 -> conv3_stage1
I1125 18:24:55.746757 31568 net.cpp:150] Setting up conv3_stage1
I1125 18:24:55.747756 31568 net.cpp:157] Top shape: 16 128 48 48 (4718592)
I1125 18:24:55.747756 31568 net.cpp:165] Memory required for data: 194015232
I1125 18:24:55.747756 31568 layer_factory.hpp:77] Creating layer relu3_stage1
I1125 18:24:55.747756 31568 net.cpp:100] Creating Layer relu3_stage1
I1125 18:24:55.747756 31568 net.cpp:444] relu3_stage1 <- conv3_stage1
I1125 18:24:55.748754 31568 net.cpp:405] relu3_stage1 -> conv3_stage1 (in-place)
I1125 18:24:55.748754 31568 net.cpp:150] Setting up relu3_stage1
I1125 18:24:55.748754 31568 net.cpp:157] Top shape: 16 128 48 48 (4718592)
I1125 18:24:55.748754 31568 net.cpp:165] Memory required for data: 212889600
I1125 18:24:55.748754 31568 layer_factory.hpp:77] Creating layer pool3_stage1
I1125 18:24:55.749759 31568 net.cpp:100] Creating Layer pool3_stage1
I1125 18:24:55.749759 31568 net.cpp:444] pool3_stage1 <- conv3_stage1
I1125 18:24:55.749759 31568 net.cpp:418] pool3_stage1 -> pool3_stage1
I1125 18:24:55.749759 31568 net.cpp:150] Setting up pool3_stage1
I1125 18:24:55.749759 31568 net.cpp:157] Top shape: 16 128 24 24 (1179648)
I1125 18:24:55.750752 31568 net.cpp:165] Memory required for data: 217608192
I1125 18:24:55.750752 31568 layer_factory.hpp:77] Creating layer pool3_stage1_pool3_stage1_0_split
I1125 18:24:55.750752 31568 net.cpp:100] Creating Layer pool3_stage1_pool3_stage1_0_split
I1125 18:24:55.750752 31568 net.cpp:444] pool3_stage1_pool3_stage1_0_split <- pool3_stage1
I1125 18:24:55.750752 31568 net.cpp:418] pool3_stage1_pool3_stage1_0_split -> pool3_stage1_pool3_stage1_0_split_0
I1125 18:24:55.750752 31568 net.cpp:418] pool3_stage1_pool3_stage1_0_split -> pool3_stage1_pool3_stage1_0_split_1
I1125 18:24:55.750752 31568 net.cpp:418] pool3_stage1_pool3_stage1_0_split -> pool3_stage1_pool3_stage1_0_split_2
I1125 18:24:55.751756 31568 net.cpp:418] pool3_stage1_pool3_stage1_0_split -> pool3_stage1_pool3_stage1_0_split_3
I1125 18:24:55.751756 31568 net.cpp:418] pool3_stage1_pool3_stage1_0_split -> pool3_stage1_pool3_stage1_0_split_4
I1125 18:24:55.751756 31568 net.cpp:150] Setting up pool3_stage1_pool3_stage1_0_split
I1125 18:24:55.751756 31568 net.cpp:157] Top shape: 16 128 24 24 (1179648)
I1125 18:24:55.751756 31568 net.cpp:157] Top shape: 16 128 24 24 (1179648)
I1125 18:24:55.751756 31568 net.cpp:157] Top shape: 16 128 24 24 (1179648)
I1125 18:24:55.752751 31568 net.cpp:157] Top shape: 16 128 24 24 (1179648)
I1125 18:24:55.752751 31568 net.cpp:157] Top shape: 16 128 24 24 (1179648)
I1125 18:24:55.752751 31568 net.cpp:165] Memory required for data: 241201152
I1125 18:24:55.752751 31568 layer_factory.hpp:77] Creating layer conv4_stage1
I1125 18:24:55.752751 31568 net.cpp:100] Creating Layer conv4_stage1
I1125 18:24:55.752751 31568 net.cpp:444] conv4_stage1 <- pool3_stage1_pool3_stage1_0_split_0
I1125 18:24:55.753763 31568 net.cpp:418] conv4_stage1 -> conv4_stage1
I1125 18:24:55.760743 31568 net.cpp:150] Setting up conv4_stage1
I1125 18:24:55.760743 31568 net.cpp:157] Top shape: 16 64 24 24 (589824)
I1125 18:24:55.760743 31568 net.cpp:165] Memory required for data: 243560448
I1125 18:24:55.760743 31568 layer_factory.hpp:77] Creating layer relu4_stage1
I1125 18:24:55.761744 31568 net.cpp:100] Creating Layer relu4_stage1
I1125 18:24:55.761744 31568 net.cpp:444] relu4_stage1 <- conv4_stage1
I1125 18:24:55.761744 31568 net.cpp:405] relu4_stage1 -> conv4_stage1 (in-place)
I1125 18:24:55.761744 31568 net.cpp:150] Setting up relu4_stage1
I1125 18:24:55.761744 31568 net.cpp:157] Top shape: 16 64 24 24 (589824)
I1125 18:24:55.761744 31568 net.cpp:165] Memory required for data: 245919744
I1125 18:24:55.761744 31568 layer_factory.hpp:77] Creating layer conv4_stage1_relu4_stage1_0_split
I1125 18:24:55.762748 31568 net.cpp:100] Creating Layer conv4_stage1_relu4_stage1_0_split
I1125 18:24:55.762748 31568 net.cpp:444] conv4_stage1_relu4_stage1_0_split <- conv4_stage1
I1125 18:24:55.762748 31568 net.cpp:418] conv4_stage1_relu4_stage1_0_split -> conv4_stage1_relu4_stage1_0_split_0
I1125 18:24:55.762748 31568 net.cpp:418] conv4_stage1_relu4_stage1_0_split -> conv4_stage1_relu4_stage1_0_split_1
I1125 18:24:55.762748 31568 net.cpp:150] Setting up conv4_stage1_relu4_stage1_0_split
I1125 18:24:55.762748 31568 net.cpp:157] Top shape: 16 64 24 24 (589824)
I1125 18:24:55.762748 31568 net.cpp:157] Top shape: 16 64 24 24 (589824)
I1125 18:24:55.762748 31568 net.cpp:165] Memory required for data: 250638336
I1125 18:24:55.763742 31568 layer_factory.hpp:77] Creating layer conv5_stage1
I1125 18:24:55.763742 31568 net.cpp:100] Creating Layer conv5_stage1
I1125 18:24:55.763742 31568 net.cpp:444] conv5_stage1 <- conv4_stage1_relu4_stage1_0_split_0
I1125 18:24:55.763742 31568 net.cpp:418] conv5_stage1 -> conv5_stage1
I1125 18:24:55.766738 31568 net.cpp:150] Setting up conv5_stage1
I1125 18:24:55.766738 31568 net.cpp:157] Top shape: 16 64 24 24 (589824)
I1125 18:24:55.766738 31568 net.cpp:165] Memory required for data: 252997632
I1125 18:24:55.766738 31568 layer_factory.hpp:77] Creating layer relu5_stage1
I1125 18:24:55.766738 31568 net.cpp:100] Creating Layer relu5_stage1
I1125 18:24:55.766738 31568 net.cpp:444] relu5_stage1 <- conv5_stage1
I1125 18:24:55.766738 31568 net.cpp:405] relu5_stage1 -> conv5_stage1 (in-place)
I1125 18:24:55.767737 31568 net.cpp:150] Setting up relu5_stage1
I1125 18:24:55.769737 31568 net.cpp:157] Top shape: 16 64 24 24 (589824)
I1125 18:24:55.769737 31568 net.cpp:165] Memory required for data: 255356928
I1125 18:24:55.769737 31568 layer_factory.hpp:77] Creating layer drop1_stage1
I1125 18:24:55.769737 31568 net.cpp:100] Creating Layer drop1_stage1
I1125 18:24:55.770735 31568 net.cpp:444] drop1_stage1 <- conv5_stage1
I1125 18:24:55.770735 31568 net.cpp:405] drop1_stage1 -> conv5_stage1 (in-place)
I1125 18:24:55.770735 31568 net.cpp:150] Setting up drop1_stage1
I1125 18:24:55.770735 31568 net.cpp:157] Top shape: 16 64 24 24 (589824)
I1125 18:24:55.770735 31568 net.cpp:165] Memory required for data: 257716224
I1125 18:24:55.770735 31568 layer_factory.hpp:77] Creating layer concat_conv5_stage1
I1125 18:24:55.770735 31568 net.cpp:100] Creating Layer concat_conv5_stage1
I1125 18:24:55.770735 31568 net.cpp:444] concat_conv5_stage1 <- pool3_stage1_pool3_stage1_0_split_1
I1125 18:24:55.770735 31568 net.cpp:444] concat_conv5_stage1 <- conv4_stage1_relu4_stage1_0_split_1
I1125 18:24:55.770735 31568 net.cpp:444] concat_conv5_stage1 <- conv5_stage1
I1125 18:24:55.770735 31568 net.cpp:418] concat_conv5_stage1 -> concat_conv5_stage1
I1125 18:24:55.771733 31568 net.cpp:150] Setting up concat_conv5_stage1
I1125 18:24:55.771733 31568 net.cpp:157] Top shape: 16 256 24 24 (2359296)
I1125 18:24:55.771733 31568 net.cpp:165] Memory required for data: 267153408
I1125 18:24:55.771733 31568 layer_factory.hpp:77] Creating layer conv6_stage1
I1125 18:24:55.771733 31568 net.cpp:100] Creating Layer conv6_stage1
I1125 18:24:55.771733 31568 net.cpp:444] conv6_stage1 <- concat_conv5_stage1
I1125 18:24:55.771733 31568 net.cpp:418] conv6_stage1 -> conv6_stage1
I1125 18:24:55.773732 31568 net.cpp:150] Setting up conv6_stage1
I1125 18:24:55.773732 31568 net.cpp:157] Top shape: 16 64 24 24 (589824)
I1125 18:24:55.773732 31568 net.cpp:165] Memory required for data: 269512704
I1125 18:24:55.773732 31568 layer_factory.hpp:77] Creating layer relu6_stage1
I1125 18:24:55.773732 31568 net.cpp:100] Creating Layer relu6_stage1
I1125 18:24:55.773732 31568 net.cpp:444] relu6_stage1 <- conv6_stage1
I1125 18:24:55.773732 31568 net.cpp:405] relu6_stage1 -> conv6_stage1 (in-place)
I1125 18:24:55.774731 31568 net.cpp:150] Setting up relu6_stage1
I1125 18:24:55.774731 31568 net.cpp:157] Top shape: 16 64 24 24 (589824)
I1125 18:24:55.774731 31568 net.cpp:165] Memory required for data: 271872000
I1125 18:24:55.774731 31568 layer_factory.hpp:77] Creating layer drop2_stage1
I1125 18:24:55.774731 31568 net.cpp:100] Creating Layer drop2_stage1
I1125 18:24:55.774731 31568 net.cpp:444] drop2_stage1 <- conv6_stage1
I1125 18:24:55.774731 31568 net.cpp:405] drop2_stage1 -> conv6_stage1 (in-place)
I1125 18:24:55.775732 31568 net.cpp:150] Setting up drop2_stage1
I1125 18:24:55.775732 31568 net.cpp:157] Top shape: 16 64 24 24 (589824)
I1125 18:24:55.775732 31568 net.cpp:165] Memory required for data: 274231296
I1125 18:24:55.775732 31568 layer_factory.hpp:77] Creating layer conv7_stage1
I1125 18:24:55.775732 31568 net.cpp:100] Creating Layer conv7_stage1
I1125 18:24:55.775732 31568 net.cpp:444] conv7_stage1 <- conv6_stage1
I1125 18:24:55.775732 31568 net.cpp:418] conv7_stage1 -> conv7_stage1
I1125 18:24:55.777729 31568 net.cpp:150] Setting up conv7_stage1
I1125 18:24:55.777729 31568 net.cpp:157] Top shape: 16 13 24 24 (119808)
I1125 18:24:55.777729 31568 net.cpp:165] Memory required for data: 274710528
I1125 18:24:55.777729 31568 layer_factory.hpp:77] Creating layer conv7_stage1_conv7_stage1_0_split
I1125 18:24:55.778728 31568 net.cpp:100] Creating Layer conv7_stage1_conv7_stage1_0_split
I1125 18:24:55.780725 31568 net.cpp:444] conv7_stage1_conv7_stage1_0_split <- conv7_stage1
I1125 18:24:55.780725 31568 net.cpp:418] conv7_stage1_conv7_stage1_0_split -> conv7_stage1_conv7_stage1_0_split_0
I1125 18:24:55.780725 31568 net.cpp:418] conv7_stage1_conv7_stage1_0_split -> conv7_stage1_conv7_stage1_0_split_1
I1125 18:24:55.780725 31568 net.cpp:150] Setting up conv7_stage1_conv7_stage1_0_split
I1125 18:24:55.780725 31568 net.cpp:157] Top shape: 16 13 24 24 (119808)
I1125 18:24:55.780725 31568 net.cpp:157] Top shape: 16 13 24 24 (119808)
I1125 18:24:55.781725 31568 net.cpp:165] Memory required for data: 275668992
I1125 18:24:55.781725 31568 layer_factory.hpp:77] Creating layer loss_stage1
I1125 18:24:55.781725 31568 net.cpp:100] Creating Layer loss_stage1
I1125 18:24:55.781725 31568 net.cpp:444] loss_stage1 <- conv7_stage1_conv7_stage1_0_split_0
I1125 18:24:55.781725 31568 net.cpp:444] loss_stage1 <- label_1st_lower
I1125 18:24:55.781725 31568 net.cpp:418] loss_stage1 -> loss_stage1
I1125 18:24:55.781725 31568 net.cpp:150] Setting up loss_stage1
I1125 18:24:55.781725 31568 net.cpp:157] Top shape: (1)
I1125 18:24:55.781725 31568 net.cpp:160]     with loss weight 1
I1125 18:24:55.781725 31568 net.cpp:165] Memory required for data: 275668996
I1125 18:24:55.781725 31568 layer_factory.hpp:77] Creating layer concat_stage2
I1125 18:24:55.782724 31568 net.cpp:100] Creating Layer concat_stage2
I1125 18:24:55.782724 31568 net.cpp:444] concat_stage2 <- pool3_stage1_pool3_stage1_0_split_2
I1125 18:24:55.782724 31568 net.cpp:444] concat_stage2 <- conv7_stage1_conv7_stage1_0_split_1
I1125 18:24:55.782724 31568 net.cpp:444] concat_stage2 <- pool_image_lower_pool_image_lower_0_split_0
I1125 18:24:55.782724 31568 net.cpp:418] concat_stage2 -> concat_stage2
I1125 18:24:55.782724 31568 net.cpp:150] Setting up concat_stage2
I1125 18:24:55.782724 31568 net.cpp:157] Top shape: 16 142 24 24 (1308672)
I1125 18:24:55.782724 31568 net.cpp:165] Memory required for data: 280903684
I1125 18:24:55.782724 31568 layer_factory.hpp:77] Creating layer Mconv1_stage2
I1125 18:24:55.782724 31568 net.cpp:100] Creating Layer Mconv1_stage2
I1125 18:24:55.782724 31568 net.cpp:444] Mconv1_stage2 <- concat_stage2
I1125 18:24:55.782724 31568 net.cpp:418] Mconv1_stage2 -> Mconv1_stage2
I1125 18:24:55.788722 31568 net.cpp:150] Setting up Mconv1_stage2
I1125 18:24:55.788722 31568 net.cpp:157] Top shape: 16 64 24 24 (589824)
I1125 18:24:55.790717 31568 net.cpp:165] Memory required for data: 283262980
I1125 18:24:55.790717 31568 layer_factory.hpp:77] Creating layer Mrelu1_stage2
I1125 18:24:55.790717 31568 net.cpp:100] Creating Layer Mrelu1_stage2
I1125 18:24:55.791716 31568 net.cpp:444] Mrelu1_stage2 <- Mconv1_stage2
I1125 18:24:55.791716 31568 net.cpp:405] Mrelu1_stage2 -> Mconv1_stage2 (in-place)
I1125 18:24:55.791716 31568 net.cpp:150] Setting up Mrelu1_stage2
I1125 18:24:55.791716 31568 net.cpp:157] Top shape: 16 64 24 24 (589824)
I1125 18:24:55.791716 31568 net.cpp:165] Memory required for data: 285622276
I1125 18:24:55.791716 31568 layer_factory.hpp:77] Creating layer Mconv1_stage2_Mrelu1_stage2_0_split
I1125 18:24:55.791716 31568 net.cpp:100] Creating Layer Mconv1_stage2_Mrelu1_stage2_0_split
I1125 18:24:55.791716 31568 net.cpp:444] Mconv1_stage2_Mrelu1_stage2_0_split <- Mconv1_stage2
I1125 18:24:55.792716 31568 net.cpp:418] Mconv1_stage2_Mrelu1_stage2_0_split -> Mconv1_stage2_Mrelu1_stage2_0_split_0
I1125 18:24:55.792716 31568 net.cpp:418] Mconv1_stage2_Mrelu1_stage2_0_split -> Mconv1_stage2_Mrelu1_stage2_0_split_1
I1125 18:24:55.792716 31568 net.cpp:150] Setting up Mconv1_stage2_Mrelu1_stage2_0_split
I1125 18:24:55.792716 31568 net.cpp:157] Top shape: 16 64 24 24 (589824)
I1125 18:24:55.792716 31568 net.cpp:157] Top shape: 16 64 24 24 (589824)
I1125 18:24:55.792716 31568 net.cpp:165] Memory required for data: 290340868
I1125 18:24:55.792716 31568 layer_factory.hpp:77] Creating layer Mconv3_stage2
I1125 18:24:55.792716 31568 net.cpp:100] Creating Layer Mconv3_stage2
I1125 18:24:55.792716 31568 net.cpp:444] Mconv3_stage2 <- Mconv1_stage2_Mrelu1_stage2_0_split_0
I1125 18:24:55.792716 31568 net.cpp:418] Mconv3_stage2 -> Mconv3_stage2
I1125 18:24:55.795712 31568 net.cpp:150] Setting up Mconv3_stage2
I1125 18:24:55.795712 31568 net.cpp:157] Top shape: 16 64 24 24 (589824)
I1125 18:24:55.795712 31568 net.cpp:165] Memory required for data: 292700164
I1125 18:24:55.796711 31568 layer_factory.hpp:77] Creating layer Mrelu3_stage2
I1125 18:24:55.796711 31568 net.cpp:100] Creating Layer Mrelu3_stage2
I1125 18:24:55.796711 31568 net.cpp:444] Mrelu3_stage2 <- Mconv3_stage2
I1125 18:24:55.796711 31568 net.cpp:405] Mrelu3_stage2 -> Mconv3_stage2 (in-place)
I1125 18:24:55.797710 31568 net.cpp:150] Setting up Mrelu3_stage2
I1125 18:24:55.797710 31568 net.cpp:157] Top shape: 16 64 24 24 (589824)
I1125 18:24:55.797710 31568 net.cpp:165] Memory required for data: 295059460
I1125 18:24:55.797710 31568 layer_factory.hpp:77] Creating layer concat_Mconv3_stage2
I1125 18:24:55.797710 31568 net.cpp:100] Creating Layer concat_Mconv3_stage2
I1125 18:24:55.797710 31568 net.cpp:444] concat_Mconv3_stage2 <- Mconv1_stage2_Mrelu1_stage2_0_split_1
I1125 18:24:55.797710 31568 net.cpp:444] concat_Mconv3_stage2 <- Mconv3_stage2
I1125 18:24:55.797710 31568 net.cpp:418] concat_Mconv3_stage2 -> concat_Mconv3_stage2
I1125 18:24:55.797710 31568 net.cpp:150] Setting up concat_Mconv3_stage2
I1125 18:24:55.798710 31568 net.cpp:157] Top shape: 16 128 24 24 (1179648)
I1125 18:24:55.798710 31568 net.cpp:165] Memory required for data: 299778052
I1125 18:24:55.798710 31568 layer_factory.hpp:77] Creating layer Mconv4_stage2
I1125 18:24:55.798710 31568 net.cpp:100] Creating Layer Mconv4_stage2
I1125 18:24:55.798710 31568 net.cpp:444] Mconv4_stage2 <- concat_Mconv3_stage2
I1125 18:24:55.798710 31568 net.cpp:418] Mconv4_stage2 -> Mconv4_stage2
I1125 18:24:55.800707 31568 net.cpp:150] Setting up Mconv4_stage2
I1125 18:24:55.801707 31568 net.cpp:157] Top shape: 16 64 24 24 (589824)
I1125 18:24:55.801707 31568 net.cpp:165] Memory required for data: 302137348
I1125 18:24:55.801707 31568 layer_factory.hpp:77] Creating layer Mrelu4_stage2
I1125 18:24:55.801707 31568 net.cpp:100] Creating Layer Mrelu4_stage2
I1125 18:24:55.801707 31568 net.cpp:444] Mrelu4_stage2 <- Mconv4_stage2
I1125 18:24:55.801707 31568 net.cpp:405] Mrelu4_stage2 -> Mconv4_stage2 (in-place)
I1125 18:24:55.802707 31568 net.cpp:150] Setting up Mrelu4_stage2
I1125 18:24:55.802707 31568 net.cpp:157] Top shape: 16 64 24 24 (589824)
I1125 18:24:55.802707 31568 net.cpp:165] Memory required for data: 304496644
I1125 18:24:55.803705 31568 layer_factory.hpp:77] Creating layer Mconv5_stage2
I1125 18:24:55.803705 31568 net.cpp:100] Creating Layer Mconv5_stage2
I1125 18:24:55.803705 31568 net.cpp:444] Mconv5_stage2 <- Mconv4_stage2
I1125 18:24:55.803705 31568 net.cpp:418] Mconv5_stage2 -> Mconv5_stage2
I1125 18:24:55.805704 31568 net.cpp:150] Setting up Mconv5_stage2
I1125 18:24:55.805704 31568 net.cpp:157] Top shape: 16 13 24 24 (119808)
I1125 18:24:55.805704 31568 net.cpp:165] Memory required for data: 304975876
I1125 18:24:55.805704 31568 layer_factory.hpp:77] Creating layer Mconv5_stage2_Mconv5_stage2_0_split
I1125 18:24:55.806704 31568 net.cpp:100] Creating Layer Mconv5_stage2_Mconv5_stage2_0_split
I1125 18:24:55.806704 31568 net.cpp:444] Mconv5_stage2_Mconv5_stage2_0_split <- Mconv5_stage2
I1125 18:24:55.806704 31568 net.cpp:418] Mconv5_stage2_Mconv5_stage2_0_split -> Mconv5_stage2_Mconv5_stage2_0_split_0
I1125 18:24:55.806704 31568 net.cpp:418] Mconv5_stage2_Mconv5_stage2_0_split -> Mconv5_stage2_Mconv5_stage2_0_split_1
I1125 18:24:55.806704 31568 net.cpp:150] Setting up Mconv5_stage2_Mconv5_stage2_0_split
I1125 18:24:55.806704 31568 net.cpp:157] Top shape: 16 13 24 24 (119808)
I1125 18:24:55.806704 31568 net.cpp:157] Top shape: 16 13 24 24 (119808)
I1125 18:24:55.806704 31568 net.cpp:165] Memory required for data: 305934340
I1125 18:24:55.806704 31568 layer_factory.hpp:77] Creating layer loss_stage2
I1125 18:24:55.806704 31568 net.cpp:100] Creating Layer loss_stage2
I1125 18:24:55.807701 31568 net.cpp:444] loss_stage2 <- Mconv5_stage2_Mconv5_stage2_0_split_0
I1125 18:24:55.807701 31568 net.cpp:444] loss_stage2 <- label_lower_label_lower_0_split_0
I1125 18:24:55.807701 31568 net.cpp:418] loss_stage2 -> loss_stage2
I1125 18:24:55.807701 31568 net.cpp:150] Setting up loss_stage2
I1125 18:24:55.807701 31568 net.cpp:157] Top shape: (1)
I1125 18:24:55.807701 31568 net.cpp:160]     with loss weight 1
I1125 18:24:55.807701 31568 net.cpp:165] Memory required for data: 305934344
I1125 18:24:55.807701 31568 layer_factory.hpp:77] Creating layer concat_stage3
I1125 18:24:55.807701 31568 net.cpp:100] Creating Layer concat_stage3
I1125 18:24:55.807701 31568 net.cpp:444] concat_stage3 <- pool3_stage1_pool3_stage1_0_split_3
I1125 18:24:55.807701 31568 net.cpp:444] concat_stage3 <- Mconv5_stage2_Mconv5_stage2_0_split_1
I1125 18:24:55.807701 31568 net.cpp:444] concat_stage3 <- pool_image_lower_pool_image_lower_0_split_1
I1125 18:24:55.808701 31568 net.cpp:418] concat_stage3 -> concat_stage3
I1125 18:24:55.808701 31568 net.cpp:150] Setting up concat_stage3
I1125 18:24:55.808701 31568 net.cpp:157] Top shape: 16 142 24 24 (1308672)
I1125 18:24:55.808701 31568 net.cpp:165] Memory required for data: 311169032
I1125 18:24:55.808701 31568 layer_factory.hpp:77] Creating layer Mconv1_stage3
I1125 18:24:55.808701 31568 net.cpp:100] Creating Layer Mconv1_stage3
I1125 18:24:55.808701 31568 net.cpp:444] Mconv1_stage3 <- concat_stage3
I1125 18:24:55.808701 31568 net.cpp:418] Mconv1_stage3 -> Mconv1_stage3
I1125 18:24:55.813696 31568 net.cpp:150] Setting up Mconv1_stage3
I1125 18:24:55.813696 31568 net.cpp:157] Top shape: 16 64 24 24 (589824)
I1125 18:24:55.813696 31568 net.cpp:165] Memory required for data: 313528328
I1125 18:24:55.813696 31568 layer_factory.hpp:77] Creating layer Mrelu1_stage3
I1125 18:24:55.813696 31568 net.cpp:100] Creating Layer Mrelu1_stage3
I1125 18:24:55.813696 31568 net.cpp:444] Mrelu1_stage3 <- Mconv1_stage3
I1125 18:24:55.813696 31568 net.cpp:405] Mrelu1_stage3 -> Mconv1_stage3 (in-place)
I1125 18:24:55.814695 31568 net.cpp:150] Setting up Mrelu1_stage3
I1125 18:24:55.814695 31568 net.cpp:157] Top shape: 16 64 24 24 (589824)
I1125 18:24:55.814695 31568 net.cpp:165] Memory required for data: 315887624
I1125 18:24:55.814695 31568 layer_factory.hpp:77] Creating layer Mconv1_stage3_Mrelu1_stage3_0_split
I1125 18:24:55.814695 31568 net.cpp:100] Creating Layer Mconv1_stage3_Mrelu1_stage3_0_split
I1125 18:24:55.814695 31568 net.cpp:444] Mconv1_stage3_Mrelu1_stage3_0_split <- Mconv1_stage3
I1125 18:24:55.814695 31568 net.cpp:418] Mconv1_stage3_Mrelu1_stage3_0_split -> Mconv1_stage3_Mrelu1_stage3_0_split_0
I1125 18:24:55.815695 31568 net.cpp:418] Mconv1_stage3_Mrelu1_stage3_0_split -> Mconv1_stage3_Mrelu1_stage3_0_split_1
I1125 18:24:55.815695 31568 net.cpp:150] Setting up Mconv1_stage3_Mrelu1_stage3_0_split
I1125 18:24:55.815695 31568 net.cpp:157] Top shape: 16 64 24 24 (589824)
I1125 18:24:55.815695 31568 net.cpp:157] Top shape: 16 64 24 24 (589824)
I1125 18:24:55.815695 31568 net.cpp:165] Memory required for data: 320606216
I1125 18:24:55.815695 31568 layer_factory.hpp:77] Creating layer Mconv3_stage3
I1125 18:24:55.815695 31568 net.cpp:100] Creating Layer Mconv3_stage3
I1125 18:24:55.815695 31568 net.cpp:444] Mconv3_stage3 <- Mconv1_stage3_Mrelu1_stage3_0_split_0
I1125 18:24:55.815695 31568 net.cpp:418] Mconv3_stage3 -> Mconv3_stage3
I1125 18:24:55.819692 31568 net.cpp:150] Setting up Mconv3_stage3
I1125 18:24:55.821691 31568 net.cpp:157] Top shape: 16 64 24 24 (589824)
I1125 18:24:55.821691 31568 net.cpp:165] Memory required for data: 322965512
I1125 18:24:55.821691 31568 layer_factory.hpp:77] Creating layer Mrelu3_stage3
I1125 18:24:55.821691 31568 net.cpp:100] Creating Layer Mrelu3_stage3
I1125 18:24:55.821691 31568 net.cpp:444] Mrelu3_stage3 <- Mconv3_stage3
I1125 18:24:55.821691 31568 net.cpp:405] Mrelu3_stage3 -> Mconv3_stage3 (in-place)
I1125 18:24:55.821691 31568 net.cpp:150] Setting up Mrelu3_stage3
I1125 18:24:55.821691 31568 net.cpp:157] Top shape: 16 64 24 24 (589824)
I1125 18:24:55.822688 31568 net.cpp:165] Memory required for data: 325324808
I1125 18:24:55.822688 31568 layer_factory.hpp:77] Creating layer concat_Mconv3_stage3
I1125 18:24:55.822688 31568 net.cpp:100] Creating Layer concat_Mconv3_stage3
I1125 18:24:55.822688 31568 net.cpp:444] concat_Mconv3_stage3 <- Mconv1_stage3_Mrelu1_stage3_0_split_1
I1125 18:24:55.822688 31568 net.cpp:444] concat_Mconv3_stage3 <- Mconv3_stage3
I1125 18:24:55.822688 31568 net.cpp:418] concat_Mconv3_stage3 -> concat_Mconv3_stage3
I1125 18:24:55.822688 31568 net.cpp:150] Setting up concat_Mconv3_stage3
I1125 18:24:55.822688 31568 net.cpp:157] Top shape: 16 128 24 24 (1179648)
I1125 18:24:55.823688 31568 net.cpp:165] Memory required for data: 330043400
I1125 18:24:55.823688 31568 layer_factory.hpp:77] Creating layer Mconv4_stage3
I1125 18:24:55.823688 31568 net.cpp:100] Creating Layer Mconv4_stage3
I1125 18:24:55.823688 31568 net.cpp:444] Mconv4_stage3 <- concat_Mconv3_stage3
I1125 18:24:55.823688 31568 net.cpp:418] Mconv4_stage3 -> Mconv4_stage3
I1125 18:24:55.825685 31568 net.cpp:150] Setting up Mconv4_stage3
I1125 18:24:55.825685 31568 net.cpp:157] Top shape: 16 64 24 24 (589824)
I1125 18:24:55.825685 31568 net.cpp:165] Memory required for data: 332402696
I1125 18:24:55.825685 31568 layer_factory.hpp:77] Creating layer Mrelu4_stage3
I1125 18:24:55.825685 31568 net.cpp:100] Creating Layer Mrelu4_stage3
I1125 18:24:55.825685 31568 net.cpp:444] Mrelu4_stage3 <- Mconv4_stage3
I1125 18:24:55.825685 31568 net.cpp:405] Mrelu4_stage3 -> Mconv4_stage3 (in-place)
I1125 18:24:55.826684 31568 net.cpp:150] Setting up Mrelu4_stage3
I1125 18:24:55.826684 31568 net.cpp:157] Top shape: 16 64 24 24 (589824)
I1125 18:24:55.826684 31568 net.cpp:165] Memory required for data: 334761992
I1125 18:24:55.826684 31568 layer_factory.hpp:77] Creating layer Mconv5_stage3
I1125 18:24:55.826684 31568 net.cpp:100] Creating Layer Mconv5_stage3
I1125 18:24:55.826684 31568 net.cpp:444] Mconv5_stage3 <- Mconv4_stage3
I1125 18:24:55.826684 31568 net.cpp:418] Mconv5_stage3 -> Mconv5_stage3
I1125 18:24:55.828683 31568 net.cpp:150] Setting up Mconv5_stage3
I1125 18:24:55.828683 31568 net.cpp:157] Top shape: 16 13 24 24 (119808)
I1125 18:24:55.828683 31568 net.cpp:165] Memory required for data: 335241224
I1125 18:24:55.828683 31568 layer_factory.hpp:77] Creating layer Mconv5_stage3_Mconv5_stage3_0_split
I1125 18:24:55.828683 31568 net.cpp:100] Creating Layer Mconv5_stage3_Mconv5_stage3_0_split
I1125 18:24:55.828683 31568 net.cpp:444] Mconv5_stage3_Mconv5_stage3_0_split <- Mconv5_stage3
I1125 18:24:55.828683 31568 net.cpp:418] Mconv5_stage3_Mconv5_stage3_0_split -> Mconv5_stage3_Mconv5_stage3_0_split_0
I1125 18:24:55.828683 31568 net.cpp:418] Mconv5_stage3_Mconv5_stage3_0_split -> Mconv5_stage3_Mconv5_stage3_0_split_1
I1125 18:24:55.828683 31568 net.cpp:150] Setting up Mconv5_stage3_Mconv5_stage3_0_split
I1125 18:24:55.828683 31568 net.cpp:157] Top shape: 16 13 24 24 (119808)
I1125 18:24:55.828683 31568 net.cpp:157] Top shape: 16 13 24 24 (119808)
I1125 18:24:55.828683 31568 net.cpp:165] Memory required for data: 336199688
I1125 18:24:55.829682 31568 layer_factory.hpp:77] Creating layer loss_stage3
I1125 18:24:55.830682 31568 net.cpp:100] Creating Layer loss_stage3
I1125 18:24:55.830682 31568 net.cpp:444] loss_stage3 <- Mconv5_stage3_Mconv5_stage3_0_split_0
I1125 18:24:55.830682 31568 net.cpp:444] loss_stage3 <- label_lower_label_lower_0_split_1
I1125 18:24:55.830682 31568 net.cpp:418] loss_stage3 -> loss_stage3
I1125 18:24:55.830682 31568 net.cpp:150] Setting up loss_stage3
I1125 18:24:55.830682 31568 net.cpp:157] Top shape: (1)
I1125 18:24:55.831681 31568 net.cpp:160]     with loss weight 1
I1125 18:24:55.831681 31568 net.cpp:165] Memory required for data: 336199692
I1125 18:24:55.831681 31568 layer_factory.hpp:77] Creating layer concat_stage4
I1125 18:24:55.831681 31568 net.cpp:100] Creating Layer concat_stage4
I1125 18:24:55.831681 31568 net.cpp:444] concat_stage4 <- pool3_stage1_pool3_stage1_0_split_4
I1125 18:24:55.831681 31568 net.cpp:444] concat_stage4 <- Mconv5_stage3_Mconv5_stage3_0_split_1
I1125 18:24:55.831681 31568 net.cpp:444] concat_stage4 <- pool_image_lower_pool_image_lower_0_split_2
I1125 18:24:55.831681 31568 net.cpp:418] concat_stage4 -> concat_stage4
I1125 18:24:55.831681 31568 net.cpp:150] Setting up concat_stage4
I1125 18:24:55.831681 31568 net.cpp:157] Top shape: 16 142 24 24 (1308672)
I1125 18:24:55.832680 31568 net.cpp:165] Memory required for data: 341434380
I1125 18:24:55.832680 31568 layer_factory.hpp:77] Creating layer Mconv1_stage4
I1125 18:24:55.832680 31568 net.cpp:100] Creating Layer Mconv1_stage4
I1125 18:24:55.832680 31568 net.cpp:444] Mconv1_stage4 <- concat_stage4
I1125 18:24:55.832680 31568 net.cpp:418] Mconv1_stage4 -> Mconv1_stage4
I1125 18:24:55.838675 31568 net.cpp:150] Setting up Mconv1_stage4
I1125 18:24:55.838675 31568 net.cpp:157] Top shape: 16 64 24 24 (589824)
I1125 18:24:55.838675 31568 net.cpp:165] Memory required for data: 343793676
I1125 18:24:55.838675 31568 layer_factory.hpp:77] Creating layer Mrelu1_stage4
I1125 18:24:55.838675 31568 net.cpp:100] Creating Layer Mrelu1_stage4
I1125 18:24:55.838675 31568 net.cpp:444] Mrelu1_stage4 <- Mconv1_stage4
I1125 18:24:55.839673 31568 net.cpp:405] Mrelu1_stage4 -> Mconv1_stage4 (in-place)
I1125 18:24:55.841671 31568 net.cpp:150] Setting up Mrelu1_stage4
I1125 18:24:55.841671 31568 net.cpp:157] Top shape: 16 64 24 24 (589824)
I1125 18:24:55.841671 31568 net.cpp:165] Memory required for data: 346152972
I1125 18:24:55.841671 31568 layer_factory.hpp:77] Creating layer Mconv1_stage4_Mrelu1_stage4_0_split
I1125 18:24:55.841671 31568 net.cpp:100] Creating Layer Mconv1_stage4_Mrelu1_stage4_0_split
I1125 18:24:55.841671 31568 net.cpp:444] Mconv1_stage4_Mrelu1_stage4_0_split <- Mconv1_stage4
I1125 18:24:55.841671 31568 net.cpp:418] Mconv1_stage4_Mrelu1_stage4_0_split -> Mconv1_stage4_Mrelu1_stage4_0_split_0
I1125 18:24:55.841671 31568 net.cpp:418] Mconv1_stage4_Mrelu1_stage4_0_split -> Mconv1_stage4_Mrelu1_stage4_0_split_1
I1125 18:24:55.841671 31568 net.cpp:150] Setting up Mconv1_stage4_Mrelu1_stage4_0_split
I1125 18:24:55.841671 31568 net.cpp:157] Top shape: 16 64 24 24 (589824)
I1125 18:24:55.842670 31568 net.cpp:157] Top shape: 16 64 24 24 (589824)
I1125 18:24:55.842670 31568 net.cpp:165] Memory required for data: 350871564
I1125 18:24:55.842670 31568 layer_factory.hpp:77] Creating layer Mconv3_stage4
I1125 18:24:55.842670 31568 net.cpp:100] Creating Layer Mconv3_stage4
I1125 18:24:55.842670 31568 net.cpp:444] Mconv3_stage4 <- Mconv1_stage4_Mrelu1_stage4_0_split_0
I1125 18:24:55.842670 31568 net.cpp:418] Mconv3_stage4 -> Mconv3_stage4
I1125 18:24:55.845669 31568 net.cpp:150] Setting up Mconv3_stage4
I1125 18:24:55.845669 31568 net.cpp:157] Top shape: 16 64 24 24 (589824)
I1125 18:24:55.845669 31568 net.cpp:165] Memory required for data: 353230860
I1125 18:24:55.845669 31568 layer_factory.hpp:77] Creating layer Mrelu3_stage4
I1125 18:24:55.845669 31568 net.cpp:100] Creating Layer Mrelu3_stage4
I1125 18:24:55.845669 31568 net.cpp:444] Mrelu3_stage4 <- Mconv3_stage4
I1125 18:24:55.845669 31568 net.cpp:405] Mrelu3_stage4 -> Mconv3_stage4 (in-place)
I1125 18:24:55.846668 31568 net.cpp:150] Setting up Mrelu3_stage4
I1125 18:24:55.846668 31568 net.cpp:157] Top shape: 16 64 24 24 (589824)
I1125 18:24:55.846668 31568 net.cpp:165] Memory required for data: 355590156
I1125 18:24:55.846668 31568 layer_factory.hpp:77] Creating layer concat_Mconv3_stage4
I1125 18:24:55.846668 31568 net.cpp:100] Creating Layer concat_Mconv3_stage4
I1125 18:24:55.846668 31568 net.cpp:444] concat_Mconv3_stage4 <- Mconv1_stage4_Mrelu1_stage4_0_split_1
I1125 18:24:55.846668 31568 net.cpp:444] concat_Mconv3_stage4 <- Mconv3_stage4
I1125 18:24:55.846668 31568 net.cpp:418] concat_Mconv3_stage4 -> concat_Mconv3_stage4
I1125 18:24:55.846668 31568 net.cpp:150] Setting up concat_Mconv3_stage4
I1125 18:24:55.846668 31568 net.cpp:157] Top shape: 16 128 24 24 (1179648)
I1125 18:24:55.846668 31568 net.cpp:165] Memory required for data: 360308748
I1125 18:24:55.846668 31568 layer_factory.hpp:77] Creating layer Mconv4_stage4
I1125 18:24:55.847666 31568 net.cpp:100] Creating Layer Mconv4_stage4
I1125 18:24:55.847666 31568 net.cpp:444] Mconv4_stage4 <- concat_Mconv3_stage4
I1125 18:24:55.847666 31568 net.cpp:418] Mconv4_stage4 -> Mconv4_stage4
I1125 18:24:55.848665 31568 net.cpp:150] Setting up Mconv4_stage4
I1125 18:24:55.848665 31568 net.cpp:157] Top shape: 16 64 24 24 (589824)
I1125 18:24:55.848665 31568 net.cpp:165] Memory required for data: 362668044
I1125 18:24:55.849664 31568 layer_factory.hpp:77] Creating layer Mrelu4_stage4
I1125 18:24:55.850663 31568 net.cpp:100] Creating Layer Mrelu4_stage4
I1125 18:24:55.850663 31568 net.cpp:444] Mrelu4_stage4 <- Mconv4_stage4
I1125 18:24:55.850663 31568 net.cpp:405] Mrelu4_stage4 -> Mconv4_stage4 (in-place)
I1125 18:24:55.851662 31568 net.cpp:150] Setting up Mrelu4_stage4
I1125 18:24:55.851662 31568 net.cpp:157] Top shape: 16 64 24 24 (589824)
I1125 18:24:55.851662 31568 net.cpp:165] Memory required for data: 365027340
I1125 18:24:55.851662 31568 layer_factory.hpp:77] Creating layer Mconv5_stage4
I1125 18:24:55.851662 31568 net.cpp:100] Creating Layer Mconv5_stage4
I1125 18:24:55.851662 31568 net.cpp:444] Mconv5_stage4 <- Mconv4_stage4
I1125 18:24:55.851662 31568 net.cpp:418] Mconv5_stage4 -> Mconv5_stage4
I1125 18:24:55.853662 31568 net.cpp:150] Setting up Mconv5_stage4
I1125 18:24:55.853662 31568 net.cpp:157] Top shape: 16 13 24 24 (119808)
I1125 18:24:55.853662 31568 net.cpp:165] Memory required for data: 365506572
I1125 18:24:55.854660 31568 layer_factory.hpp:77] Creating layer loss_stage4
I1125 18:24:55.854660 31568 net.cpp:100] Creating Layer loss_stage4
I1125 18:24:55.854660 31568 net.cpp:444] loss_stage4 <- Mconv5_stage4
I1125 18:24:55.854660 31568 net.cpp:444] loss_stage4 <- label_lower_label_lower_0_split_2
…
