…
  phase: TRAIN
  level: 0
  stage: ""
}
layer {
  name: "data"
  type: "CPMData"
  top: "image"
  top: "label"
  transform_param {
    stride: 4
    max_rotate_degree: 45
    crop_size_x: 92
    crop_size_y: 92
    scale_prob: 1
    scale_min: 0.8
    scale_max: 1.2
    target_dist: 1.171
    center_perterb_max: 0
    sigma: 4
    do_clahe: false
    num_parts: 12
    gray: 1
    np_in_lmdb: 12
    put_gaussian: false
  }
  cpmdata_param {
    source: "D:/deeplearning/trainingdata/AllData/lmdb/Depth_half4_v1"
    batch_size: 16
    backend: LMDB
  }
}
layer {
  name: "label_lower"
  type: "Slice"
  bottom: "label"
  top: "label_lower"
  top: "label_1st_lower"
  slice_param {
    slice_point: 13
    axis: 1
  }
}
layer {
  name: "pool_image_lower"
  type: "Pooling"
  bottom: "image"
  top: "pool_image_lower"
  pooling_param {
    pool: AVE
    kernel_size: 4
    stride: 4
  }
}
layer {
  name: "conv2_stage1"
  type: "Convolution"
  bottom: "image"
  top: "conv2_stage1"
  param {
    lr_mult: 5
    decay_mult: 1
  }
  param {
    lr_mult: 10
    decay_mult: 0
  }
  convolution_param {
    num_output: 128
    pad: 4
    kernel_size: 9
    weight_filler {
      type: "gaussian"
      std: 0.01
    }
    bias_filler {
      type: "constant"
    }
  }
}
layer {
  name: "relu2_stage1"
  type: "ReLU"
  bottom: "conv2_stage1"
  top: "conv2_stage1"
}
layer {
  name: "pool2_stage1"
  type: "Pooling"
  bottom: "conv2_stage1"
  top: "pool2_stage1"
  pooling_param {
    pool: MAX
    kernel_size: 3
    stride: 2
  }
}
layer {
  name: "conv3_stage1"
  type: "Convolution"
  bottom: "pool2_stage1"
  top: "conv3_stage1"
  param {
    lr_mult: 5
    decay_mult: 1
  }
  param {
    lr_mult: 10
    decay_mult: 0
  }
  convolution_param {
    num_output: 128
    pad: 4
    kernel_size: 9
    weight_filler {
      type: "gaussian"
      std: 0.01
    }
    bias_filler {
      type: "constant"
    }
  }
}
layer {
  name: "relu3_stage1"
  type: "ReLU"
  bottom: "conv3_stage1"
  top: "conv3_stage1"
}
layer {
  name: "pool3_stage1"
  type: "Pooling"
  bottom: "conv3_stage1"
  top: "pool3_stage1"
  pooling_param {
    pool: MAX
    kernel_size: 3
    stride: 2
  }
}
layer {
  name: "conv4_stage1"
  type: "Convolution"
  bottom: "pool3_stage1"
  top: "conv4_stage1"
  param {
    lr_mult: 5
    decay_mult: 1
  }
  param {
    lr_mult: 10
    decay_mult: 0
  }
  convolution_param {
    num_output: 64
    pad: 2
    kernel_size: 5
    weight_filler {
      type: "gaussian"
      std: 0.01
    }
    bias_filler {
      type: "constant"
    }
  }
}
layer {
  name: "relu4_stage1"
  type: "ReLU"
  bottom: "conv4_stage1"
  top: "conv4_stage1"
}
layer {
  name: "drop1_stage1"
  type: "Dropout"
  bottom: "conv4_stage1"
  top: "conv4_stage1"
  dropout_param {
    dropout_ratio: 0.5
  }
}
layer {
  name: "conv6_stage1"
  type: "Convolution"
  bottom: "conv4_stage1"
  top: "conv6_stage1"
  param {
    lr_mult: 5
    decay_mult: 1
  }
  param {
    lr_mult: 10
    decay_mult: 0
  }
  convolution_param {
    num_output: 64
    pad: 0
    kernel_size: 1
    weight_filler {
      type: "gaussian"
      std: 0.01
    }
    bias_filler {
      type: "constant"
    }
  }
}
layer {
  name: "relu6_stage1"
  type: "ReLU"
  bottom: "conv6_stage1"
  top: "conv6_stage1"
}
layer {
  name: "drop2_stage1"
  type: "Dropout"
  bottom: "conv6_stage1"
  top: "conv6_stage1"
  dropout_param {
    dropout_ratio: 0.5
  }
}
layer {
  name: "conv7_stage1"
  type: "Convolution"
  bottom: "conv6_stage1"
  top: "conv7_stage1"
  param {
    lr_mult: 5
    decay_mult: 1
  }
  param {
    lr_mult: 10
    decay_mult: 0
  }
  convolution_param {
    num_output: 13
    pad: 0
    kernel_size: 1
    weight_filler {
      type: "gaussian"
      std: 0.01
    }
    bias_filler {
      type: "constant"
    }
  }
}
layer {
  name: "loss_stage1"
  type: "EuclideanLoss"
  bottom: "conv7_stage1"
  bottom: "label_1st_lower"
  top: "loss_stage1"
}
layer {
  name: "conv2_stage2"
  type: "Convolution"
  bottom: "image"
  top: "conv2_stage2"
  param {
    lr_mult: 1
    decay_mult: 1
  }
  param {
    lr_mult: 2
    decay_mult: 0
  }
  convolution_param {
    num_output: 128
    pad: 4
    kernel_size: 9
    weight_filler {
      type: "gaussian"
      std: 0.01
    }
    bias_filler {
      type: "constant"
    }
  }
}
layer {
  name: "relu2_stage2"
  type: "ReLU"
  bottom: "conv2_stage2"
  top: "conv2_stage2"
}
layer {
  name: "pool2_stage2"
  type: "Pooling"
  bottom: "conv2_stage2"
  top: "pool2_stage2"
  pooling_param {
    pool: MAX
    kernel_size: 3
    stride: 2
  }
}
layer {
  name: "conv3_stage2"
  type: "Convolution"
  bottom: "pool2_stage2"
  top: "conv3_stage2"
  param {
    lr_mult: 1
    decay_mult: 1
  }
  param {
    lr_mult: 2
    decay_mult: 0
  }
  convolution_param {
    num_output: 128
    pad: 4
    kernel_size: 9
    weight_filler {
      type: "gaussian"
      std: 0.01
    }
    bias_filler {
      type: "constant"
    }
  }
}
layer {
  name: "relu3_stage2"
  type: "ReLU"
  bottom: "conv3_stage2"
  top: "conv3_stage2"
}
layer {
  name: "pool3_stage2"
  type: "Pooling"
  bottom: "conv3_stage2"
  top: "pool3_stage2"
  pooling_param {
    pool: MAX
    kernel_size: 3
    stride: 2
  }
}
layer {
  name: "conv4_stage2"
  type: "Convolution"
  bottom: "pool3_stage2"
  top: "conv4_stage2"
  param {
    lr_mult: 1
    decay_mult: 1
  }
  param {
    lr_mult: 2
    decay_mult: 0
  }
  convolution_param {
    num_output: 64
    pad: 2
    kernel_size: 5
    weight_filler {
      type: "gaussian"
      std: 0.01
    }
    bias_filler {
      type: "constant"
    }
  }
}
layer {
  name: "relu4_stage2"
  type: "ReLU"
  bottom: "conv4_stage2"
  top: "conv4_stage2"
}
layer {
  name: "concat_stage2"
  type: "Concat"
  bottom: "conv4_stage2"
  bottom: "conv7_stage1"
  bottom: "pool_image_lower"
  top: "concat_stage2"
  concat_param {
    axis: 1
  }
}
layer {
  name: "Mconv1_stage2"
  type: "Convolution"
  bottom: "concat_stage2"
  top: "Mconv1_stage2"
  param {
    lr_mult: 1
    decay_mult: 1
  }
  param {
    lr_mult: 2
    decay_mult: 0
  }
  convolution_param {
    num_output: 64
    pad: 5
    kernel_size: 11
    weight_filler {
      type: "gaussian"
      std: 0.01
    }
    bias_filler {
      type: "constant"
    }
  }
}
layer {
  name: "Mrelu1_stage2"
  type: "ReLU"
  bottom: "Mconv1_stage2"
  top: "Mconv1_stage2"
}
layer {
  name: "Mconv3_stage2"
  type: "Convolution"
  bottom: "Mconv1_stage2"
  top: "Mconv3_stage2"
  param {
    lr_mult: 1
    decay_mult: 1
  }
  param {
    lr_mult: 2
    decay_mult: 0
  }
  convolution_param {
    num_output: 64
    pad: 5
    kernel_size: 11
    weight_filler {
      type: "gaussian"
      std: 0.01
    }
    bias_filler {
      type: "constant"
    }
  }
}
layer {
  name: "Mrelu3_stage2"
  type: "ReLU"
  bottom: "Mconv3_stage2"
  top: "Mconv3_stage2"
}
layer {
  name: "Mconv4_stage2"
  type: "Convolution"
  bottom: "Mconv3_stage2"
  top: "Mconv4_stage2"
  param {
    lr_mult: 1
    decay_mult: 1
  }
  param {
    lr_mult: 2
    decay_mult: 0
  }
  convolution_param {
    num_output: 64
    pad: 0
    kernel_size: 1
    weight_filler {
      type: "gaussian"
      std: 0.01
    }
    bias_filler {
      type: "constant"
    }
  }
}
layer {
  name: "Mrelu4_stage2"
  type: "ReLU"
  bottom: "Mconv4_stage2"
  top: "Mconv4_stage2"
}
layer {
  name: "Mconv5_stage2"
  type: "Convolution"
  bottom: "Mconv4_stage2"
  top: "Mconv5_stage2"
  param {
    lr_mult: 1
    decay_mult: 1
  }
  param {
    lr_mult: 2
    decay_mult: 0
  }
  convolution_param {
    num_output: 13
    pad: 0
    kernel_size: 1
    weight_filler {
      type: "gaussian"
      std: 0.01
    }
    bias_filler {
      type: "constant"
    }
  }
}
layer {
  name: "loss_stage2"
  type: "EuclideanLoss"
  bottom: "Mconv5_stage2"
  bottom: "label_lower"
  top: "loss_stage2"
}
layer {
  name: "conv1_stage3"
  type: "Convolution"
  bottom: "pool3_stage2"
  top: "conv1_stage3"
  param {
    lr_mult: 1
    decay_mult: 1
  }
  param {
    lr_mult: 2
    decay_mult: 0
  }
  convolution_param {
    num_output: 64
    pad: 2
    kernel_size: 5
    weight_filler {
      type: "gaussian"
      std: 0.01
    }
    bias_filler {
      type: "constant"
    }
  }
}
layer {
  name: "relu1_stage3"
  type: "ReLU"
  bottom: "conv1_stage3"
  top: "conv1_stage3"
}
layer {
  name: "concat_stage3"
  type: "Concat"
  bottom: "conv1_stage3"
  bottom: "Mconv5_stage2"
  bottom: "pool_image_lower"
  top: "concat_stage3"
  concat_param {
    axis: 1
  }
}
layer {
  name: "Mconv1_stage3"
  type: "Convolution"
  bottom: "concat_stage3"
  top: "Mconv1_stage3"
  param {
    lr_mult: 1
    decay_mult: 1
  }
  param {
    lr_mult: 2
    decay_mult: 0
  }
  convolution_param {
    num_output: 64
    pad: 5
    kernel_size: 11
    weight_filler {
      type: "gaussian"
      std: 0.01
    }
    bias_filler {
      type: "constant"
    }
  }
}
layer {
  name: "Mrelu1_stage3"
  type: "ReLU"
  bottom: "Mconv1_stage3"
  top: "Mconv1_stage3"
}
layer {
  name: "Mconv3_stage3"
  type: "Convolution"
  bottom: "Mconv1_stage3"
  top: "Mconv3_stage3"
  param {
    lr_mult: 1
    decay_mult: 1
  }
  param {
    lr_mult: 2
    decay_mult: 0
  }
  convolution_param {
    num_output: 64
    pad: 5
    kernel_size: 11
    weight_filler {
      type: "gaussian"
      std: 0.01
    }
    bias_filler {
      type: "constant"
    }
  }
}
layer {
  name: "Mrelu3_stage3"
  type: "ReLU"
  bottom: "Mconv3_stage3"
  top: "Mconv3_stage3"
}
layer {
  name: "Mconv4_stage3"
  type: "Convolution"
  bottom: "Mconv3_stage3"
  top: "Mconv4_stage3"
  param {
    lr_mult: 1
    decay_mult: 1
  }
  param {
    lr_mult: 2
    decay_mult: 0
  }
  convolution_param {
    num_output: 64
    pad: 0
    kernel_size: 1
    weight_filler {
      type: "gaussian"
      std: 0.01
    }
    bias_filler {
      type: "constant"
    }
  }
}
layer {
  name: "Mrelu4_stage3"
  type: "ReLU"
  bottom: "Mconv4_stage3"
  top: "Mconv4_stage3"
}
layer {
  name: "Mconv5_stage3"
  type: "Convolution"
  bottom: "Mconv4_stage3"
  top: "Mconv5_stage3"
  param {
    lr_mult: 1
    decay_mult: 1
  }
  param {
    lr_mult: 2
    decay_mult: 0
  }
  convolution_param {
    num_output: 13
    pad: 0
    kernel_size: 1
    weight_filler {
      type: "gaussian"
      std: 0.01
    }
    bias_filler {
      type: "constant"
    }
  }
}
layer {
  name: "loss_stage3"
  type: "EuclideanLoss"
  bottom: "Mconv5_stage3"
  bottom: "label_lower"
  top: "loss_stage3"
}
layer {
  name: "conv1_stage4"
  type: "Convolution"
  bottom: "pool3_stage2"
  top: "conv1_stage4"
  param {
    lr_mult: 1
    decay_mult: 1
  }
  param {
    lr_mult: 2
    decay_mult: 0
  }
  convolution_param {
    num_output: 32
    pad: 2
    kernel_size: 5
    weight_filler {
      type: "gaussian"
      std: 0.01
    }
    bias_filler {
      type: "constant"
    }
  }
}
layer {
  name: "relu1_stage4"
  type: "ReLU"
  bottom: "conv1_stage4"
  top: "conv1_stage4"
}
layer {
  name: "concat_stage4"
  type: "Concat"
  bottom: "conv1_stage4"
  bottom: "Mconv5_stage3"
  bottom: "pool_image_lower"
  top: "concat_stage4"
  concat_param {
    axis: 1
  }
}
layer {
  name: "Mconv1_stage4"
  type: "Convolution"
  bottom: "concat_stage4"
  top: "Mconv1_stage4"
  param {
    lr_mult: 1
    decay_mult: 1
  }
  param {
    lr_mult: 2
    decay_mult: 0
  }
  convolution_param {
    num_output: 64
    pad: 5
    kernel_size: 11
    weight_filler {
      type: "gaussian"
      std: 0.01
    }
    bias_filler {
      type: "constant"
    }
  }
}
layer {
  name: "Mrelu1_stage4"
  type: "ReLU"
  bottom: "Mconv1_stage4"
  top: "Mconv1_stage4"
}
layer {
  name: "Mconv3_stage4"
  type: "Convolution"
  bottom: "Mconv1_stage4"
  top: "Mconv3_stage4"
  param {
    lr_mult: 1
    decay_mult: 1
  }
  param {
    lr_mult: 2
    decay_mult: 0
  }
  convolution_param {
    num_output: 64
    pad: 5
    kernel_size: 11
    weight_filler {
      type: "gaussian"
      std: 0.01
    }
    bias_filler {
      type: "constant"
    }
  }
}
layer {
  name: "Mrelu3_stage4"
  type: "ReLU"
  bottom: "Mconv3_stage4"
  top: "Mconv3_stage4"
}
layer {
  name: "Mconv4_stage4"
  type: "Convolution"
  bottom: "Mconv3_stage4"
  top: "Mconv4_stage4"
  param {
    lr_mult: 1
    decay_mult: 1
  }
  param {
    lr_mult: 2
    decay_mult: 0
  }
  convolution_param {
    num_output: 64
    pad: 0
    kernel_size: 1
    weight_filler {
      type: "gaussian"
      std: 0.01
    }
    bias_filler {
      type: "constant"
    }
  }
}
layer {
  name: "Mrelu4_stage4"
  type: "ReLU"
  bottom: "Mconv4_stage4"
  top: "Mconv4_stage4"
}
layer {
  name: "Mconv5_stage4"
  type: "Convolution"
  bottom: "Mconv4_stage4"
  top: "Mconv5_stage4"
  param {
    lr_mult: 1
    decay_mult: 1
  }
  param {
    lr_mult: 2
    decay_mult: 0
  }
  convolution_param {
    num_output: 13
    pad: 0
    kernel_size: 1
    weight_filler {
      type: "gaussian"
      std: 0.01
    }
    bias_filler {
      type: "constant"
    }
  }
}
layer {
  name: "loss_stage4"
  type: "EuclideanLoss"
  bottom: "Mconv5_stage4"
  bottom: "label_lower"
  top: "loss_stage4"
}
I0820 16:00:04.134413 13640 layer_factory.hpp:77] Creating layer data
I0820 16:00:04.135412 13640 common.cpp:36] System entropy source not available, using fallback algorithm to generate seed instead.
I0820 16:00:04.136411 13640 net.cpp:100] Creating Layer data
I0820 16:00:04.136411 13640 net.cpp:418] data -> image
I0820 16:00:04.136411 13640 net.cpp:418] data -> label
I0820 16:00:04.137410 14344 common.cpp:36] System entropy source not available, using fallback algorithm to generate seed instead.
I0820 16:00:04.137410 13640 data_transformer.cpp:260] DataTransformer constructor done.
I0820 16:00:04.142405 14344 db_lmdb.cpp:40] Opened lmdb D:/deeplearning/trainingdata/AllData/lmdb/Depth_half4_v1
I0820 16:00:04.301265 13640 cpm_data_layer.cpp:62] output data size: 16,1,92,92
I0820 16:00:04.302263 13640 cpm_data_layer.cpp:77] output label size: 16,26,23,23
I0820 16:00:04.306260 13640 net.cpp:150] Setting up data
I0820 16:00:04.307260 13640 net.cpp:157] Top shape: 16 1 92 92 (135424)
I0820 16:00:04.307260 13640 net.cpp:157] Top shape: 16 26 23 23 (220064)
I0820 16:00:04.308259 14376 common.cpp:36] System entropy source not available, using fallback algorithm to generate seed instead.
I0820 16:00:04.308259 13640 net.cpp:165] Memory required for data: 1421952
I0820 16:00:04.309257 13640 layer_factory.hpp:77] Creating layer image_data_0_split
I0820 16:00:04.309257 13640 net.cpp:100] Creating Layer image_data_0_split
I0820 16:00:04.309257 14376 data_transformer.cpp:71] dataset: Depth; img_size: [512 x 384]; meta.annolist_index: 6813; meta.write_number: 0; meta.total_write_number: 14172; meta.epoch: 0
I0820 16:00:04.309257 13640 net.cpp:444] image_data_0_split <- image
I0820 16:00:04.310257 13640 net.cpp:418] image_data_0_split -> image_data_0_split_0
I0820 16:00:04.310257 13640 net.cpp:418] image_data_0_split -> image_data_0_split_1
I0820 16:00:04.312268 13640 net.cpp:418] image_data_0_split -> image_data_0_split_2
I0820 16:00:04.312268 13640 net.cpp:150] Setting up image_data_0_split
I0820 16:00:04.313254 13640 net.cpp:157] Top shape: 16 1 92 92 (135424)
I0820 16:00:04.313254 13640 net.cpp:157] Top shape: 16 1 92 92 (135424)
I0820 16:00:04.314254 13640 net.cpp:157] Top shape: 16 1 92 92 (135424)
I0820 16:00:04.314254 13640 net.cpp:165] Memory required for data: 3047040
I0820 16:00:04.314254 13640 layer_factory.hpp:77] Creating layer label_lower
I0820 16:00:04.315253 13640 net.cpp:100] Creating Layer label_lower
I0820 16:00:04.315253 13640 net.cpp:444] label_lower <- label
I0820 16:00:04.316252 13640 net.cpp:418] label_lower -> label_lower
I0820 16:00:04.316252 13640 net.cpp:418] label_lower -> label_1st_lower
I0820 16:00:04.316252 13640 net.cpp:150] Setting up label_lower
I0820 16:00:04.317250 13640 net.cpp:157] Top shape: 16 13 23 23 (110032)
I0820 16:00:04.317250 13640 net.cpp:157] Top shape: 16 13 23 23 (110032)
I0820 16:00:04.318250 13640 net.cpp:165] Memory required for data: 3927296
I0820 16:00:04.318250 13640 layer_factory.hpp:77] Creating layer label_lower_label_lower_0_split
I0820 16:00:04.319248 13640 net.cpp:100] Creating Layer label_lower_label_lower_0_split
I0820 16:00:04.319248 13640 net.cpp:444] label_lower_label_lower_0_split <- label_lower
I0820 16:00:04.320248 13640 net.cpp:418] label_lower_label_lower_0_split -> label_lower_label_lower_0_split_0
I0820 16:00:04.320248 13640 net.cpp:418] label_lower_label_lower_0_split -> label_lower_label_lower_0_split_1
I0820 16:00:04.323246 13640 net.cpp:418] label_lower_label_lower_0_split -> label_lower_label_lower_0_split_2
I0820 16:00:04.323246 13640 net.cpp:150] Setting up label_lower_label_lower_0_split
I0820 16:00:04.324244 13640 net.cpp:157] Top shape: 16 13 23 23 (110032)
I0820 16:00:04.324244 13640 net.cpp:157] Top shape: 16 13 23 23 (110032)
I0820 16:00:04.324244 13640 net.cpp:157] Top shape: 16 13 23 23 (110032)
I0820 16:00:04.325243 13640 net.cpp:165] Memory required for data: 5247680
I0820 16:00:04.325243 13640 layer_factory.hpp:77] Creating layer pool_image_lower
I0820 16:00:04.326242 13640 net.cpp:100] Creating Layer pool_image_lower
I0820 16:00:04.326242 13640 net.cpp:444] pool_image_lower <- image_data_0_split_0
I0820 16:00:04.326242 13640 net.cpp:418] pool_image_lower -> pool_image_lower
I0820 16:00:04.622977 13640 net.cpp:150] Setting up pool_image_lower
I0820 16:00:04.622977 13640 net.cpp:157] Top shape: 16 1 23 23 (8464)
I0820 16:00:04.623977 13640 net.cpp:165] Memory required for data: 5281536
I0820 16:00:04.623977 13640 layer_factory.hpp:77] Creating layer pool_image_lower_pool_image_lower_0_split
I0820 16:00:04.624976 13640 net.cpp:100] Creating Layer pool_image_lower_pool_image_lower_0_split
I0820 16:00:04.624976 13640 net.cpp:444] pool_image_lower_pool_image_lower_0_split <- pool_image_lower
I0820 16:00:04.625975 13640 net.cpp:418] pool_image_lower_pool_image_lower_0_split -> pool_image_lower_pool_image_lower_0_split_0
I0820 16:00:04.625975 13640 net.cpp:418] pool_image_lower_pool_image_lower_0_split -> pool_image_lower_pool_image_lower_0_split_1
I0820 16:00:04.625975 13640 net.cpp:418] pool_image_lower_pool_image_lower_0_split -> pool_image_lower_pool_image_lower_0_split_2
I0820 16:00:04.626974 13640 net.cpp:150] Setting up pool_image_lower_pool_image_lower_0_split
I0820 16:00:04.626974 13640 net.cpp:157] Top shape: 16 1 23 23 (8464)
I0820 16:00:04.627974 13640 net.cpp:157] Top shape: 16 1 23 23 (8464)
I0820 16:00:04.627974 13640 net.cpp:157] Top shape: 16 1 23 23 (8464)
I0820 16:00:04.628973 13640 net.cpp:165] Memory required for data: 5383104
I0820 16:00:04.628973 13640 layer_factory.hpp:77] Creating layer conv2_stage1
I0820 16:00:04.629972 13640 net.cpp:100] Creating Layer conv2_stage1
I0820 16:00:04.629972 13640 net.cpp:444] conv2_stage1 <- image_data_0_split_1
I0820 16:00:04.630971 13640 net.cpp:418] conv2_stage1 -> conv2_stage1
I0820 16:00:04.633968 13640 net.cpp:150] Setting up conv2_stage1
I0820 16:00:04.633968 13640 net.cpp:157] Top shape: 16 128 92 92 (17334272)
I0820 16:00:04.633968 13640 net.cpp:165] Memory required for data: 74720192
I0820 16:00:04.634968 13640 layer_factory.hpp:77] Creating layer relu2_stage1
I0820 16:00:04.634968 13640 net.cpp:100] Creating Layer relu2_stage1
I0820 16:00:04.635967 13640 net.cpp:444] relu2_stage1 <- conv2_stage1
I0820 16:00:04.635967 13640 net.cpp:405] relu2_stage1 -> conv2_stage1 (in-place)
I0820 16:00:04.636965 13640 net.cpp:150] Setting up relu2_stage1
I0820 16:00:04.636965 13640 net.cpp:157] Top shape: 16 128 92 92 (17334272)
I0820 16:00:04.637964 13640 net.cpp:165] Memory required for data: 144057280
I0820 16:00:04.637964 13640 layer_factory.hpp:77] Creating layer pool2_stage1
I0820 16:00:04.637964 13640 net.cpp:100] Creating Layer pool2_stage1
I0820 16:00:04.638963 13640 net.cpp:444] pool2_stage1 <- conv2_stage1
I0820 16:00:04.638963 13640 net.cpp:418] pool2_stage1 -> pool2_stage1
I0820 16:00:04.638963 13640 net.cpp:150] Setting up pool2_stage1
I0820 16:00:04.639962 13640 net.cpp:157] Top shape: 16 128 46 46 (4333568)
I0820 16:00:04.639962 13640 net.cpp:165] Memory required for data: 161391552
I0820 16:00:04.639962 13640 layer_factory.hpp:77] Creating layer conv3_stage1
I0820 16:00:04.640962 13640 net.cpp:100] Creating Layer conv3_stage1
I0820 16:00:04.640962 13640 net.cpp:444] conv3_stage1 <- pool2_stage1
I0820 16:00:04.641960 13640 net.cpp:418] conv3_stage1 -> conv3_stage1
I0820 16:00:04.661943 13640 net.cpp:150] Setting up conv3_stage1
I0820 16:00:04.661943 13640 net.cpp:157] Top shape: 16 128 46 46 (4333568)
I0820 16:00:04.662942 13640 net.cpp:165] Memory required for data: 178725824
I0820 16:00:04.662942 13640 layer_factory.hpp:77] Creating layer relu3_stage1
I0820 16:00:04.663941 13640 net.cpp:100] Creating Layer relu3_stage1
I0820 16:00:04.663941 13640 net.cpp:444] relu3_stage1 <- conv3_stage1
I0820 16:00:04.663941 13640 net.cpp:405] relu3_stage1 -> conv3_stage1 (in-place)
I0820 16:00:04.664940 13640 net.cpp:150] Setting up relu3_stage1
I0820 16:00:04.664940 13640 net.cpp:157] Top shape: 16 128 46 46 (4333568)
I0820 16:00:04.664940 13640 net.cpp:165] Memory required for data: 196060096
I0820 16:00:04.665940 13640 layer_factory.hpp:77] Creating layer pool3_stage1
I0820 16:00:04.665940 13640 net.cpp:100] Creating Layer pool3_stage1
I0820 16:00:04.665940 13640 net.cpp:444] pool3_stage1 <- conv3_stage1
I0820 16:00:04.666937 13640 net.cpp:418] pool3_stage1 -> pool3_stage1
I0820 16:00:04.666937 13640 net.cpp:150] Setting up pool3_stage1
I0820 16:00:04.667937 13640 net.cpp:157] Top shape: 16 128 23 23 (1083392)
I0820 16:00:04.667937 13640 net.cpp:165] Memory required for data: 200393664
I0820 16:00:04.668937 13640 layer_factory.hpp:77] Creating layer conv4_stage1
I0820 16:00:04.668937 13640 net.cpp:100] Creating Layer conv4_stage1
I0820 16:00:04.668937 13640 net.cpp:444] conv4_stage1 <- pool3_stage1
I0820 16:00:04.669936 13640 net.cpp:418] conv4_stage1 -> conv4_stage1
I0820 16:00:04.673931 13640 net.cpp:150] Setting up conv4_stage1
I0820 16:00:04.673931 13640 net.cpp:157] Top shape: 16 64 23 23 (541696)
I0820 16:00:04.674932 13640 net.cpp:165] Memory required for data: 202560448
I0820 16:00:04.674932 13640 layer_factory.hpp:77] Creating layer relu4_stage1
I0820 16:00:04.675930 13640 net.cpp:100] Creating Layer relu4_stage1
I0820 16:00:04.675930 13640 net.cpp:444] relu4_stage1 <- conv4_stage1
I0820 16:00:04.675930 13640 net.cpp:405] relu4_stage1 -> conv4_stage1 (in-place)
I0820 16:00:04.676929 13640 net.cpp:150] Setting up relu4_stage1
I0820 16:00:04.676929 13640 net.cpp:157] Top shape: 16 64 23 23 (541696)
I0820 16:00:04.677928 13640 net.cpp:165] Memory required for data: 204727232
I0820 16:00:04.677928 13640 layer_factory.hpp:77] Creating layer drop1_stage1
I0820 16:00:04.677928 13640 net.cpp:100] Creating Layer drop1_stage1
I0820 16:00:04.678927 13640 net.cpp:444] drop1_stage1 <- conv4_stage1
I0820 16:00:04.678927 13640 net.cpp:405] drop1_stage1 -> conv4_stage1 (in-place)
I0820 16:00:04.679927 13640 net.cpp:150] Setting up drop1_stage1
I0820 16:00:04.679927 13640 net.cpp:157] Top shape: 16 64 23 23 (541696)
I0820 16:00:04.679927 13640 net.cpp:165] Memory required for data: 206894016
I0820 16:00:04.681934 13640 layer_factory.hpp:77] Creating layer conv6_stage1
I0820 16:00:04.681934 13640 net.cpp:100] Creating Layer conv6_stage1
I0820 16:00:04.682924 13640 net.cpp:444] conv6_stage1 <- conv4_stage1
I0820 16:00:04.682924 13640 net.cpp:418] conv6_stage1 -> conv6_stage1
I0820 16:00:04.684922 13640 net.cpp:150] Setting up conv6_stage1
I0820 16:00:04.684922 13640 net.cpp:157] Top shape: 16 64 23 23 (541696)
I0820 16:00:04.685921 13640 net.cpp:165] Memory required for data: 209060800
I0820 16:00:04.685921 13640 layer_factory.hpp:77] Creating layer relu6_stage1
I0820 16:00:04.686920 13640 net.cpp:100] Creating Layer relu6_stage1
I0820 16:00:04.686920 13640 net.cpp:444] relu6_stage1 <- conv6_stage1
I0820 16:00:04.686920 13640 net.cpp:405] relu6_stage1 -> conv6_stage1 (in-place)
I0820 16:00:04.688918 13640 net.cpp:150] Setting up relu6_stage1
I0820 16:00:04.688918 13640 net.cpp:157] Top shape: 16 64 23 23 (541696)
I0820 16:00:04.688918 13640 net.cpp:165] Memory required for data: 211227584
I0820 16:00:04.689918 13640 layer_factory.hpp:77] Creating layer drop2_stage1
I0820 16:00:04.689918 13640 net.cpp:100] Creating Layer drop2_stage1
I0820 16:00:04.691916 13640 net.cpp:444] drop2_stage1 <- conv6_stage1
I0820 16:00:04.692927 13640 net.cpp:405] drop2_stage1 -> conv6_stage1 (in-place)
I0820 16:00:04.693914 13640 net.cpp:150] Setting up drop2_stage1
I0820 16:00:04.693914 13640 net.cpp:157] Top shape: 16 64 23 23 (541696)
I0820 16:00:04.694913 13640 net.cpp:165] Memory required for data: 213394368
I0820 16:00:04.694913 13640 layer_factory.hpp:77] Creating layer conv7_stage1
I0820 16:00:04.694913 13640 net.cpp:100] Creating Layer conv7_stage1
I0820 16:00:04.695912 13640 net.cpp:444] conv7_stage1 <- conv6_stage1
I0820 16:00:04.695912 13640 net.cpp:418] conv7_stage1 -> conv7_stage1
I0820 16:00:04.697912 13640 net.cpp:150] Setting up conv7_stage1
I0820 16:00:04.697912 13640 net.cpp:157] Top shape: 16 13 23 23 (110032)
I0820 16:00:04.698910 13640 net.cpp:165] Memory required for data: 213834496
I0820 16:00:04.698910 13640 layer_factory.hpp:77] Creating layer conv7_stage1_conv7_stage1_0_split
I0820 16:00:04.698910 13640 net.cpp:100] Creating Layer conv7_stage1_conv7_stage1_0_split
I0820 16:00:04.699908 13640 net.cpp:444] conv7_stage1_conv7_stage1_0_split <- conv7_stage1
I0820 16:00:04.699908 13640 net.cpp:418] conv7_stage1_conv7_stage1_0_split -> conv7_stage1_conv7_stage1_0_split_0
I0820 16:00:04.701908 13640 net.cpp:418] conv7_stage1_conv7_stage1_0_split -> conv7_stage1_conv7_stage1_0_split_1
I0820 16:00:04.701908 13640 net.cpp:150] Setting up conv7_stage1_conv7_stage1_0_split
I0820 16:00:04.702908 13640 net.cpp:157] Top shape: 16 13 23 23 (110032)
I0820 16:00:04.702908 13640 net.cpp:157] Top shape: 16 13 23 23 (110032)
I0820 16:00:04.703905 13640 net.cpp:165] Memory required for data: 214714752
I0820 16:00:04.703905 13640 layer_factory.hpp:77] Creating layer loss_stage1
I0820 16:00:04.703905 13640 net.cpp:100] Creating Layer loss_stage1
I0820 16:00:04.704905 13640 net.cpp:444] loss_stage1 <- conv7_stage1_conv7_stage1_0_split_0
I0820 16:00:04.704905 13640 net.cpp:444] loss_stage1 <- label_1st_lower
I0820 16:00:04.704905 13640 net.cpp:418] loss_stage1 -> loss_stage1
I0820 16:00:04.705904 13640 net.cpp:150] Setting up loss_stage1
I0820 16:00:04.705904 13640 net.cpp:157] Top shape: (1)
I0820 16:00:04.706902 13640 net.cpp:160]     with loss weight 1
I0820 16:00:04.706902 13640 net.cpp:165] Memory required for data: 214714756
I0820 16:00:04.706902 13640 layer_factory.hpp:77] Creating layer conv2_stage2
I0820 16:00:04.707901 13640 net.cpp:100] Creating Layer conv2_stage2
I0820 16:00:04.707901 13640 net.cpp:444] conv2_stage2 <- image_data_0_split_2
I0820 16:00:04.707901 13640 net.cpp:418] conv2_stage2 -> conv2_stage2
I0820 16:00:04.709900 13640 net.cpp:150] Setting up conv2_stage2
I0820 16:00:04.709900 13640 net.cpp:157] Top shape: 16 128 92 92 (17334272)
I0820 16:00:04.711899 13640 net.cpp:165] Memory required for data: 284051844
I0820 16:00:04.712896 13640 layer_factory.hpp:77] Creating layer relu2_stage2
I0820 16:00:04.712896 13640 net.cpp:100] Creating Layer relu2_stage2
I0820 16:00:04.713896 13640 net.cpp:444] relu2_stage2 <- conv2_stage2
I0820 16:00:04.713896 13640 net.cpp:405] relu2_stage2 -> conv2_stage2 (in-place)
I0820 16:00:04.714895 13640 net.cpp:150] Setting up relu2_stage2
I0820 16:00:04.714895 13640 net.cpp:157] Top shape: 16 128 92 92 (17334272)
I0820 16:00:04.714895 13640 net.cpp:165] Memory required for data: 353388932
I0820 16:00:04.715894 13640 layer_factory.hpp:77] Creating layer pool2_stage2
I0820 16:00:04.715894 13640 net.cpp:100] Creating Layer pool2_stage2
I0820 16:00:04.715894 13640 net.cpp:444] pool2_stage2 <- conv2_stage2
I0820 16:00:04.716893 13640 net.cpp:418] pool2_stage2 -> pool2_stage2
I0820 16:00:04.716893 13640 net.cpp:150] Setting up pool2_stage2
I0820 16:00:04.717892 13640 net.cpp:157] Top shape: 16 128 46 46 (4333568)
I0820 16:00:04.717892 13640 net.cpp:165] Memory required for data: 370723204
I0820 16:00:04.717892 13640 layer_factory.hpp:77] Creating layer conv3_stage2
I0820 16:00:04.718892 13640 net.cpp:100] Creating Layer conv3_stage2
I0820 16:00:04.718892 13640 net.cpp:444] conv3_stage2 <- pool2_stage2
I0820 16:00:04.718892 13640 net.cpp:418] conv3_stage2 -> conv3_stage2
I0820 16:00:04.737876 13640 net.cpp:150] Setting up conv3_stage2
I0820 16:00:04.738874 13640 net.cpp:157] Top shape: 16 128 46 46 (4333568)
I0820 16:00:04.738874 13640 net.cpp:165] Memory required for data: 388057476
I0820 16:00:04.739872 13640 layer_factory.hpp:77] Creating layer relu3_stage2
I0820 16:00:04.739872 13640 net.cpp:100] Creating Layer relu3_stage2
I0820 16:00:04.739872 13640 net.cpp:444] relu3_stage2 <- conv3_stage2
I0820 16:00:04.740872 13640 net.cpp:405] relu3_stage2 -> conv3_stage2 (in-place)
I0820 16:00:04.740872 13640 net.cpp:150] Setting up relu3_stage2
I0820 16:00:04.740872 13640 net.cpp:157] Top shape: 16 128 46 46 (4333568)
I0820 16:00:04.741871 13640 net.cpp:165] Memory required for data: 405391748
I0820 16:00:04.741871 13640 layer_factory.hpp:77] Creating layer pool3_stage2
I0820 16:00:04.742869 13640 net.cpp:100] Creating Layer pool3_stage2
I0820 16:00:04.742869 13640 net.cpp:444] pool3_stage2 <- conv3_stage2
I0820 16:00:04.742869 13640 net.cpp:418] pool3_stage2 -> pool3_stage2
I0820 16:00:04.743870 13640 net.cpp:150] Setting up pool3_stage2
I0820 16:00:04.743870 13640 net.cpp:157] Top shape: 16 128 23 23 (1083392)
I0820 16:00:04.743870 13640 net.cpp:165] Memory required for data: 409725316
I0820 16:00:04.744868 13640 layer_factory.hpp:77] Creating layer pool3_stage2_pool3_stage2_0_split
I0820 16:00:04.744868 13640 net.cpp:100] Creating Layer pool3_stage2_pool3_stage2_0_split
I0820 16:00:04.744868 13640 net.cpp:444] pool3_stage2_pool3_stage2_0_split <- pool3_stage2
I0820 16:00:04.745868 13640 net.cpp:418] pool3_stage2_pool3_stage2_0_split -> pool3_stage2_pool3_stage2_0_split_0
I0820 16:00:04.745868 13640 net.cpp:418] pool3_stage2_pool3_stage2_0_split -> pool3_stage2_pool3_stage2_0_split_1
I0820 16:00:04.746867 13640 net.cpp:418] pool3_stage2_pool3_stage2_0_split -> pool3_stage2_pool3_stage2_0_split_2
I0820 16:00:04.746867 13640 net.cpp:150] Setting up pool3_stage2_pool3_stage2_0_split
I0820 16:00:04.746867 13640 net.cpp:157] Top shape: 16 128 23 23 (1083392)
I0820 16:00:04.748865 13640 net.cpp:157] Top shape: 16 128 23 23 (1083392)
I0820 16:00:04.749864 13640 net.cpp:157] Top shape: 16 128 23 23 (1083392)
I0820 16:00:04.749864 13640 net.cpp:165] Memory required for data: 422726020
I0820 16:00:04.750864 13640 layer_factory.hpp:77] Creating layer conv4_stage2
I0820 16:00:04.750864 13640 net.cpp:100] Creating Layer conv4_stage2
I0820 16:00:04.750864 13640 net.cpp:444] conv4_stage2 <- pool3_stage2_pool3_stage2_0_split_0
I0820 16:00:04.751863 13640 net.cpp:418] conv4_stage2 -> conv4_stage2
I0820 16:00:04.757858 13640 net.cpp:150] Setting up conv4_stage2
I0820 16:00:04.758855 13640 net.cpp:157] Top shape: 16 64 23 23 (541696)
I0820 16:00:04.758855 13640 net.cpp:165] Memory required for data: 424892804
I0820 16:00:04.758855 13640 layer_factory.hpp:77] Creating layer relu4_stage2
I0820 16:00:04.759855 13640 net.cpp:100] Creating Layer relu4_stage2
I0820 16:00:04.759855 13640 net.cpp:444] relu4_stage2 <- conv4_stage2
I0820 16:00:04.760854 13640 net.cpp:405] relu4_stage2 -> conv4_stage2 (in-place)
I0820 16:00:04.761854 13640 net.cpp:150] Setting up relu4_stage2
I0820 16:00:04.761854 13640 net.cpp:157] Top shape: 16 64 23 23 (541696)
I0820 16:00:04.761854 13640 net.cpp:165] Memory required for data: 427059588
I0820 16:00:04.762852 13640 layer_factory.hpp:77] Creating layer concat_stage2
I0820 16:00:04.762852 13640 net.cpp:100] Creating Layer concat_stage2
I0820 16:00:04.762852 13640 net.cpp:444] concat_stage2 <- conv4_stage2
I0820 16:00:04.763852 13640 net.cpp:444] concat_stage2 <- conv7_stage1_conv7_stage1_0_split_1
I0820 16:00:04.763852 13640 net.cpp:444] concat_stage2 <- pool_image_lower_pool_image_lower_0_split_0
I0820 16:00:04.764853 13640 net.cpp:418] concat_stage2 -> concat_stage2
I0820 16:00:04.764853 13640 net.cpp:150] Setting up concat_stage2
I0820 16:00:04.764853 13640 net.cpp:157] Top shape: 16 78 23 23 (660192)
I0820 16:00:04.765851 13640 net.cpp:165] Memory required for data: 429700356
I0820 16:00:04.765851 13640 layer_factory.hpp:77] Creating layer Mconv1_stage2
I0820 16:00:04.765851 13640 net.cpp:100] Creating Layer Mconv1_stage2
I0820 16:00:04.767848 13640 net.cpp:444] Mconv1_stage2 <- concat_stage2
I0820 16:00:04.768847 13640 net.cpp:418] Mconv1_stage2 -> Mconv1_stage2
I0820 16:00:04.777840 13640 net.cpp:150] Setting up Mconv1_stage2
I0820 16:00:04.777840 13640 net.cpp:157] Top shape: 16 64 23 23 (541696)
I0820 16:00:04.778841 13640 net.cpp:165] Memory required for data: 431867140
I0820 16:00:04.778841 13640 layer_factory.hpp:77] Creating layer Mrelu1_stage2
I0820 16:00:04.778841 13640 net.cpp:100] Creating Layer Mrelu1_stage2
I0820 16:00:04.779837 13640 net.cpp:444] Mrelu1_stage2 <- Mconv1_stage2
I0820 16:00:04.779837 13640 net.cpp:405] Mrelu1_stage2 -> Mconv1_stage2 (in-place)
I0820 16:00:04.781836 13640 net.cpp:150] Setting up Mrelu1_stage2
I0820 16:00:04.781836 13640 net.cpp:157] Top shape: 16 64 23 23 (541696)
I0820 16:00:04.782835 13640 net.cpp:165] Memory required for data: 434033924
I0820 16:00:04.782835 13640 layer_factory.hpp:77] Creating layer Mconv3_stage2
I0820 16:00:04.782835 13640 net.cpp:100] Creating Layer Mconv3_stage2
I0820 16:00:04.783833 13640 net.cpp:444] Mconv3_stage2 <- Mconv1_stage2
I0820 16:00:04.783833 13640 net.cpp:418] Mconv3_stage2 -> Mconv3_stage2
I0820 16:00:04.791827 13640 net.cpp:150] Setting up Mconv3_stage2
I0820 16:00:04.792826 13640 net.cpp:157] Top shape: 16 64 23 23 (541696)
I0820 16:00:04.792826 13640 net.cpp:165] Memory required for data: 436200708
I0820 16:00:04.793825 13640 layer_factory.hpp:77] Creating layer Mrelu3_stage2
I0820 16:00:04.793825 13640 net.cpp:100] Creating Layer Mrelu3_stage2
I0820 16:00:04.793825 13640 net.cpp:444] Mrelu3_stage2 <- Mconv3_stage2
I0820 16:00:04.794823 13640 net.cpp:405] Mrelu3_stage2 -> Mconv3_stage2 (in-place)
I0820 16:00:04.794823 13640 net.cpp:150] Setting up Mrelu3_stage2
I0820 16:00:04.794823 13640 net.cpp:157] Top shape: 16 64 23 23 (541696)
I0820 16:00:04.795823 13640 net.cpp:165] Memory required for data: 438367492
I0820 16:00:04.795823 13640 layer_factory.hpp:77] Creating layer Mconv4_stage2
I0820 16:00:04.795823 13640 net.cpp:100] Creating Layer Mconv4_stage2
I0820 16:00:04.797823 13640 net.cpp:444] Mconv4_stage2 <- Mconv3_stage2
I0820 16:00:04.797823 13640 net.cpp:418] Mconv4_stage2 -> Mconv4_stage2
I0820 16:00:04.799820 13640 net.cpp:150] Setting up Mconv4_stage2
I0820 16:00:04.799820 13640 net.cpp:157] Top shape: 16 64 23 23 (541696)
I0820 16:00:04.800819 13640 net.cpp:165] Memory required for data: 440534276
I0820 16:00:04.800819 13640 layer_factory.hpp:77] Creating layer Mrelu4_stage2
I0820 16:00:04.801818 13640 net.cpp:100] Creating Layer Mrelu4_stage2
I0820 16:00:04.801818 13640 net.cpp:444] Mrelu4_stage2 <- Mconv4_stage2
I0820 16:00:04.801818 13640 net.cpp:405] Mrelu4_stage2 -> Mconv4_stage2 (in-place)
I0820 16:00:04.802817 13640 net.cpp:150] Setting up Mrelu4_stage2
I0820 16:00:04.802817 13640 net.cpp:157] Top shape: 16 64 23 23 (541696)
I0820 16:00:04.802817 13640 net.cpp:165] Memory required for data: 442701060
I0820 16:00:04.803815 13640 layer_factory.hpp:77] Creating layer Mconv5_stage2
I0820 16:00:04.803815 13640 net.cpp:100] Creating Layer Mconv5_stage2
I0820 16:00:04.804816 13640 net.cpp:444] Mconv5_stage2 <- Mconv4_stage2
I0820 16:00:04.804816 13640 net.cpp:418] Mconv5_stage2 -> Mconv5_stage2
I0820 16:00:04.806814 13640 net.cpp:150] Setting up Mconv5_stage2
I0820 16:00:04.807812 13640 net.cpp:157] Top shape: 16 13 23 23 (110032)
I0820 16:00:04.807812 13640 net.cpp:165] Memory required for data: 443141188
I0820 16:00:04.808811 13640 layer_factory.hpp:77] Creating layer Mconv5_stage2_Mconv5_stage2_0_split
I0820 16:00:04.808811 13640 net.cpp:100] Creating Layer Mconv5_stage2_Mconv5_stage2_0_split
I0820 16:00:04.809810 13640 net.cpp:444] Mconv5_stage2_Mconv5_stage2_0_split <- Mconv5_stage2
I0820 16:00:04.809810 13640 net.cpp:418] Mconv5_stage2_Mconv5_stage2_0_split -> Mconv5_stage2_Mconv5_stage2_0_split_0
I0820 16:00:04.809810 13640 net.cpp:418] Mconv5_stage2_Mconv5_stage2_0_split -> Mconv5_stage2_Mconv5_stage2_0_split_1
I0820 16:00:04.810809 13640 net.cpp:150] Setting up Mconv5_stage2_Mconv5_stage2_0_split
I0820 16:00:04.810809 13640 net.cpp:157] Top shape: 16 13 23 23 (110032)
I0820 16:00:04.811808 13640 net.cpp:157] Top shape: 16 13 23 23 (110032)
I0820 16:00:04.811808 13640 net.cpp:165] Memory required for data: 444021444
I0820 16:00:04.811808 13640 layer_factory.hpp:77] Creating layer loss_stage2
I0820 16:00:04.812808 13640 net.cpp:100] Creating Layer loss_stage2
I0820 16:00:04.812808 13640 net.cpp:444] loss_stage2 <- Mconv5_stage2_Mconv5_stage2_0_split_0
I0820 16:00:04.812808 13640 net.cpp:444] loss_stage2 <- label_lower_label_lower_0_split_0
I0820 16:00:04.813807 13640 net.cpp:418] loss_stage2 -> loss_stage2
I0820 16:00:04.814806 13640 net.cpp:150] Setting up loss_stage2
I0820 16:00:04.814806 13640 net.cpp:157] Top shape: (1)
I0820 16:00:04.815806 13640 net.cpp:160]     with loss weight 1
I0820 16:00:04.815806 13640 net.cpp:165] Memory required for data: 444021448
I0820 16:00:04.831794 13640 layer_factory.hpp:77] Creating layer conv1_stage3
I0820 16:00:04.832790 13640 net.cpp:100] Creating Layer conv1_stage3
I0820 16:00:04.832790 13640 net.cpp:444] conv1_stage3 <- pool3_stage2_pool3_stage2_0_split_1
I0820 16:00:04.832790 13640 net.cpp:418] conv1_stage3 -> conv1_stage3
I0820 16:00:04.836786 13640 net.cpp:150] Setting up conv1_stage3
I0820 16:00:04.837786 13640 net.cpp:157] Top shape: 16 64 23 23 (541696)
I0820 16:00:04.837786 13640 net.cpp:165] Memory required for data: 446188232
I0820 16:00:04.837786 13640 layer_factory.hpp:77] Creating layer relu1_stage3
I0820 16:00:04.838785 13640 net.cpp:100] Creating Layer relu1_stage3
I0820 16:00:04.838785 13640 net.cpp:444] relu1_stage3 <- conv1_stage3
I0820 16:00:04.838785 13640 net.cpp:405] relu1_stage3 -> conv1_stage3 (in-place)
I0820 16:00:04.839784 13640 net.cpp:150] Setting up relu1_stage3
I0820 16:00:04.839784 13640 net.cpp:157] Top shape: 16 64 23 23 (541696)
I0820 16:00:04.841783 13640 net.cpp:165] Memory required for data: 448355016
I0820 16:00:04.841783 13640 layer_factory.hpp:77] Creating layer concat_stage3
I0820 16:00:04.842782 13640 net.cpp:100] Creating Layer concat_stage3
I0820 16:00:04.842782 13640 net.cpp:444] concat_stage3 <- conv1_stage3
I0820 16:00:04.843781 13640 net.cpp:444] concat_stage3 <- Mconv5_stage2_Mconv5_stage2_0_split_1
I0820 16:00:04.843781 13640 net.cpp:444] concat_stage3 <- pool_image_lower_pool_image_lower_0_split_1
I0820 16:00:04.844779 13640 net.cpp:418] concat_stage3 -> concat_stage3
I0820 16:00:04.844779 13640 net.cpp:150] Setting up concat_stage3
I0820 16:00:04.845778 13640 net.cpp:157] Top shape: 16 78 23 23 (660192)
I0820 16:00:04.845778 13640 net.cpp:165] Memory required for data: 450995784
I0820 16:00:04.845778 13640 layer_factory.hpp:77] Creating layer Mconv1_stage3
I0820 16:00:04.846777 13640 net.cpp:100] Creating Layer Mconv1_stage3
I0820 16:00:04.846777 13640 net.cpp:444] Mconv1_stage3 <- concat_stage3
I0820 16:00:04.847776 13640 net.cpp:418] Mconv1_stage3 -> Mconv1_stage3
I0820 16:00:04.857769 13640 net.cpp:150] Setting up Mconv1_stage3
I0820 16:00:04.857769 13640 net.cpp:157] Top shape: 16 64 23 23 (541696)
I0820 16:00:04.858768 13640 net.cpp:165] Memory required for data: 453162568
I0820 16:00:04.858768 13640 layer_factory.hpp:77] Creating layer Mrelu1_stage3
I0820 16:00:04.858768 13640 net.cpp:100] Creating Layer Mrelu1_stage3
I0820 16:00:04.859766 13640 net.cpp:444] Mrelu1_stage3 <- Mconv1_stage3
I0820 16:00:04.859766 13640 net.cpp:405] Mrelu1_stage3 -> Mconv1_stage3 (in-place)
I0820 16:00:04.860765 13640 net.cpp:150] Setting up Mrelu1_stage3
I0820 16:00:04.861764 13640 net.cpp:157] Top shape: 16 64 23 23 (541696)
I0820 16:00:04.861764 13640 net.cpp:165] Memory required for data: 455329352
I0820 16:00:04.862763 13640 layer_factory.hpp:77] Creating layer Mconv3_stage3
I0820 16:00:04.862763 13640 net.cpp:100] Creating Layer Mconv3_stage3
I0820 16:00:04.862763 13640 net.cpp:444] Mconv3_stage3 <- Mconv1_stage3
I0820 16:00:04.863762 13640 net.cpp:418] Mconv3_stage3 -> Mconv3_stage3
I0820 16:00:04.871757 13640 net.cpp:150] Setting up Mconv3_stage3
I0820 16:00:04.871757 13640 net.cpp:157] Top shape: 16 64 23 23 (541696)
I0820 16:00:04.872756 13640 net.cpp:165] Memory required for data: 457496136
I0820 16:00:04.872756 13640 layer_factory.hpp:77] Creating layer Mrelu3_stage3
I0820 16:00:04.873754 13640 net.cpp:100] Creating Layer Mrelu3_stage3
I0820 16:00:04.873754 13640 net.cpp:444] Mrelu3_stage3 <- Mconv3_stage3
I0820 16:00:04.873754 13640 net.cpp:405] Mrelu3_stage3 -> Mconv3_stage3 (in-place)
I0820 16:00:04.875752 13640 net.cpp:150] Setting up Mrelu3_stage3
I0820 16:00:04.875752 13640 net.cpp:157] Top shape: 16 64 23 23 (541696)
I0820 16:00:04.876752 13640 net.cpp:165] Memory required for data: 459662920
I0820 16:00:04.876752 13640 layer_factory.hpp:77] Creating layer Mconv4_stage3
I0820 16:00:04.877750 13640 net.cpp:100] Creating Layer Mconv4_stage3
I0820 16:00:04.877750 13640 net.cpp:444] Mconv4_stage3 <- Mconv3_stage3
I0820 16:00:04.878751 13640 net.cpp:418] Mconv4_stage3 -> Mconv4_stage3
I0820 16:00:04.882746 13640 net.cpp:150] Setting up Mconv4_stage3
I0820 16:00:04.882746 13640 net.cpp:157] Top shape: 16 64 23 23 (541696)
I0820 16:00:04.882746 13640 net.cpp:165] Memory required for data: 461829704
I0820 16:00:04.883745 13640 layer_factory.hpp:77] Creating layer Mrelu4_stage3
I0820 16:00:04.883745 13640 net.cpp:100] Creating Layer Mrelu4_stage3
I0820 16:00:04.883745 13640 net.cpp:444] Mrelu4_stage3 <- Mconv4_stage3
I0820 16:00:04.884744 13640 net.cpp:405] Mrelu4_stage3 -> Mconv4_stage3 (in-place)
I0820 16:00:04.885745 13640 net.cpp:150] Setting up Mrelu4_stage3
I0820 16:00:04.885745 13640 net.cpp:157] Top shape: 16 64 23 23 (541696)
I0820 16:00:04.885745 13640 net.cpp:165] Memory required for data: 463996488
I0820 16:00:04.885745 13640 layer_factory.hpp:77] Creating layer Mconv5_stage3
I0820 16:00:04.886742 13640 net.cpp:100] Creating Layer Mconv5_stage3
I0820 16:00:04.886742 13640 net.cpp:444] Mconv5_stage3 <- Mconv4_stage3
I0820 16:00:04.887742 13640 net.cpp:418] Mconv5_stage3 -> Mconv5_stage3
I0820 16:00:04.888741 13640 net.cpp:150] Setting up Mconv5_stage3
I0820 16:00:04.888741 13640 net.cpp:157] Top shape: 16 13 23 23 (110032)
I0820 16:00:04.890740 13640 net.cpp:165] Memory required for data: 464436616
I0820 16:00:04.890740 13640 layer_factory.hpp:77] Creating layer Mconv5_stage3_Mconv5_stage3_0_split
I0820 16:00:04.891738 13640 net.cpp:100] Creating Layer Mconv5_stage3_Mconv5_stage3_0_split
I0820 16:00:04.891738 13640 net.cpp:444] Mconv5_stage3_Mconv5_stage3_0_split <- Mconv5_stage3
I0820 16:00:04.891738 13640 net.cpp:418] Mconv5_stage3_Mconv5_stage3_0_split -> Mconv5_stage3_Mconv5_stage3_0_split_0
I0820 16:00:04.892737 13640 net.cpp:418] Mconv5_stage3_Mconv5_stage3_0_split -> Mconv5_stage3_Mconv5_stage3_0_split_1
I0820 16:00:04.892737 13640 net.cpp:150] Setting up Mconv5_stage3_Mconv5_stage3_0_split
I0820 16:00:04.892737 13640 net.cpp:157] Top shape: 16 13 23 23 (110032)
I0820 16:00:04.893738 13640 net.cpp:157] Top shape: 16 13 23 23 (110032)
I0820 16:00:04.893738 13640 net.cpp:165] Memory required for data: 465316872
I0820 16:00:04.893738 13640 layer_factory.hpp:77] Creating layer loss_stage3
I0820 16:00:04.894735 13640 net.cpp:100] Creating Layer loss_stage3
I0820 16:00:04.894735 13640 net.cpp:444] loss_stage3 <- Mconv5_stage3_Mconv5_stage3_0_split_0
I0820 16:00:04.895735 13640 net.cpp:444] loss_stage3 <- label_lower_label_lower_0_split_1
I0820 16:00:04.895735 13640 net.cpp:418] loss_stage3 -> loss_stage3
I0820 16:00:04.895735 13640 net.cpp:150] Setting up loss_stage3
I0820 16:00:04.896733 13640 net.cpp:157] Top shape: (1)
I0820 16:00:04.896733 13640 net.cpp:160]     with loss weight 1
I0820 16:00:04.896733 13640 net.cpp:165] Memory required for data: 465316876
I0820 16:00:04.897732 13640 layer_factory.hpp:77] Creating layer conv1_stage4
I0820 16:00:04.897732 13640 net.cpp:100] Creating Layer conv1_stage4
I0820 16:00:04.897732 13640 net.cpp:444] conv1_stage4 <- pool3_stage2_pool3_stage2_0_split_2
I0820 16:00:04.898731 13640 net.cpp:418] conv1_stage4 -> conv1_stage4
I0820 16:00:04.901729 13640 net.cpp:150] Setting up conv1_stage4
I0820 16:00:04.901729 13640 net.cpp:157] Top shape: 16 32 23 23 (270848)
I0820 16:00:04.902729 13640 net.cpp:165] Memory required for data: 466400268
I0820 16:00:04.902729 13640 layer_factory.hpp:77] Creating layer relu1_stage4
I0820 16:00:04.903728 13640 net.cpp:100] Creating Layer relu1_stage4
I0820 16:00:04.903728 13640 net.cpp:444] relu1_stage4 <- conv1_stage4
I0820 16:00:04.903728 13640 net.cpp:405] relu1_stage4 -> conv1_stage4 (in-place)
I0820 16:00:04.905726 13640 net.cpp:150] Setting up relu1_stage4
I0820 16:00:04.905726 13640 net.cpp:157] Top shape: 16 32 23 23 (270848)
I0820 16:00:04.905726 13640 net.cpp:165] Memory required for data: 467483660
I0820 16:00:04.906724 13640 layer_factory.hpp:77] Creating layer concat_stage4
I0820 16:00:04.906724 13640 net.cpp:100] Creating Layer concat_stage4
I0820 16:00:04.907723 13640 net.cpp:444] concat_stage4 <- conv1_stage4
I0820 16:00:04.907723 13640 net.cpp:444] concat_stage4 <- Mconv5_stage3_Mconv5_stage3_0_split_1
I0820 16:00:04.907723 13640 net.cpp:444] concat_stage4 <- pool_image_lower_pool_image_lower_0_split_2
I0820 16:00:04.908722 13640 net.cpp:418] concat_stage4 -> concat_stage4
I0820 16:00:04.908722 13640 net.cpp:150] Setting up concat_stage4
I0820 16:00:04.911720 13640 net.cpp:157] Top shape: 16 46 23 23 (389344)
I0820 16:00:04.911720 13640 net.cpp:165] Memory required for data: 469041036
I0820 16:00:04.911720 13640 layer_factory.hpp:77] Creating layer Mconv1_stage4
I0820 16:00:04.912719 13640 net.cpp:100] Creating Layer Mconv1_stage4
I0820 16:00:04.912719 13640 net.cpp:444] Mconv1_stage4 <- concat_stage4
I0820 16:00:04.913718 13640 net.cpp:418] Mconv1_stage4 -> Mconv1_stage4
I0820 16:00:04.919713 13640 net.cpp:150] Setting up Mconv1_stage4
I0820 16:00:04.920711 13640 net.cpp:157] Top shape: 16 64 23 23 (541696)
I0820 16:00:04.920711 13640 net.cpp:165] Memory required for data: 471207820
I0820 16:00:04.920711 13640 layer_factory.hpp:77] Creating layer Mrelu1_stage4
I0820 16:00:04.921710 13640 net.cpp:100] Creating Layer Mrelu1_stage4
I0820 16:00:04.921710 13640 net.cpp:444] Mrelu1_stage4 <- Mconv1_stage4
I0820 16:00:04.922710 13640 net.cpp:405] Mrelu1_stage4 -> Mconv1_stage4 (in-place)
I0820 16:00:04.922710 13640 net.cpp:150] Setting up Mrelu1_stage4
I0820 16:00:04.922710 13640 net.cpp:157] Top shape: 16 64 23 23 (541696)
I0820 16:00:04.923708 13640 net.cpp:165] Memory required for data: 473374604
I0820 16:00:04.923708 13640 layer_factory.hpp:77] Creating layer Mconv3_stage4
I0820 16:00:04.924710 13640 net.cpp:100] Creating Layer Mconv3_stage4
I0820 16:00:04.924710 13640 net.cpp:444] Mconv3_stage4 <- Mconv1_stage4
I0820 16:00:04.924710 13640 net.cpp:418] Mconv3_stage4 -> Mconv3_stage4
I0820 16:00:04.933701 13640 net.cpp:150] Setting up Mconv3_stage4
I0820 16:00:04.933701 13640 net.cpp:157] Top shape: 16 64 23 23 (541696)
I0820 16:00:04.933701 13640 net.cpp:165] Memory required for data: 475541388
I0820 16:00:04.934700 13640 layer_factory.hpp:77] Creating layer Mrelu3_stage4
I0820 16:00:04.934700 13640 net.cpp:100] Creating Layer Mrelu3_stage4
I0820 16:00:04.935699 13640 net.cpp:444] Mrelu3_stage4 <- Mconv3_stage4
I0820 16:00:04.935699 13640 net.cpp:405] Mrelu3_stage4 -> Mconv3_stage4 (in-place)
I0820 16:00:04.936697 13640 net.cpp:150] Setting up Mrelu3_stage4
I0820 16:00:04.936697 13640 net.cpp:157] Top shape: 16 64 23 23 (541696)
I0820 16:00:04.936697 13640 net.cpp:165] Memory required for data: 477708172
I0820 16:00:04.937697 13640 layer_factory.hpp:77] Creating layer Mconv4_stage4
I0820 16:00:04.938695 13640 net.cpp:100] Creating Layer Mconv4_stage4
I0820 16:00:04.939695 13640 net.cpp:444] Mconv4_stage4 <- Mconv3_stage4
I0820 16:00:04.940696 13640 net.cpp:418] Mconv4_stage4 -> Mconv4_stage4
I0820 16:00:04.942692 13640 net.cpp:150] Setting up Mconv4_stage4
I0820 16:00:04.942692 13640 net.cpp:157] Top shape: 16 64 23 23 (541696)
I0820 16:00:04.943691 13640 net.cpp:165] Memory required for data: 479874956
I0820 16:00:04.943691 13640 layer_factory.hpp:77] Creating layer Mrelu4_stage4
I0820 16:00:04.943691 13640 net.cpp:100] Creating Layer Mrelu4_stage4
I0820 16:00:04.944690 13640 net.cpp:444] Mrelu4_stage4 <- Mconv4_stage4
I0820 16:00:04.944690 13640 net.cpp:405] Mrelu4_stage4 -> Mconv4_stage4 (in-place)
I0820 16:00:04.945690 13640 net.cpp:150] Setting up Mrelu4_stage4
I0820 16:00:04.945690 13640 net.cpp:157] Top shape: 16 64 23 23 (541696)
I0820 16:00:04.945690 13640 net.cpp:165] Memory required for data: 482041740
I0820 16:00:04.946689 13640 layer_factory.hpp:77] Creating layer Mconv5_stage4
I0820 16:00:04.946689 13640 net.cpp:100] Creating Layer Mconv5_stage4
I0820 16:00:04.946689 13640 net.cpp:444] Mconv5_stage4 <- Mconv4_stage4
I0820 16:00:04.947688 13640 net.cpp:418] Mconv5_stage4 -> Mconv5_stage4
I0820 16:00:04.949687 13640 net.cpp:150] Setting up Mconv5_stage4
I0820 16:00:04.949687 13640 net.cpp:157] Top shape: 16 13 23 23 (110032)
I0820 16:00:04.949687 13640 net.cpp:165] Memory required for data: 482481868
I0820 16:00:04.950685 13640 layer_factory.hpp:77] Creating layer loss_stage4
I0820 16:00:04.950685 13640 net.cpp:100] Creating Layer loss_stage4
I0820 16:00:04.951683 13640 net.cpp:444] loss_stage4 <- Mconv5_stage4
I0820 16:00:04.951683 13640 net.cpp:444] loss_stage4 <- label_lower_label_lower_0_split_2
…
