…
state {
  phase: TRAIN
  level: 0
  stage: ""
}
layer {
  name: "data"
  type: "CPMData"
  top: "image"
  top: "label"
  transform_param {
    stride: 4
    max_rotate_degree: 0
    crop_size_x: 96
    crop_size_y: 96
    scale_prob: 1
    scale_min: 0.6
    scale_max: 1
    target_dist: 1.171
    center_perterb_max: 0
    sigma: 4
    do_clahe: false
    num_parts: 12
    gray: 1
    np_in_lmdb: 12
    put_gaussian: false
  }
  cpmdata_param {
    source: "D:/deeplearning/trainingdata/AllData/lmdb/kinect_v2"
    batch_size: 16
    backend: LMDB
  }
}
layer {
  name: "label_lower"
  type: "Slice"
  bottom: "label"
  top: "label_lower"
  top: "label_1st_lower"
  slice_param {
    slice_point: 13
    axis: 1
  }
}
layer {
  name: "pool_image_lower"
  type: "Pooling"
  bottom: "image"
  top: "pool_image_lower"
  pooling_param {
    pool: AVE
    kernel_size: 4
    stride: 4
  }
}
layer {
  name: "conv2_stage1"
  type: "Convolution"
  bottom: "image"
  top: "conv2_stage1"
  param {
    lr_mult: 5
    decay_mult: 1
  }
  param {
    lr_mult: 10
    decay_mult: 0
  }
  convolution_param {
    num_output: 128
    pad: 4
    kernel_size: 9
    weight_filler {
      type: "gaussian"
      std: 0.01
    }
    bias_filler {
      type: "constant"
    }
  }
}
layer {
  name: "relu2_stage1"
  type: "ReLU"
  bottom: "conv2_stage1"
  top: "conv2_stage1"
}
layer {
  name: "pool2_stage1"
  type: "Pooling"
  bottom: "conv2_stage1"
  top: "pool2_stage1"
  pooling_param {
    pool: MAX
    kernel_size: 3
    stride: 2
  }
}
layer {
  name: "conv3_stage1"
  type: "Convolution"
  bottom: "pool2_stage1"
  top: "conv3_stage1"
  param {
    lr_mult: 5
    decay_mult: 1
  }
  param {
    lr_mult: 10
    decay_mult: 0
  }
  convolution_param {
    num_output: 128
    pad: 4
    kernel_size: 9
    weight_filler {
      type: "gaussian"
      std: 0.01
    }
    bias_filler {
      type: "constant"
    }
  }
}
layer {
  name: "relu3_stage1"
  type: "ReLU"
  bottom: "conv3_stage1"
  top: "conv3_stage1"
}
layer {
  name: "pool3_stage1"
  type: "Pooling"
  bottom: "conv3_stage1"
  top: "pool3_stage1"
  pooling_param {
    pool: MAX
    kernel_size: 3
    stride: 2
  }
}
layer {
  name: "conv4_stage1"
  type: "Convolution"
  bottom: "pool3_stage1"
  top: "conv4_stage1"
  param {
    lr_mult: 5
    decay_mult: 1
  }
  param {
    lr_mult: 10
    decay_mult: 0
  }
  convolution_param {
    num_output: 64
    pad: 2
    kernel_size: 5
    weight_filler {
      type: "gaussian"
      std: 0.01
    }
    bias_filler {
      type: "constant"
    }
  }
}
layer {
  name: "relu4_stage1"
  type: "ReLU"
  bottom: "conv4_stage1"
  top: "conv4_stage1"
}
layer {
  name: "conv5_stage1"
  type: "Convolution"
  bottom: "conv4_stage1"
  top: "conv5_stage1"
  param {
    lr_mult: 5
    decay_mult: 1
  }
  param {
    lr_mult: 10
    decay_mult: 0
  }
  convolution_param {
    num_output: 64
    pad: 2
    kernel_size: 5
    weight_filler {
      type: "gaussian"
      std: 0.01
    }
    bias_filler {
      type: "constant"
    }
  }
}
layer {
  name: "relu5_stage1"
  type: "ReLU"
  bottom: "conv5_stage1"
  top: "conv5_stage1"
}
layer {
  name: "drop1_stage1"
  type: "Dropout"
  bottom: "conv5_stage1"
  top: "conv5_stage1"
  dropout_param {
    dropout_ratio: 0.5
  }
}
layer {
  name: "concat_conv5_stage1"
  type: "Concat"
  bottom: "pool3_stage1"
  bottom: "conv4_stage1"
  bottom: "conv5_stage1"
  top: "concat_conv5_stage1"
  concat_param {
    axis: 1
  }
}
layer {
  name: "conv6_stage1"
  type: "Convolution"
  bottom: "concat_conv5_stage1"
  top: "conv6_stage1"
  param {
    lr_mult: 5
    decay_mult: 1
  }
  param {
    lr_mult: 10
    decay_mult: 0
  }
  convolution_param {
    num_output: 64
    pad: 0
    kernel_size: 1
    weight_filler {
      type: "gaussian"
      std: 0.01
    }
    bias_filler {
      type: "constant"
    }
  }
}
layer {
  name: "relu6_stage1"
  type: "ReLU"
  bottom: "conv6_stage1"
  top: "conv6_stage1"
}
layer {
  name: "drop2_stage1"
  type: "Dropout"
  bottom: "conv6_stage1"
  top: "conv6_stage1"
  dropout_param {
    dropout_ratio: 0.5
  }
}
layer {
  name: "conv7_stage1"
  type: "Convolution"
  bottom: "conv6_stage1"
  top: "conv7_stage1"
  param {
    lr_mult: 5
    decay_mult: 1
  }
  param {
    lr_mult: 10
    decay_mult: 0
  }
  convolution_param {
    num_output: 13
    pad: 0
    kernel_size: 1
    weight_filler {
      type: "gaussian"
      std: 0.01
    }
    bias_filler {
      type: "constant"
    }
  }
}
layer {
  name: "loss_stage1"
  type: "EuclideanLoss"
  bottom: "conv7_stage1"
  bottom: "label_1st_lower"
  top: "loss_stage1"
}
layer {
  name: "concat_stage2"
  type: "Concat"
  bottom: "pool3_stage1"
  bottom: "conv7_stage1"
  bottom: "pool_image_lower"
  top: "concat_stage2"
  concat_param {
    axis: 1
  }
}
layer {
  name: "Mconv1_stage2"
  type: "Convolution"
  bottom: "concat_stage2"
  top: "Mconv1_stage2"
  param {
    lr_mult: 1
    decay_mult: 1
  }
  param {
    lr_mult: 2
    decay_mult: 0
  }
  convolution_param {
    num_output: 64
    pad: 2
    kernel_size: 5
    weight_filler {
      type: "gaussian"
      std: 0.01
    }
    bias_filler {
      type: "constant"
    }
  }
}
layer {
  name: "Mrelu1_stage2"
  type: "ReLU"
  bottom: "Mconv1_stage2"
  top: "Mconv1_stage2"
}
layer {
  name: "Mconv3_stage2"
  type: "Convolution"
  bottom: "Mconv1_stage2"
  top: "Mconv3_stage2"
  param {
    lr_mult: 1
    decay_mult: 1
  }
  param {
    lr_mult: 2
    decay_mult: 0
  }
  convolution_param {
    num_output: 64
    pad: 2
    kernel_size: 5
    weight_filler {
      type: "gaussian"
      std: 0.01
    }
    bias_filler {
      type: "constant"
    }
  }
}
layer {
  name: "Mrelu3_stage2"
  type: "ReLU"
  bottom: "Mconv3_stage2"
  top: "Mconv3_stage2"
}
layer {
  name: "concat_Mconv3_stage2"
  type: "Concat"
  bottom: "Mconv1_stage2"
  bottom: "Mconv3_stage2"
  top: "concat_Mconv3_stage2"
  concat_param {
    axis: 1
  }
}
layer {
  name: "Mconv4_stage2"
  type: "Convolution"
  bottom: "concat_Mconv3_stage2"
  top: "Mconv4_stage2"
  param {
    lr_mult: 1
    decay_mult: 1
  }
  param {
    lr_mult: 2
    decay_mult: 0
  }
  convolution_param {
    num_output: 64
    pad: 0
    kernel_size: 1
    weight_filler {
      type: "gaussian"
      std: 0.01
    }
    bias_filler {
      type: "constant"
    }
  }
}
layer {
  name: "Mrelu4_stage2"
  type: "ReLU"
  bottom: "Mconv4_stage2"
  top: "Mconv4_stage2"
}
layer {
  name: "Mconv5_stage2"
  type: "Convolution"
  bottom: "Mconv4_stage2"
  top: "Mconv5_stage2"
  param {
    lr_mult: 1
    decay_mult: 1
  }
  param {
    lr_mult: 2
    decay_mult: 0
  }
  convolution_param {
    num_output: 13
    pad: 0
    kernel_size: 1
    weight_filler {
      type: "gaussian"
      std: 0.01
    }
    bias_filler {
      type: "constant"
    }
  }
}
layer {
  name: "loss_stage2"
  type: "EuclideanLoss"
  bottom: "Mconv5_stage2"
  bottom: "label_lower"
  top: "loss_stage2"
}
layer {
  name: "concat_stage3"
  type: "Concat"
  bottom: "pool3_stage1"
  bottom: "Mconv5_stage2"
  bottom: "pool_image_lower"
  top: "concat_stage3"
  concat_param {
    axis: 1
  }
}
layer {
  name: "Mconv1_stage3"
  type: "Convolution"
  bottom: "concat_stage3"
  top: "Mconv1_stage3"
  param {
    lr_mult: 1
    decay_mult: 1
  }
  param {
    lr_mult: 2
    decay_mult: 0
  }
  convolution_param {
    num_output: 64
    pad: 2
    kernel_size: 5
    weight_filler {
      type: "gaussian"
      std: 0.01
    }
    bias_filler {
      type: "constant"
    }
  }
}
layer {
  name: "Mrelu1_stage3"
  type: "ReLU"
  bottom: "Mconv1_stage3"
  top: "Mconv1_stage3"
}
layer {
  name: "Mconv3_stage3"
  type: "Convolution"
  bottom: "Mconv1_stage3"
  top: "Mconv3_stage3"
  param {
    lr_mult: 1
    decay_mult: 1
  }
  param {
    lr_mult: 2
    decay_mult: 0
  }
  convolution_param {
    num_output: 64
    pad: 2
    kernel_size: 5
    weight_filler {
      type: "gaussian"
      std: 0.01
    }
    bias_filler {
      type: "constant"
    }
  }
}
layer {
  name: "Mrelu3_stage3"
  type: "ReLU"
  bottom: "Mconv3_stage3"
  top: "Mconv3_stage3"
}
layer {
  name: "concat_Mconv3_stage3"
  type: "Concat"
  bottom: "Mconv1_stage3"
  bottom: "Mconv3_stage3"
  top: "concat_Mconv3_stage3"
  concat_param {
    axis: 1
  }
}
layer {
  name: "Mconv4_stage3"
  type: "Convolution"
  bottom: "concat_Mconv3_stage3"
  top: "Mconv4_stage3"
  param {
    lr_mult: 1
    decay_mult: 1
  }
  param {
    lr_mult: 2
    decay_mult: 0
  }
  convolution_param {
    num_output: 64
    pad: 0
    kernel_size: 1
    weight_filler {
      type: "gaussian"
      std: 0.01
    }
    bias_filler {
      type: "constant"
    }
  }
}
layer {
  name: "Mrelu4_stage3"
  type: "ReLU"
  bottom: "Mconv4_stage3"
  top: "Mconv4_stage3"
}
layer {
  name: "Mconv5_stage3"
  type: "Convolution"
  bottom: "Mconv4_stage3"
  top: "Mconv5_stage3"
  param {
    lr_mult: 1
    decay_mult: 1
  }
  param {
    lr_mult: 2
    decay_mult: 0
  }
  convolution_param {
    num_output: 13
    pad: 0
    kernel_size: 1
    weight_filler {
      type: "gaussian"
      std: 0.01
    }
    bias_filler {
      type: "constant"
    }
  }
}
layer {
  name: "loss_stage3"
  type: "EuclideanLoss"
  bottom: "Mconv5_stage3"
  bottom: "label_lower"
  top: "loss_stage3"
}
I1217 22:42:43.031754 11188 layer_factory.hpp:77] Creating layer data
I1217 22:42:43.031754 11188 common.cpp:36] System entropy source not available, using fallback algorithm to generate seed instead.
I1217 22:42:43.031754 11188 net.cpp:100] Creating Layer data
I1217 22:42:43.031754 11188 net.cpp:418] data -> image
I1217 22:42:43.031754 11188 net.cpp:418] data -> label
I1217 22:42:43.031754 11188 data_transformer.cpp:260] DataTransformer constructor done.
I1217 22:42:43.032753 17768 common.cpp:36] System entropy source not available, using fallback algorithm to generate seed instead.
I1217 22:42:43.039747 17768 db_lmdb.cpp:40] Opened lmdb D:/deeplearning/trainingdata/AllData/lmdb/kinect_v2
I1217 22:42:43.079711 11188 cpm_data_layer.cpp:62] output data size: 16,1,96,96
I1217 22:42:43.080710 11188 cpm_data_layer.cpp:77] output label size: 16,26,24,24
I1217 22:42:43.084707 11188 net.cpp:150] Setting up data
I1217 22:42:43.084707 11188 net.cpp:157] Top shape: 16 1 96 96 (147456)
I1217 22:42:43.084707 11188 net.cpp:157] Top shape: 16 26 24 24 (239616)
I1217 22:42:43.084707 11188 net.cpp:165] Memory required for data: 1548288
I1217 22:42:43.084707 11188 layer_factory.hpp:77] Creating layer image_data_0_split
I1217 22:42:43.085706 11188 net.cpp:100] Creating Layer image_data_0_split
I1217 22:42:43.085706 11188 net.cpp:444] image_data_0_split <- image
I1217 22:42:43.085706 11188 net.cpp:418] image_data_0_split -> image_data_0_split_0
I1217 22:42:43.085706 11188 net.cpp:418] image_data_0_split -> image_data_0_split_1
I1217 22:42:43.085706 11188 net.cpp:150] Setting up image_data_0_split
I1217 22:42:43.085706 11188 net.cpp:157] Top shape: 16 1 96 96 (147456)
I1217 22:42:43.085706 11188 net.cpp:157] Top shape: 16 1 96 96 (147456)
I1217 22:42:43.085706 11188 net.cpp:165] Memory required for data: 2727936
I1217 22:42:43.085706 11188 layer_factory.hpp:77] Creating layer label_lower
I1217 22:42:43.085706 10424 common.cpp:36] System entropy source not available, using fallback algorithm to generate seed instead.
I1217 22:42:43.085706 11188 net.cpp:100] Creating Layer label_lower
I1217 22:42:43.086705 11188 net.cpp:444] label_lower <- label
I1217 22:42:43.086705 11188 net.cpp:418] label_lower -> label_lower
I1217 22:42:43.086705 11188 net.cpp:418] label_lower -> label_1st_lower
I1217 22:42:43.086705 11188 net.cpp:150] Setting up label_lower
I1217 22:42:43.086705 11188 net.cpp:157] Top shape: 16 13 24 24 (119808)
I1217 22:42:43.086705 11188 net.cpp:157] Top shape: 16 13 24 24 (119808)
I1217 22:42:43.086705 10424 data_transformer.cpp:71] dataset: Depth; img_size: [256 x 212]; meta.annolist_index: 2670; meta.write_number: 0; meta.total_write_number: 4442; meta.epoch: 0
I1217 22:42:43.086705 11188 net.cpp:165] Memory required for data: 3686400
I1217 22:42:43.086705 11188 layer_factory.hpp:77] Creating layer label_lower_label_lower_0_split
I1217 22:42:43.086705 11188 net.cpp:100] Creating Layer label_lower_label_lower_0_split
I1217 22:42:43.086705 11188 net.cpp:444] label_lower_label_lower_0_split <- label_lower
I1217 22:42:43.087704 11188 net.cpp:418] label_lower_label_lower_0_split -> label_lower_label_lower_0_split_0
I1217 22:42:43.087704 11188 net.cpp:418] label_lower_label_lower_0_split -> label_lower_label_lower_0_split_1
I1217 22:42:43.087704 11188 net.cpp:150] Setting up label_lower_label_lower_0_split
I1217 22:42:43.087704 11188 net.cpp:157] Top shape: 16 13 24 24 (119808)
I1217 22:42:43.087704 11188 net.cpp:157] Top shape: 16 13 24 24 (119808)
I1217 22:42:43.087704 11188 net.cpp:165] Memory required for data: 4644864
I1217 22:42:43.087704 11188 layer_factory.hpp:77] Creating layer pool_image_lower
I1217 22:42:43.087704 11188 net.cpp:100] Creating Layer pool_image_lower
I1217 22:42:43.087704 11188 net.cpp:444] pool_image_lower <- image_data_0_split_0
I1217 22:42:43.087704 11188 net.cpp:418] pool_image_lower -> pool_image_lower
I1217 22:42:43.384440 11188 net.cpp:150] Setting up pool_image_lower
I1217 22:42:43.384440 11188 net.cpp:157] Top shape: 16 1 24 24 (9216)
I1217 22:42:43.384440 11188 net.cpp:165] Memory required for data: 4681728
I1217 22:42:43.384440 11188 layer_factory.hpp:77] Creating layer pool_image_lower_pool_image_lower_0_split
I1217 22:42:43.385439 11188 net.cpp:100] Creating Layer pool_image_lower_pool_image_lower_0_split
I1217 22:42:43.385439 11188 net.cpp:444] pool_image_lower_pool_image_lower_0_split <- pool_image_lower
I1217 22:42:43.385439 11188 net.cpp:418] pool_image_lower_pool_image_lower_0_split -> pool_image_lower_pool_image_lower_0_split_0
I1217 22:42:43.385439 11188 net.cpp:418] pool_image_lower_pool_image_lower_0_split -> pool_image_lower_pool_image_lower_0_split_1
I1217 22:42:43.385439 11188 net.cpp:150] Setting up pool_image_lower_pool_image_lower_0_split
I1217 22:42:43.385439 11188 net.cpp:157] Top shape: 16 1 24 24 (9216)
I1217 22:42:43.385439 11188 net.cpp:157] Top shape: 16 1 24 24 (9216)
I1217 22:42:43.385439 11188 net.cpp:165] Memory required for data: 4755456
I1217 22:42:43.385439 11188 layer_factory.hpp:77] Creating layer conv2_stage1
I1217 22:42:43.385439 11188 net.cpp:100] Creating Layer conv2_stage1
I1217 22:42:43.385439 11188 net.cpp:444] conv2_stage1 <- image_data_0_split_1
I1217 22:42:43.386440 11188 net.cpp:418] conv2_stage1 -> conv2_stage1
I1217 22:42:43.388437 11188 net.cpp:150] Setting up conv2_stage1
I1217 22:42:43.388437 11188 net.cpp:157] Top shape: 16 128 96 96 (18874368)
I1217 22:42:43.389436 11188 net.cpp:165] Memory required for data: 80252928
I1217 22:42:43.389436 11188 layer_factory.hpp:77] Creating layer relu2_stage1
I1217 22:42:43.389436 11188 net.cpp:100] Creating Layer relu2_stage1
I1217 22:42:43.389436 11188 net.cpp:444] relu2_stage1 <- conv2_stage1
I1217 22:42:43.389436 11188 net.cpp:405] relu2_stage1 -> conv2_stage1 (in-place)
I1217 22:42:43.389436 11188 net.cpp:150] Setting up relu2_stage1
I1217 22:42:43.390435 11188 net.cpp:157] Top shape: 16 128 96 96 (18874368)
I1217 22:42:43.390435 11188 net.cpp:165] Memory required for data: 155750400
I1217 22:42:43.390435 11188 layer_factory.hpp:77] Creating layer pool2_stage1
I1217 22:42:43.390435 11188 net.cpp:100] Creating Layer pool2_stage1
I1217 22:42:43.390435 11188 net.cpp:444] pool2_stage1 <- conv2_stage1
I1217 22:42:43.390435 11188 net.cpp:418] pool2_stage1 -> pool2_stage1
I1217 22:42:43.390435 11188 net.cpp:150] Setting up pool2_stage1
I1217 22:42:43.390435 11188 net.cpp:157] Top shape: 16 128 48 48 (4718592)
I1217 22:42:43.390435 11188 net.cpp:165] Memory required for data: 174624768
I1217 22:42:43.390435 11188 layer_factory.hpp:77] Creating layer conv3_stage1
I1217 22:42:43.390435 11188 net.cpp:100] Creating Layer conv3_stage1
I1217 22:42:43.391434 11188 net.cpp:444] conv3_stage1 <- pool2_stage1
I1217 22:42:43.391434 11188 net.cpp:418] conv3_stage1 -> conv3_stage1
I1217 22:42:43.410419 11188 net.cpp:150] Setting up conv3_stage1
I1217 22:42:43.411417 11188 net.cpp:157] Top shape: 16 128 48 48 (4718592)
I1217 22:42:43.411417 11188 net.cpp:165] Memory required for data: 193499136
I1217 22:42:43.411417 11188 layer_factory.hpp:77] Creating layer relu3_stage1
I1217 22:42:43.411417 11188 net.cpp:100] Creating Layer relu3_stage1
I1217 22:42:43.411417 11188 net.cpp:444] relu3_stage1 <- conv3_stage1
I1217 22:42:43.411417 11188 net.cpp:405] relu3_stage1 -> conv3_stage1 (in-place)
I1217 22:42:43.411417 11188 net.cpp:150] Setting up relu3_stage1
I1217 22:42:43.412416 11188 net.cpp:157] Top shape: 16 128 48 48 (4718592)
I1217 22:42:43.412416 11188 net.cpp:165] Memory required for data: 212373504
I1217 22:42:43.412416 11188 layer_factory.hpp:77] Creating layer pool3_stage1
I1217 22:42:43.412416 11188 net.cpp:100] Creating Layer pool3_stage1
I1217 22:42:43.412416 11188 net.cpp:444] pool3_stage1 <- conv3_stage1
I1217 22:42:43.412416 11188 net.cpp:418] pool3_stage1 -> pool3_stage1
I1217 22:42:43.412416 11188 net.cpp:150] Setting up pool3_stage1
I1217 22:42:43.412416 11188 net.cpp:157] Top shape: 16 128 24 24 (1179648)
I1217 22:42:43.412416 11188 net.cpp:165] Memory required for data: 217092096
I1217 22:42:43.412416 11188 layer_factory.hpp:77] Creating layer pool3_stage1_pool3_stage1_0_split
I1217 22:42:43.412416 11188 net.cpp:100] Creating Layer pool3_stage1_pool3_stage1_0_split
I1217 22:42:43.413415 11188 net.cpp:444] pool3_stage1_pool3_stage1_0_split <- pool3_stage1
I1217 22:42:43.413415 11188 net.cpp:418] pool3_stage1_pool3_stage1_0_split -> pool3_stage1_pool3_stage1_0_split_0
I1217 22:42:43.413415 11188 net.cpp:418] pool3_stage1_pool3_stage1_0_split -> pool3_stage1_pool3_stage1_0_split_1
I1217 22:42:43.413415 11188 net.cpp:418] pool3_stage1_pool3_stage1_0_split -> pool3_stage1_pool3_stage1_0_split_2
I1217 22:42:43.413415 11188 net.cpp:418] pool3_stage1_pool3_stage1_0_split -> pool3_stage1_pool3_stage1_0_split_3
I1217 22:42:43.413415 11188 net.cpp:150] Setting up pool3_stage1_pool3_stage1_0_split
I1217 22:42:43.413415 11188 net.cpp:157] Top shape: 16 128 24 24 (1179648)
I1217 22:42:43.413415 11188 net.cpp:157] Top shape: 16 128 24 24 (1179648)
I1217 22:42:43.413415 11188 net.cpp:157] Top shape: 16 128 24 24 (1179648)
I1217 22:42:43.414413 11188 net.cpp:157] Top shape: 16 128 24 24 (1179648)
I1217 22:42:43.414413 11188 net.cpp:165] Memory required for data: 235966464
I1217 22:42:43.414413 11188 layer_factory.hpp:77] Creating layer conv4_stage1
I1217 22:42:43.414413 11188 net.cpp:100] Creating Layer conv4_stage1
I1217 22:42:43.414413 11188 net.cpp:444] conv4_stage1 <- pool3_stage1_pool3_stage1_0_split_0
I1217 22:42:43.414413 11188 net.cpp:418] conv4_stage1 -> conv4_stage1
I1217 22:42:43.420409 11188 net.cpp:150] Setting up conv4_stage1
I1217 22:42:43.421408 11188 net.cpp:157] Top shape: 16 64 24 24 (589824)
I1217 22:42:43.422407 11188 net.cpp:165] Memory required for data: 238325760
I1217 22:42:43.422407 11188 layer_factory.hpp:77] Creating layer relu4_stage1
I1217 22:42:43.422407 11188 net.cpp:100] Creating Layer relu4_stage1
I1217 22:42:43.422407 11188 net.cpp:444] relu4_stage1 <- conv4_stage1
I1217 22:42:43.422407 11188 net.cpp:405] relu4_stage1 -> conv4_stage1 (in-place)
I1217 22:42:43.422407 11188 net.cpp:150] Setting up relu4_stage1
I1217 22:42:43.423405 11188 net.cpp:157] Top shape: 16 64 24 24 (589824)
I1217 22:42:43.423405 11188 net.cpp:165] Memory required for data: 240685056
I1217 22:42:43.423405 11188 layer_factory.hpp:77] Creating layer conv4_stage1_relu4_stage1_0_split
I1217 22:42:43.423405 11188 net.cpp:100] Creating Layer conv4_stage1_relu4_stage1_0_split
I1217 22:42:43.423405 11188 net.cpp:444] conv4_stage1_relu4_stage1_0_split <- conv4_stage1
I1217 22:42:43.423405 11188 net.cpp:418] conv4_stage1_relu4_stage1_0_split -> conv4_stage1_relu4_stage1_0_split_0
I1217 22:42:43.423405 11188 net.cpp:418] conv4_stage1_relu4_stage1_0_split -> conv4_stage1_relu4_stage1_0_split_1
I1217 22:42:43.423405 11188 net.cpp:150] Setting up conv4_stage1_relu4_stage1_0_split
I1217 22:42:43.423405 11188 net.cpp:157] Top shape: 16 64 24 24 (589824)
I1217 22:42:43.423405 11188 net.cpp:157] Top shape: 16 64 24 24 (589824)
I1217 22:42:43.423405 11188 net.cpp:165] Memory required for data: 245403648
I1217 22:42:43.423405 11188 layer_factory.hpp:77] Creating layer conv5_stage1
I1217 22:42:43.424407 11188 net.cpp:100] Creating Layer conv5_stage1
I1217 22:42:43.424407 11188 net.cpp:444] conv5_stage1 <- conv4_stage1_relu4_stage1_0_split_0
I1217 22:42:43.424407 11188 net.cpp:418] conv5_stage1 -> conv5_stage1
I1217 22:42:43.427403 11188 net.cpp:150] Setting up conv5_stage1
I1217 22:42:43.427403 11188 net.cpp:157] Top shape: 16 64 24 24 (589824)
I1217 22:42:43.427403 11188 net.cpp:165] Memory required for data: 247762944
I1217 22:42:43.427403 11188 layer_factory.hpp:77] Creating layer relu5_stage1
I1217 22:42:43.427403 11188 net.cpp:100] Creating Layer relu5_stage1
I1217 22:42:43.427403 11188 net.cpp:444] relu5_stage1 <- conv5_stage1
I1217 22:42:43.427403 11188 net.cpp:405] relu5_stage1 -> conv5_stage1 (in-place)
I1217 22:42:43.428403 11188 net.cpp:150] Setting up relu5_stage1
I1217 22:42:43.428403 11188 net.cpp:157] Top shape: 16 64 24 24 (589824)
I1217 22:42:43.428403 11188 net.cpp:165] Memory required for data: 250122240
I1217 22:42:43.428403 11188 layer_factory.hpp:77] Creating layer drop1_stage1
I1217 22:42:43.428403 11188 net.cpp:100] Creating Layer drop1_stage1
I1217 22:42:43.428403 11188 net.cpp:444] drop1_stage1 <- conv5_stage1
I1217 22:42:43.428403 11188 net.cpp:405] drop1_stage1 -> conv5_stage1 (in-place)
I1217 22:42:43.428403 11188 net.cpp:150] Setting up drop1_stage1
I1217 22:42:43.428403 11188 net.cpp:157] Top shape: 16 64 24 24 (589824)
I1217 22:42:43.428403 11188 net.cpp:165] Memory required for data: 252481536
I1217 22:42:43.428403 11188 layer_factory.hpp:77] Creating layer concat_conv5_stage1
I1217 22:42:43.428403 11188 net.cpp:100] Creating Layer concat_conv5_stage1
I1217 22:42:43.428403 11188 net.cpp:444] concat_conv5_stage1 <- pool3_stage1_pool3_stage1_0_split_1
I1217 22:42:43.429402 11188 net.cpp:444] concat_conv5_stage1 <- conv4_stage1_relu4_stage1_0_split_1
I1217 22:42:43.429402 11188 net.cpp:444] concat_conv5_stage1 <- conv5_stage1
I1217 22:42:43.429402 11188 net.cpp:418] concat_conv5_stage1 -> concat_conv5_stage1
I1217 22:42:43.429402 11188 net.cpp:150] Setting up concat_conv5_stage1
I1217 22:42:43.429402 11188 net.cpp:157] Top shape: 16 256 24 24 (2359296)
I1217 22:42:43.429402 11188 net.cpp:165] Memory required for data: 261918720
I1217 22:42:43.429402 11188 layer_factory.hpp:77] Creating layer conv6_stage1
I1217 22:42:43.429402 11188 net.cpp:100] Creating Layer conv6_stage1
I1217 22:42:43.429402 11188 net.cpp:444] conv6_stage1 <- concat_conv5_stage1
I1217 22:42:43.429402 11188 net.cpp:418] conv6_stage1 -> conv6_stage1
I1217 22:42:43.433396 11188 net.cpp:150] Setting up conv6_stage1
I1217 22:42:43.433396 11188 net.cpp:157] Top shape: 16 64 24 24 (589824)
I1217 22:42:43.433396 11188 net.cpp:165] Memory required for data: 264278016
I1217 22:42:43.433396 11188 layer_factory.hpp:77] Creating layer relu6_stage1
I1217 22:42:43.433396 11188 net.cpp:100] Creating Layer relu6_stage1
I1217 22:42:43.433396 11188 net.cpp:444] relu6_stage1 <- conv6_stage1
I1217 22:42:43.433396 11188 net.cpp:405] relu6_stage1 -> conv6_stage1 (in-place)
I1217 22:42:43.434396 11188 net.cpp:150] Setting up relu6_stage1
I1217 22:42:43.434396 11188 net.cpp:157] Top shape: 16 64 24 24 (589824)
I1217 22:42:43.434396 11188 net.cpp:165] Memory required for data: 266637312
I1217 22:42:43.434396 11188 layer_factory.hpp:77] Creating layer drop2_stage1
I1217 22:42:43.434396 11188 net.cpp:100] Creating Layer drop2_stage1
I1217 22:42:43.434396 11188 net.cpp:444] drop2_stage1 <- conv6_stage1
I1217 22:42:43.434396 11188 net.cpp:405] drop2_stage1 -> conv6_stage1 (in-place)
I1217 22:42:43.435395 11188 net.cpp:150] Setting up drop2_stage1
I1217 22:42:43.435395 11188 net.cpp:157] Top shape: 16 64 24 24 (589824)
I1217 22:42:43.435395 11188 net.cpp:165] Memory required for data: 268996608
I1217 22:42:43.435395 11188 layer_factory.hpp:77] Creating layer conv7_stage1
I1217 22:42:43.435395 11188 net.cpp:100] Creating Layer conv7_stage1
I1217 22:42:43.435395 11188 net.cpp:444] conv7_stage1 <- conv6_stage1
I1217 22:42:43.435395 11188 net.cpp:418] conv7_stage1 -> conv7_stage1
I1217 22:42:43.437395 11188 net.cpp:150] Setting up conv7_stage1
I1217 22:42:43.437395 11188 net.cpp:157] Top shape: 16 13 24 24 (119808)
I1217 22:42:43.437395 11188 net.cpp:165] Memory required for data: 269475840
I1217 22:42:43.437395 11188 layer_factory.hpp:77] Creating layer conv7_stage1_conv7_stage1_0_split
I1217 22:42:43.437395 11188 net.cpp:100] Creating Layer conv7_stage1_conv7_stage1_0_split
I1217 22:42:43.437395 11188 net.cpp:444] conv7_stage1_conv7_stage1_0_split <- conv7_stage1
I1217 22:42:43.437395 11188 net.cpp:418] conv7_stage1_conv7_stage1_0_split -> conv7_stage1_conv7_stage1_0_split_0
I1217 22:42:43.437395 11188 net.cpp:418] conv7_stage1_conv7_stage1_0_split -> conv7_stage1_conv7_stage1_0_split_1
I1217 22:42:43.438395 11188 net.cpp:150] Setting up conv7_stage1_conv7_stage1_0_split
I1217 22:42:43.438395 11188 net.cpp:157] Top shape: 16 13 24 24 (119808)
I1217 22:42:43.438395 11188 net.cpp:157] Top shape: 16 13 24 24 (119808)
I1217 22:42:43.438395 11188 net.cpp:165] Memory required for data: 270434304
I1217 22:42:43.438395 11188 layer_factory.hpp:77] Creating layer loss_stage1
I1217 22:42:43.438395 11188 net.cpp:100] Creating Layer loss_stage1
I1217 22:42:43.438395 11188 net.cpp:444] loss_stage1 <- conv7_stage1_conv7_stage1_0_split_0
I1217 22:42:43.438395 11188 net.cpp:444] loss_stage1 <- label_1st_lower
I1217 22:42:43.438395 11188 net.cpp:418] loss_stage1 -> loss_stage1
I1217 22:42:43.438395 11188 net.cpp:150] Setting up loss_stage1
I1217 22:42:43.438395 11188 net.cpp:157] Top shape: (1)
I1217 22:42:43.438395 11188 net.cpp:160]     with loss weight 1
I1217 22:42:43.439393 11188 net.cpp:165] Memory required for data: 270434308
I1217 22:42:43.439393 11188 layer_factory.hpp:77] Creating layer concat_stage2
I1217 22:42:43.439393 11188 net.cpp:100] Creating Layer concat_stage2
I1217 22:42:43.439393 11188 net.cpp:444] concat_stage2 <- pool3_stage1_pool3_stage1_0_split_2
I1217 22:42:43.439393 11188 net.cpp:444] concat_stage2 <- conv7_stage1_conv7_stage1_0_split_1
I1217 22:42:43.439393 11188 net.cpp:444] concat_stage2 <- pool_image_lower_pool_image_lower_0_split_0
I1217 22:42:43.439393 11188 net.cpp:418] concat_stage2 -> concat_stage2
I1217 22:42:43.439393 11188 net.cpp:150] Setting up concat_stage2
I1217 22:42:43.439393 11188 net.cpp:157] Top shape: 16 142 24 24 (1308672)
I1217 22:42:43.439393 11188 net.cpp:165] Memory required for data: 275668996
I1217 22:42:43.439393 11188 layer_factory.hpp:77] Creating layer Mconv1_stage2
I1217 22:42:43.439393 11188 net.cpp:100] Creating Layer Mconv1_stage2
I1217 22:42:43.441391 11188 net.cpp:444] Mconv1_stage2 <- concat_stage2
I1217 22:42:43.441391 11188 net.cpp:418] Mconv1_stage2 -> Mconv1_stage2
I1217 22:42:43.447384 11188 net.cpp:150] Setting up Mconv1_stage2
I1217 22:42:43.447384 11188 net.cpp:157] Top shape: 16 64 24 24 (589824)
I1217 22:42:43.447384 11188 net.cpp:165] Memory required for data: 278028292
I1217 22:42:43.447384 11188 layer_factory.hpp:77] Creating layer Mrelu1_stage2
I1217 22:42:43.447384 11188 net.cpp:100] Creating Layer Mrelu1_stage2
I1217 22:42:43.447384 11188 net.cpp:444] Mrelu1_stage2 <- Mconv1_stage2
I1217 22:42:43.447384 11188 net.cpp:405] Mrelu1_stage2 -> Mconv1_stage2 (in-place)
I1217 22:42:43.448384 11188 net.cpp:150] Setting up Mrelu1_stage2
I1217 22:42:43.448384 11188 net.cpp:157] Top shape: 16 64 24 24 (589824)
I1217 22:42:43.448384 11188 net.cpp:165] Memory required for data: 280387588
I1217 22:42:43.448384 11188 layer_factory.hpp:77] Creating layer Mconv1_stage2_Mrelu1_stage2_0_split
I1217 22:42:43.448384 11188 net.cpp:100] Creating Layer Mconv1_stage2_Mrelu1_stage2_0_split
I1217 22:42:43.448384 11188 net.cpp:444] Mconv1_stage2_Mrelu1_stage2_0_split <- Mconv1_stage2
I1217 22:42:43.448384 11188 net.cpp:418] Mconv1_stage2_Mrelu1_stage2_0_split -> Mconv1_stage2_Mrelu1_stage2_0_split_0
I1217 22:42:43.448384 11188 net.cpp:418] Mconv1_stage2_Mrelu1_stage2_0_split -> Mconv1_stage2_Mrelu1_stage2_0_split_1
I1217 22:42:43.448384 11188 net.cpp:150] Setting up Mconv1_stage2_Mrelu1_stage2_0_split
I1217 22:42:43.448384 11188 net.cpp:157] Top shape: 16 64 24 24 (589824)
I1217 22:42:43.449383 11188 net.cpp:157] Top shape: 16 64 24 24 (589824)
I1217 22:42:43.449383 11188 net.cpp:165] Memory required for data: 285106180
I1217 22:42:43.449383 11188 layer_factory.hpp:77] Creating layer Mconv3_stage2
I1217 22:42:43.449383 11188 net.cpp:100] Creating Layer Mconv3_stage2
I1217 22:42:43.449383 11188 net.cpp:444] Mconv3_stage2 <- Mconv1_stage2_Mrelu1_stage2_0_split_0
I1217 22:42:43.449383 11188 net.cpp:418] Mconv3_stage2 -> Mconv3_stage2
I1217 22:42:43.453378 11188 net.cpp:150] Setting up Mconv3_stage2
I1217 22:42:43.453378 11188 net.cpp:157] Top shape: 16 64 24 24 (589824)
I1217 22:42:43.453378 11188 net.cpp:165] Memory required for data: 287465476
I1217 22:42:43.453378 11188 layer_factory.hpp:77] Creating layer Mrelu3_stage2
I1217 22:42:43.454377 11188 net.cpp:100] Creating Layer Mrelu3_stage2
I1217 22:42:43.454377 11188 net.cpp:444] Mrelu3_stage2 <- Mconv3_stage2
I1217 22:42:43.454377 11188 net.cpp:405] Mrelu3_stage2 -> Mconv3_stage2 (in-place)
I1217 22:42:43.455376 11188 net.cpp:150] Setting up Mrelu3_stage2
I1217 22:42:43.455376 11188 net.cpp:157] Top shape: 16 64 24 24 (589824)
I1217 22:42:43.455376 11188 net.cpp:165] Memory required for data: 289824772
I1217 22:42:43.455376 11188 layer_factory.hpp:77] Creating layer concat_Mconv3_stage2
I1217 22:42:43.455376 11188 net.cpp:100] Creating Layer concat_Mconv3_stage2
I1217 22:42:43.456377 11188 net.cpp:444] concat_Mconv3_stage2 <- Mconv1_stage2_Mrelu1_stage2_0_split_1
I1217 22:42:43.456377 11188 net.cpp:444] concat_Mconv3_stage2 <- Mconv3_stage2
I1217 22:42:43.456377 11188 net.cpp:418] concat_Mconv3_stage2 -> concat_Mconv3_stage2
I1217 22:42:43.456377 11188 net.cpp:150] Setting up concat_Mconv3_stage2
I1217 22:42:43.456377 11188 net.cpp:157] Top shape: 16 128 24 24 (1179648)
I1217 22:42:43.456377 11188 net.cpp:165] Memory required for data: 294543364
I1217 22:42:43.456377 11188 layer_factory.hpp:77] Creating layer Mconv4_stage2
I1217 22:42:43.457376 11188 net.cpp:100] Creating Layer Mconv4_stage2
I1217 22:42:43.457376 11188 net.cpp:444] Mconv4_stage2 <- concat_Mconv3_stage2
I1217 22:42:43.457376 11188 net.cpp:418] Mconv4_stage2 -> Mconv4_stage2
I1217 22:42:43.458374 11188 net.cpp:150] Setting up Mconv4_stage2
I1217 22:42:43.458374 11188 net.cpp:157] Top shape: 16 64 24 24 (589824)
I1217 22:42:43.458374 11188 net.cpp:165] Memory required for data: 296902660
I1217 22:42:43.458374 11188 layer_factory.hpp:77] Creating layer Mrelu4_stage2
I1217 22:42:43.458374 11188 net.cpp:100] Creating Layer Mrelu4_stage2
I1217 22:42:43.458374 11188 net.cpp:444] Mrelu4_stage2 <- Mconv4_stage2
I1217 22:42:43.458374 11188 net.cpp:405] Mrelu4_stage2 -> Mconv4_stage2 (in-place)
I1217 22:42:43.459372 11188 net.cpp:150] Setting up Mrelu4_stage2
I1217 22:42:43.459372 11188 net.cpp:157] Top shape: 16 64 24 24 (589824)
I1217 22:42:43.459372 11188 net.cpp:165] Memory required for data: 299261956
I1217 22:42:43.459372 11188 layer_factory.hpp:77] Creating layer Mconv5_stage2
I1217 22:42:43.461371 11188 net.cpp:100] Creating Layer Mconv5_stage2
I1217 22:42:43.461371 11188 net.cpp:444] Mconv5_stage2 <- Mconv4_stage2
I1217 22:42:43.461371 11188 net.cpp:418] Mconv5_stage2 -> Mconv5_stage2
I1217 22:42:43.463369 11188 net.cpp:150] Setting up Mconv5_stage2
I1217 22:42:43.463369 11188 net.cpp:157] Top shape: 16 13 24 24 (119808)
I1217 22:42:43.463369 11188 net.cpp:165] Memory required for data: 299741188
I1217 22:42:43.463369 11188 layer_factory.hpp:77] Creating layer Mconv5_stage2_Mconv5_stage2_0_split
I1217 22:42:43.464368 11188 net.cpp:100] Creating Layer Mconv5_stage2_Mconv5_stage2_0_split
I1217 22:42:43.464368 11188 net.cpp:444] Mconv5_stage2_Mconv5_stage2_0_split <- Mconv5_stage2
I1217 22:42:43.464368 11188 net.cpp:418] Mconv5_stage2_Mconv5_stage2_0_split -> Mconv5_stage2_Mconv5_stage2_0_split_0
I1217 22:42:43.464368 11188 net.cpp:418] Mconv5_stage2_Mconv5_stage2_0_split -> Mconv5_stage2_Mconv5_stage2_0_split_1
I1217 22:42:43.464368 11188 net.cpp:150] Setting up Mconv5_stage2_Mconv5_stage2_0_split
I1217 22:42:43.464368 11188 net.cpp:157] Top shape: 16 13 24 24 (119808)
I1217 22:42:43.464368 11188 net.cpp:157] Top shape: 16 13 24 24 (119808)
I1217 22:42:43.464368 11188 net.cpp:165] Memory required for data: 300699652
I1217 22:42:43.464368 11188 layer_factory.hpp:77] Creating layer loss_stage2
I1217 22:42:43.464368 11188 net.cpp:100] Creating Layer loss_stage2
I1217 22:42:43.464368 11188 net.cpp:444] loss_stage2 <- Mconv5_stage2_Mconv5_stage2_0_split_0
I1217 22:42:43.465368 11188 net.cpp:444] loss_stage2 <- label_lower_label_lower_0_split_0
I1217 22:42:43.465368 11188 net.cpp:418] loss_stage2 -> loss_stage2
I1217 22:42:43.465368 11188 net.cpp:150] Setting up loss_stage2
I1217 22:42:43.465368 11188 net.cpp:157] Top shape: (1)
I1217 22:42:43.465368 11188 net.cpp:160]     with loss weight 1
I1217 22:42:43.465368 11188 net.cpp:165] Memory required for data: 300699656
I1217 22:42:43.465368 11188 layer_factory.hpp:77] Creating layer concat_stage3
I1217 22:42:43.465368 11188 net.cpp:100] Creating Layer concat_stage3
I1217 22:42:43.465368 11188 net.cpp:444] concat_stage3 <- pool3_stage1_pool3_stage1_0_split_3
I1217 22:42:43.465368 11188 net.cpp:444] concat_stage3 <- Mconv5_stage2_Mconv5_stage2_0_split_1
I1217 22:42:43.465368 11188 net.cpp:444] concat_stage3 <- pool_image_lower_pool_image_lower_0_split_1
I1217 22:42:43.466367 11188 net.cpp:418] concat_stage3 -> concat_stage3
I1217 22:42:43.466367 11188 net.cpp:150] Setting up concat_stage3
I1217 22:42:43.466367 11188 net.cpp:157] Top shape: 16 142 24 24 (1308672)
I1217 22:42:43.466367 11188 net.cpp:165] Memory required for data: 305934344
I1217 22:42:43.466367 11188 layer_factory.hpp:77] Creating layer Mconv1_stage3
I1217 22:42:43.466367 11188 net.cpp:100] Creating Layer Mconv1_stage3
I1217 22:42:43.466367 11188 net.cpp:444] Mconv1_stage3 <- concat_stage3
I1217 22:42:43.466367 11188 net.cpp:418] Mconv1_stage3 -> Mconv1_stage3
I1217 22:42:43.472362 11188 net.cpp:150] Setting up Mconv1_stage3
I1217 22:42:43.472362 11188 net.cpp:157] Top shape: 16 64 24 24 (589824)
I1217 22:42:43.472362 11188 net.cpp:165] Memory required for data: 308293640
I1217 22:42:43.472362 11188 layer_factory.hpp:77] Creating layer Mrelu1_stage3
I1217 22:42:43.472362 11188 net.cpp:100] Creating Layer Mrelu1_stage3
I1217 22:42:43.472362 11188 net.cpp:444] Mrelu1_stage3 <- Mconv1_stage3
I1217 22:42:43.473361 11188 net.cpp:405] Mrelu1_stage3 -> Mconv1_stage3 (in-place)
I1217 22:42:43.473361 11188 net.cpp:150] Setting up Mrelu1_stage3
I1217 22:42:43.473361 11188 net.cpp:157] Top shape: 16 64 24 24 (589824)
I1217 22:42:43.474359 11188 net.cpp:165] Memory required for data: 310652936
I1217 22:42:43.474359 11188 layer_factory.hpp:77] Creating layer Mconv1_stage3_Mrelu1_stage3_0_split
I1217 22:42:43.474359 11188 net.cpp:100] Creating Layer Mconv1_stage3_Mrelu1_stage3_0_split
I1217 22:42:43.474359 11188 net.cpp:444] Mconv1_stage3_Mrelu1_stage3_0_split <- Mconv1_stage3
I1217 22:42:43.474359 11188 net.cpp:418] Mconv1_stage3_Mrelu1_stage3_0_split -> Mconv1_stage3_Mrelu1_stage3_0_split_0
I1217 22:42:43.474359 11188 net.cpp:418] Mconv1_stage3_Mrelu1_stage3_0_split -> Mconv1_stage3_Mrelu1_stage3_0_split_1
I1217 22:42:43.474359 11188 net.cpp:150] Setting up Mconv1_stage3_Mrelu1_stage3_0_split
I1217 22:42:43.474359 11188 net.cpp:157] Top shape: 16 64 24 24 (589824)
I1217 22:42:43.474359 11188 net.cpp:157] Top shape: 16 64 24 24 (589824)
I1217 22:42:43.474359 11188 net.cpp:165] Memory required for data: 315371528
I1217 22:42:43.474359 11188 layer_factory.hpp:77] Creating layer Mconv3_stage3
I1217 22:42:43.475358 11188 net.cpp:100] Creating Layer Mconv3_stage3
I1217 22:42:43.475358 11188 net.cpp:444] Mconv3_stage3 <- Mconv1_stage3_Mrelu1_stage3_0_split_0
I1217 22:42:43.475358 11188 net.cpp:418] Mconv3_stage3 -> Mconv3_stage3
I1217 22:42:43.477356 11188 net.cpp:150] Setting up Mconv3_stage3
I1217 22:42:43.477356 11188 net.cpp:157] Top shape: 16 64 24 24 (589824)
I1217 22:42:43.477356 11188 net.cpp:165] Memory required for data: 317730824
I1217 22:42:43.478356 11188 layer_factory.hpp:77] Creating layer Mrelu3_stage3
I1217 22:42:43.478356 11188 net.cpp:100] Creating Layer Mrelu3_stage3
I1217 22:42:43.478356 11188 net.cpp:444] Mrelu3_stage3 <- Mconv3_stage3
I1217 22:42:43.478356 11188 net.cpp:405] Mrelu3_stage3 -> Mconv3_stage3 (in-place)
I1217 22:42:43.478356 11188 net.cpp:150] Setting up Mrelu3_stage3
I1217 22:42:43.478356 11188 net.cpp:157] Top shape: 16 64 24 24 (589824)
I1217 22:42:43.478356 11188 net.cpp:165] Memory required for data: 320090120
I1217 22:42:43.478356 11188 layer_factory.hpp:77] Creating layer concat_Mconv3_stage3
I1217 22:42:43.478356 11188 net.cpp:100] Creating Layer concat_Mconv3_stage3
I1217 22:42:43.479354 11188 net.cpp:444] concat_Mconv3_stage3 <- Mconv1_stage3_Mrelu1_stage3_0_split_1
I1217 22:42:43.479354 11188 net.cpp:444] concat_Mconv3_stage3 <- Mconv3_stage3
I1217 22:42:43.479354 11188 net.cpp:418] concat_Mconv3_stage3 -> concat_Mconv3_stage3
I1217 22:42:43.479354 11188 net.cpp:150] Setting up concat_Mconv3_stage3
I1217 22:42:43.479354 11188 net.cpp:157] Top shape: 16 128 24 24 (1179648)
I1217 22:42:43.479354 11188 net.cpp:165] Memory required for data: 324808712
I1217 22:42:43.479354 11188 layer_factory.hpp:77] Creating layer Mconv4_stage3
I1217 22:42:43.479354 11188 net.cpp:100] Creating Layer Mconv4_stage3
I1217 22:42:43.479354 11188 net.cpp:444] Mconv4_stage3 <- concat_Mconv3_stage3
I1217 22:42:43.480355 11188 net.cpp:418] Mconv4_stage3 -> Mconv4_stage3
I1217 22:42:43.484350 11188 net.cpp:150] Setting up Mconv4_stage3
I1217 22:42:43.484350 11188 net.cpp:157] Top shape: 16 64 24 24 (589824)
I1217 22:42:43.484350 11188 net.cpp:165] Memory required for data: 327168008
I1217 22:42:43.484350 11188 layer_factory.hpp:77] Creating layer Mrelu4_stage3
I1217 22:42:43.484350 11188 net.cpp:100] Creating Layer Mrelu4_stage3
I1217 22:42:43.484350 11188 net.cpp:444] Mrelu4_stage3 <- Mconv4_stage3
I1217 22:42:43.484350 11188 net.cpp:405] Mrelu4_stage3 -> Mconv4_stage3 (in-place)
I1217 22:42:43.485350 11188 net.cpp:150] Setting up Mrelu4_stage3
I1217 22:42:43.485350 11188 net.cpp:157] Top shape: 16 64 24 24 (589824)
I1217 22:42:43.485350 11188 net.cpp:165] Memory required for data: 329527304
I1217 22:42:43.485350 11188 layer_factory.hpp:77] Creating layer Mconv5_stage3
I1217 22:42:43.485350 11188 net.cpp:100] Creating Layer Mconv5_stage3
I1217 22:42:43.485350 11188 net.cpp:444] Mconv5_stage3 <- Mconv4_stage3
I1217 22:42:43.485350 11188 net.cpp:418] Mconv5_stage3 -> Mconv5_stage3
I1217 22:42:43.487349 11188 net.cpp:150] Setting up Mconv5_stage3
I1217 22:42:43.488348 11188 net.cpp:157] Top shape: 16 13 24 24 (119808)
I1217 22:42:43.488348 11188 net.cpp:165] Memory required for data: 330006536
I1217 22:42:43.488348 11188 layer_factory.hpp:77] Creating layer loss_stage3
I1217 22:42:43.488348 11188 net.cpp:100] Creating Layer loss_stage3
I1217 22:42:43.488348 11188 net.cpp:444] loss_stage3 <- Mconv5_stage3
I1217 22:42:43.488348 11188 net.cpp:444] loss_stage3 <- label_lower_label_lower_0_split_1
…
