…
state {
  phase: TRAIN
  level: 0
  stage: ""
}
layer {
  name: "data"
  type: "CPMData"
  top: "image"
  top: "label"
  transform_param {
    stride: 4
    max_rotate_degree: 40
    crop_size_x: 96
    crop_size_y: 96
    scale_prob: 1
    scale_min: 0.8
    scale_max: 1.3
    target_dist: 1.171
    center_perterb_max: 0
    sigma: 4
    do_clahe: false
    num_parts: 12
    gray: 1
    np_in_lmdb: 12
    put_gaussian: false
  }
  cpmdata_param {
    source: "D:/deeplearning/trainingdata/AllData/lmdb/New1"
    batch_size: 16
    backend: LMDB
  }
}
layer {
  name: "label_lower"
  type: "Slice"
  bottom: "label"
  top: "label_lower"
  top: "label_1st_lower"
  slice_param {
    slice_point: 13
    axis: 1
  }
}
layer {
  name: "pool_image_lower"
  type: "Pooling"
  bottom: "image"
  top: "pool_image_lower"
  pooling_param {
    pool: AVE
    kernel_size: 4
    stride: 4
  }
}
layer {
  name: "conv2_stage1"
  type: "Convolution"
  bottom: "image"
  top: "conv2_stage1"
  param {
    lr_mult: 5
    decay_mult: 1
  }
  param {
    lr_mult: 10
    decay_mult: 0
  }
  convolution_param {
    num_output: 128
    pad: 4
    kernel_size: 9
    weight_filler {
      type: "gaussian"
      std: 0.01
    }
    bias_filler {
      type: "constant"
    }
  }
}
layer {
  name: "relu2_stage1"
  type: "ReLU"
  bottom: "conv2_stage1"
  top: "conv2_stage1"
}
layer {
  name: "pool2_stage1"
  type: "Pooling"
  bottom: "conv2_stage1"
  top: "pool2_stage1"
  pooling_param {
    pool: MAX
    kernel_size: 3
    stride: 2
  }
}
layer {
  name: "conv3_stage1"
  type: "Convolution"
  bottom: "pool2_stage1"
  top: "conv3_stage1"
  param {
    lr_mult: 5
    decay_mult: 1
  }
  param {
    lr_mult: 10
    decay_mult: 0
  }
  convolution_param {
    num_output: 128
    pad: 4
    kernel_size: 9
    weight_filler {
      type: "gaussian"
      std: 0.01
    }
    bias_filler {
      type: "constant"
    }
  }
}
layer {
  name: "relu3_stage1"
  type: "ReLU"
  bottom: "conv3_stage1"
  top: "conv3_stage1"
}
layer {
  name: "pool3_stage1"
  type: "Pooling"
  bottom: "conv3_stage1"
  top: "pool3_stage1"
  pooling_param {
    pool: MAX
    kernel_size: 3
    stride: 2
  }
}
layer {
  name: "conv4_stage1"
  type: "Convolution"
  bottom: "pool3_stage1"
  top: "conv4_stage1"
  param {
    lr_mult: 5
    decay_mult: 1
  }
  param {
    lr_mult: 10
    decay_mult: 0
  }
  convolution_param {
    num_output: 64
    pad: 2
    kernel_size: 5
    weight_filler {
      type: "gaussian"
      std: 0.01
    }
    bias_filler {
      type: "constant"
    }
  }
}
layer {
  name: "relu4_stage1"
  type: "ReLU"
  bottom: "conv4_stage1"
  top: "conv4_stage1"
}
layer {
  name: "conv5_stage1"
  type: "Convolution"
  bottom: "conv4_stage1"
  top: "conv5_stage1"
  param {
    lr_mult: 5
    decay_mult: 1
  }
  param {
    lr_mult: 10
    decay_mult: 0
  }
  convolution_param {
    num_output: 64
    pad: 2
    kernel_size: 5
    weight_filler {
      type: "gaussian"
      std: 0.01
    }
    bias_filler {
      type: "constant"
    }
  }
}
layer {
  name: "relu5_stage1"
  type: "ReLU"
  bottom: "conv5_stage1"
  top: "conv5_stage1"
}
layer {
  name: "drop1_stage1"
  type: "Dropout"
  bottom: "conv5_stage1"
  top: "conv5_stage1"
  dropout_param {
    dropout_ratio: 0.5
  }
}
layer {
  name: "conv6_stage1"
  type: "Convolution"
  bottom: "conv5_stage1"
  top: "conv6_stage1"
  param {
    lr_mult: 5
    decay_mult: 1
  }
  param {
    lr_mult: 10
    decay_mult: 0
  }
  convolution_param {
    num_output: 64
    pad: 0
    kernel_size: 1
    weight_filler {
      type: "gaussian"
      std: 0.01
    }
    bias_filler {
      type: "constant"
    }
  }
}
layer {
  name: "relu6_stage1"
  type: "ReLU"
  bottom: "conv6_stage1"
  top: "conv6_stage1"
}
layer {
  name: "drop2_stage1"
  type: "Dropout"
  bottom: "conv6_stage1"
  top: "conv6_stage1"
  dropout_param {
    dropout_ratio: 0.5
  }
}
layer {
  name: "conv7_stage1"
  type: "Convolution"
  bottom: "conv6_stage1"
  top: "conv7_stage1"
  param {
    lr_mult: 5
    decay_mult: 1
  }
  param {
    lr_mult: 10
    decay_mult: 0
  }
  convolution_param {
    num_output: 13
    pad: 0
    kernel_size: 1
    weight_filler {
      type: "gaussian"
      std: 0.01
    }
    bias_filler {
      type: "constant"
    }
  }
}
layer {
  name: "loss_stage1"
  type: "EuclideanLoss"
  bottom: "conv7_stage1"
  bottom: "label_1st_lower"
  top: "loss_stage1"
}
layer {
  name: "conv1_stage2"
  type: "Convolution"
  bottom: "pool3_stage1"
  top: "conv1_stage2"
  param {
    lr_mult: 1
    decay_mult: 1
  }
  param {
    lr_mult: 2
    decay_mult: 0
  }
  convolution_param {
    num_output: 64
    pad: 2
    kernel_size: 5
    weight_filler {
      type: "gaussian"
      std: 0.01
    }
    bias_filler {
      type: "constant"
    }
  }
}
layer {
  name: "relu1_stage2"
  type: "ReLU"
  bottom: "conv1_stage2"
  top: "conv1_stage2"
}
layer {
  name: "concat_stage2"
  type: "Concat"
  bottom: "conv1_stage2"
  bottom: "conv7_stage1"
  bottom: "pool_image_lower"
  top: "concat_stage2"
  concat_param {
    axis: 1
  }
}
layer {
  name: "Mconv1_stage2"
  type: "Convolution"
  bottom: "concat_stage2"
  top: "Mconv1_stage2"
  param {
    lr_mult: 1
    decay_mult: 1
  }
  param {
    lr_mult: 2
    decay_mult: 0
  }
  convolution_param {
    num_output: 64
    pad: 2
    kernel_size: 5
    weight_filler {
      type: "gaussian"
      std: 0.01
    }
    bias_filler {
      type: "constant"
    }
  }
}
layer {
  name: "Mrelu1_stage2"
  type: "ReLU"
  bottom: "Mconv1_stage2"
  top: "Mconv1_stage2"
}
layer {
  name: "Mconv3_stage2"
  type: "Convolution"
  bottom: "Mconv1_stage2"
  top: "Mconv3_stage2"
  param {
    lr_mult: 1
    decay_mult: 1
  }
  param {
    lr_mult: 2
    decay_mult: 0
  }
  convolution_param {
    num_output: 64
    pad: 2
    kernel_size: 5
    weight_filler {
      type: "gaussian"
      std: 0.01
    }
    bias_filler {
      type: "constant"
    }
  }
}
layer {
  name: "Mrelu3_stage2"
  type: "ReLU"
  bottom: "Mconv3_stage2"
  top: "Mconv3_stage2"
}
layer {
  name: "Mconv4_stage2"
  type: "Convolution"
  bottom: "Mconv3_stage2"
  top: "Mconv4_stage2"
  param {
    lr_mult: 1
    decay_mult: 1
  }
  param {
    lr_mult: 2
    decay_mult: 0
  }
  convolution_param {
    num_output: 64
    pad: 0
    kernel_size: 1
    weight_filler {
      type: "gaussian"
      std: 0.01
    }
    bias_filler {
      type: "constant"
    }
  }
}
layer {
  name: "Mrelu4_stage2"
  type: "ReLU"
  bottom: "Mconv4_stage2"
  top: "Mconv4_stage2"
}
layer {
  name: "Mconv5_stage2"
  type: "Convolution"
  bottom: "Mconv4_stage2"
  top: "Mconv5_stage2"
  param {
    lr_mult: 1
    decay_mult: 1
  }
  param {
    lr_mult: 2
    decay_mult: 0
  }
  convolution_param {
    num_output: 13
    pad: 0
    kernel_size: 1
    weight_filler {
      type: "gaussian"
      std: 0.01
    }
    bias_filler {
      type: "constant"
    }
  }
}
layer {
  name: "loss_stage2"
  type: "EuclideanLoss"
  bottom: "Mconv5_stage2"
  bottom: "label_lower"
  top: "loss_stage2"
}
layer {
  name: "conv1_stage3"
  type: "Convolution"
  bottom: "pool3_stage1"
  top: "conv1_stage3"
  param {
    lr_mult: 1
    decay_mult: 1
  }
  param {
    lr_mult: 2
    decay_mult: 0
  }
  convolution_param {
    num_output: 64
    pad: 2
    kernel_size: 5
    weight_filler {
      type: "gaussian"
      std: 0.01
    }
    bias_filler {
      type: "constant"
    }
  }
}
layer {
  name: "relu1_stage3"
  type: "ReLU"
  bottom: "conv1_stage3"
  top: "conv1_stage3"
}
layer {
  name: "concat_stage3"
  type: "Concat"
  bottom: "conv1_stage3"
  bottom: "Mconv5_stage2"
  bottom: "pool_image_lower"
  top: "concat_stage3"
  concat_param {
    axis: 1
  }
}
layer {
  name: "Mconv1_stage3"
  type: "Convolution"
  bottom: "concat_stage3"
  top: "Mconv1_stage3"
  param {
    lr_mult: 1
    decay_mult: 1
  }
  param {
    lr_mult: 2
    decay_mult: 0
  }
  convolution_param {
    num_output: 64
    pad: 2
    kernel_size: 5
    weight_filler {
      type: "gaussian"
      std: 0.01
    }
    bias_filler {
      type: "constant"
    }
  }
}
layer {
  name: "Mrelu1_stage3"
  type: "ReLU"
  bottom: "Mconv1_stage3"
  top: "Mconv1_stage3"
}
layer {
  name: "Mconv3_stage3"
  type: "Convolution"
  bottom: "Mconv1_stage3"
  top: "Mconv3_stage3"
  param {
    lr_mult: 1
    decay_mult: 1
  }
  param {
    lr_mult: 2
    decay_mult: 0
  }
  convolution_param {
    num_output: 64
    pad: 2
    kernel_size: 5
    weight_filler {
      type: "gaussian"
      std: 0.01
    }
    bias_filler {
      type: "constant"
    }
  }
}
layer {
  name: "Mrelu3_stage3"
  type: "ReLU"
  bottom: "Mconv3_stage3"
  top: "Mconv3_stage3"
}
layer {
  name: "Mconv4_stage3"
  type: "Convolution"
  bottom: "Mconv3_stage3"
  top: "Mconv4_stage3"
  param {
    lr_mult: 1
    decay_mult: 1
  }
  param {
    lr_mult: 2
    decay_mult: 0
  }
  convolution_param {
    num_output: 64
    pad: 0
    kernel_size: 1
    weight_filler {
      type: "gaussian"
      std: 0.01
    }
    bias_filler {
      type: "constant"
    }
  }
}
layer {
  name: "Mrelu4_stage3"
  type: "ReLU"
  bottom: "Mconv4_stage3"
  top: "Mconv4_stage3"
}
layer {
  name: "Mconv5_stage3"
  type: "Convolution"
  bottom: "Mconv4_stage3"
  top: "Mconv5_stage3"
  param {
    lr_mult: 1
    decay_mult: 1
  }
  param {
    lr_mult: 2
    decay_mult: 0
  }
  convolution_param {
    num_output: 13
    pad: 0
    kernel_size: 1
    weight_filler {
      type: "gaussian"
      std: 0.01
    }
    bias_filler {
      type: "constant"
    }
  }
}
layer {
  name: "loss_stage3"
  type: "EuclideanLoss"
  bottom: "Mconv5_stage3"
  bottom: "label_lower"
  top: "loss_stage3"
}
layer {
  name: "conv1_stage4"
  type: "Convolution"
  bottom: "pool3_stage1"
  top: "conv1_stage4"
  param {
    lr_mult: 1
    decay_mult: 1
  }
  param {
    lr_mult: 2
    decay_mult: 0
  }
  convolution_param {
    num_output: 32
    pad: 2
    kernel_size: 5
    weight_filler {
      type: "gaussian"
      std: 0.01
    }
    bias_filler {
      type: "constant"
    }
  }
}
layer {
  name: "relu1_stage4"
  type: "ReLU"
  bottom: "conv1_stage4"
  top: "conv1_stage4"
}
layer {
  name: "concat_stage4"
  type: "Concat"
  bottom: "conv1_stage4"
  bottom: "Mconv5_stage3"
  bottom: "pool_image_lower"
  top: "concat_stage4"
  concat_param {
    axis: 1
  }
}
layer {
  name: "Mconv1_stage4"
  type: "Convolution"
  bottom: "concat_stage4"
  top: "Mconv1_stage4"
  param {
    lr_mult: 1
    decay_mult: 1
  }
  param {
    lr_mult: 2
    decay_mult: 0
  }
  convolution_param {
    num_output: 64
    pad: 2
    kernel_size: 5
    weight_filler {
      type: "gaussian"
      std: 0.01
    }
    bias_filler {
      type: "constant"
    }
  }
}
layer {
  name: "Mrelu1_stage4"
  type: "ReLU"
  bottom: "Mconv1_stage4"
  top: "Mconv1_stage4"
}
layer {
  name: "Mconv3_stage4"
  type: "Convolution"
  bottom: "Mconv1_stage4"
  top: "Mconv3_stage4"
  param {
    lr_mult: 1
    decay_mult: 1
  }
  param {
    lr_mult: 2
    decay_mult: 0
  }
  convolution_param {
    num_output: 64
    pad: 2
    kernel_size: 5
    weight_filler {
      type: "gaussian"
      std: 0.01
    }
    bias_filler {
      type: "constant"
    }
  }
}
layer {
  name: "Mrelu3_stage4"
  type: "ReLU"
  bottom: "Mconv3_stage4"
  top: "Mconv3_stage4"
}
layer {
  name: "Mconv4_stage4"
  type: "Convolution"
  bottom: "Mconv3_stage4"
  top: "Mconv4_stage4"
  param {
    lr_mult: 1
    decay_mult: 1
  }
  param {
    lr_mult: 2
    decay_mult: 0
  }
  convolution_param {
    num_output: 64
    pad: 0
    kernel_size: 1
    weight_filler {
      type: "gaussian"
      std: 0.01
    }
    bias_filler {
      type: "constant"
    }
  }
}
layer {
  name: "Mrelu4_stage4"
  type: "ReLU"
  bottom: "Mconv4_stage4"
  top: "Mconv4_stage4"
}
layer {
  name: "Mconv5_stage4"
  type: "Convolution"
  bottom: "Mconv4_stage4"
  top: "Mconv5_stage4"
  param {
    lr_mult: 1
    decay_mult: 1
  }
  param {
    lr_mult: 2
    decay_mult: 0
  }
  convolution_param {
    num_output: 13
    pad: 0
    kernel_size: 1
    weight_filler {
      type: "gaussian"
      std: 0.01
    }
    bias_filler {
      type: "constant"
    }
  }
}
layer {
  name: "loss_stage4"
  type: "EuclideanLoss"
  bottom: "Mconv5_stage4"
  bottom: "label_lower"
  top: "loss_stage4"
}
I1006 21:05:47.159644  7388 layer_factory.hpp:77] Creating layer data
I1006 21:05:47.160640  7388 common.cpp:36] System entropy source not available, using fallback algorithm to generate seed instead.
I1006 21:05:47.160640  7388 net.cpp:100] Creating Layer data
I1006 21:05:47.160640  7388 net.cpp:418] data -> image
I1006 21:05:47.161639  7388 net.cpp:418] data -> label
I1006 21:05:47.161639  7388 data_transformer.cpp:260] DataTransformer constructor done.
I1006 21:05:47.162639 10996 common.cpp:36] System entropy source not available, using fallback algorithm to generate seed instead.
I1006 21:05:47.170629 10996 db_lmdb.cpp:40] Opened lmdb D:/deeplearning/trainingdata/AllData/lmdb/New1
I1006 21:05:47.369452  7388 cpm_data_layer.cpp:62] output data size: 16,1,96,96
I1006 21:05:47.370450  7388 cpm_data_layer.cpp:77] output label size: 16,26,24,24
I1006 21:05:47.375452  7388 net.cpp:150] Setting up data
I1006 21:05:47.375452  7388 net.cpp:157] Top shape: 16 1 96 96 (147456)
I1006 21:05:47.375452  7388 net.cpp:157] Top shape: 16 26 24 24 (239616)
I1006 21:05:47.375452  7388 net.cpp:165] Memory required for data: 1548288
I1006 21:05:47.375452  7388 layer_factory.hpp:77] Creating layer image_data_0_split
I1006 21:05:47.376444  7388 net.cpp:100] Creating Layer image_data_0_split
I1006 21:05:47.376444  7388 net.cpp:444] image_data_0_split <- image
I1006 21:05:47.376444  7388 net.cpp:418] image_data_0_split -> image_data_0_split_0
I1006 21:05:47.376444  7388 net.cpp:418] image_data_0_split -> image_data_0_split_1
I1006 21:05:47.376444  7388 net.cpp:150] Setting up image_data_0_split
I1006 21:05:47.376444  7388 net.cpp:157] Top shape: 16 1 96 96 (147456)
I1006 21:05:47.376444  7388 net.cpp:157] Top shape: 16 1 96 96 (147456)
I1006 21:05:47.377445  7388 net.cpp:165] Memory required for data: 2727936
I1006 21:05:47.377445  7388 layer_factory.hpp:77] Creating layer label_lower
I1006 21:05:47.377445  9104 common.cpp:36] System entropy source not available, using fallback algorithm to generate seed instead.
I1006 21:05:47.377445  7388 net.cpp:100] Creating Layer label_lower
I1006 21:05:47.377445  7388 net.cpp:444] label_lower <- label
I1006 21:05:47.377445  7388 net.cpp:418] label_lower -> label_lower
I1006 21:05:47.377445  7388 net.cpp:418] label_lower -> label_1st_lower
I1006 21:05:47.378443  7388 net.cpp:150] Setting up label_lower
I1006 21:05:47.378443  7388 net.cpp:157] Top shape: 16 13 24 24 (119808)
I1006 21:05:47.378443  7388 net.cpp:157] Top shape: 16 13 24 24 (119808)
I1006 21:05:47.378443  7388 net.cpp:165] Memory required for data: 3686400
I1006 21:05:47.378443  7388 layer_factory.hpp:77] Creating layer label_lower_label_lower_0_split
I1006 21:05:47.378443  7388 net.cpp:100] Creating Layer label_lower_label_lower_0_split
I1006 21:05:47.378443  9104 data_transformer.cpp:71] dataset: Depth; img_size: [512 x 384]; meta.annolist_index: 5022; meta.write_number: 0; meta.total_write_number: 14552; meta.epoch: 0
I1006 21:05:47.378443  7388 net.cpp:444] label_lower_label_lower_0_split <- label_lower
I1006 21:05:47.380440  7388 net.cpp:418] label_lower_label_lower_0_split -> label_lower_label_lower_0_split_0
I1006 21:05:47.380440  7388 net.cpp:418] label_lower_label_lower_0_split -> label_lower_label_lower_0_split_1
I1006 21:05:47.380440  7388 net.cpp:418] label_lower_label_lower_0_split -> label_lower_label_lower_0_split_2
I1006 21:05:47.380440  7388 net.cpp:150] Setting up label_lower_label_lower_0_split
I1006 21:05:47.381441  7388 net.cpp:157] Top shape: 16 13 24 24 (119808)
I1006 21:05:47.381441  7388 net.cpp:157] Top shape: 16 13 24 24 (119808)
I1006 21:05:47.381441  7388 net.cpp:157] Top shape: 16 13 24 24 (119808)
I1006 21:05:47.381441  7388 net.cpp:165] Memory required for data: 5124096
I1006 21:05:47.381441  7388 layer_factory.hpp:77] Creating layer pool_image_lower
I1006 21:05:47.381441  7388 net.cpp:100] Creating Layer pool_image_lower
I1006 21:05:47.381441  7388 net.cpp:444] pool_image_lower <- image_data_0_split_0
I1006 21:05:47.381441  7388 net.cpp:418] pool_image_lower -> pool_image_lower
I1006 21:05:47.701156  7388 net.cpp:150] Setting up pool_image_lower
I1006 21:05:47.701156  7388 net.cpp:157] Top shape: 16 1 24 24 (9216)
I1006 21:05:47.701156  7388 net.cpp:165] Memory required for data: 5160960
I1006 21:05:47.702189  7388 layer_factory.hpp:77] Creating layer pool_image_lower_pool_image_lower_0_split
I1006 21:05:47.702189  7388 net.cpp:100] Creating Layer pool_image_lower_pool_image_lower_0_split
I1006 21:05:47.702189  7388 net.cpp:444] pool_image_lower_pool_image_lower_0_split <- pool_image_lower
I1006 21:05:47.702189  7388 net.cpp:418] pool_image_lower_pool_image_lower_0_split -> pool_image_lower_pool_image_lower_0_split_0
I1006 21:05:47.702189  7388 net.cpp:418] pool_image_lower_pool_image_lower_0_split -> pool_image_lower_pool_image_lower_0_split_1
I1006 21:05:47.702189  7388 net.cpp:418] pool_image_lower_pool_image_lower_0_split -> pool_image_lower_pool_image_lower_0_split_2
I1006 21:05:47.702189  7388 net.cpp:150] Setting up pool_image_lower_pool_image_lower_0_split
I1006 21:05:47.703164  7388 net.cpp:157] Top shape: 16 1 24 24 (9216)
I1006 21:05:47.703164  7388 net.cpp:157] Top shape: 16 1 24 24 (9216)
I1006 21:05:47.703164  7388 net.cpp:157] Top shape: 16 1 24 24 (9216)
I1006 21:05:47.703164  7388 net.cpp:165] Memory required for data: 5271552
I1006 21:05:47.703164  7388 layer_factory.hpp:77] Creating layer conv2_stage1
I1006 21:05:47.703164  7388 net.cpp:100] Creating Layer conv2_stage1
I1006 21:05:47.703164  7388 net.cpp:444] conv2_stage1 <- image_data_0_split_1
I1006 21:05:47.703164  7388 net.cpp:418] conv2_stage1 -> conv2_stage1
I1006 21:05:47.706152  7388 net.cpp:150] Setting up conv2_stage1
I1006 21:05:47.706152  7388 net.cpp:157] Top shape: 16 128 96 96 (18874368)
I1006 21:05:47.706152  7388 net.cpp:165] Memory required for data: 80769024
I1006 21:05:47.707157  7388 layer_factory.hpp:77] Creating layer relu2_stage1
I1006 21:05:47.707157  7388 net.cpp:100] Creating Layer relu2_stage1
I1006 21:05:47.707157  7388 net.cpp:444] relu2_stage1 <- conv2_stage1
I1006 21:05:47.707157  7388 net.cpp:405] relu2_stage1 -> conv2_stage1 (in-place)
I1006 21:05:47.708155  7388 net.cpp:150] Setting up relu2_stage1
I1006 21:05:47.708155  7388 net.cpp:157] Top shape: 16 128 96 96 (18874368)
I1006 21:05:47.708155  7388 net.cpp:165] Memory required for data: 156266496
I1006 21:05:47.708155  7388 layer_factory.hpp:77] Creating layer pool2_stage1
I1006 21:05:47.708155  7388 net.cpp:100] Creating Layer pool2_stage1
I1006 21:05:47.708155  7388 net.cpp:444] pool2_stage1 <- conv2_stage1
I1006 21:05:47.709162  7388 net.cpp:418] pool2_stage1 -> pool2_stage1
I1006 21:05:47.709162  7388 net.cpp:150] Setting up pool2_stage1
I1006 21:05:47.709162  7388 net.cpp:157] Top shape: 16 128 48 48 (4718592)
I1006 21:05:47.709162  7388 net.cpp:165] Memory required for data: 175140864
I1006 21:05:47.709162  7388 layer_factory.hpp:77] Creating layer conv3_stage1
I1006 21:05:47.709162  7388 net.cpp:100] Creating Layer conv3_stage1
I1006 21:05:47.709162  7388 net.cpp:444] conv3_stage1 <- pool2_stage1
I1006 21:05:47.709162  7388 net.cpp:418] conv3_stage1 -> conv3_stage1
I1006 21:05:47.729131  7388 net.cpp:150] Setting up conv3_stage1
I1006 21:05:47.729131  7388 net.cpp:157] Top shape: 16 128 48 48 (4718592)
I1006 21:05:47.729131  7388 net.cpp:165] Memory required for data: 194015232
I1006 21:05:47.730136  7388 layer_factory.hpp:77] Creating layer relu3_stage1
I1006 21:05:47.730136  7388 net.cpp:100] Creating Layer relu3_stage1
I1006 21:05:47.730136  7388 net.cpp:444] relu3_stage1 <- conv3_stage1
I1006 21:05:47.730136  7388 net.cpp:405] relu3_stage1 -> conv3_stage1 (in-place)
I1006 21:05:47.730136  7388 net.cpp:150] Setting up relu3_stage1
I1006 21:05:47.731128  7388 net.cpp:157] Top shape: 16 128 48 48 (4718592)
I1006 21:05:47.731128  7388 net.cpp:165] Memory required for data: 212889600
I1006 21:05:47.731128  7388 layer_factory.hpp:77] Creating layer pool3_stage1
I1006 21:05:47.731128  7388 net.cpp:100] Creating Layer pool3_stage1
I1006 21:05:47.731128  7388 net.cpp:444] pool3_stage1 <- conv3_stage1
I1006 21:05:47.731128  7388 net.cpp:418] pool3_stage1 -> pool3_stage1
I1006 21:05:47.731128  7388 net.cpp:150] Setting up pool3_stage1
I1006 21:05:47.731128  7388 net.cpp:157] Top shape: 16 128 24 24 (1179648)
I1006 21:05:47.731128  7388 net.cpp:165] Memory required for data: 217608192
I1006 21:05:47.731128  7388 layer_factory.hpp:77] Creating layer pool3_stage1_pool3_stage1_0_split
I1006 21:05:47.731128  7388 net.cpp:100] Creating Layer pool3_stage1_pool3_stage1_0_split
I1006 21:05:47.731128  7388 net.cpp:444] pool3_stage1_pool3_stage1_0_split <- pool3_stage1
I1006 21:05:47.732127  7388 net.cpp:418] pool3_stage1_pool3_stage1_0_split -> pool3_stage1_pool3_stage1_0_split_0
I1006 21:05:47.732127  7388 net.cpp:418] pool3_stage1_pool3_stage1_0_split -> pool3_stage1_pool3_stage1_0_split_1
I1006 21:05:47.732127  7388 net.cpp:418] pool3_stage1_pool3_stage1_0_split -> pool3_stage1_pool3_stage1_0_split_2
I1006 21:05:47.732127  7388 net.cpp:418] pool3_stage1_pool3_stage1_0_split -> pool3_stage1_pool3_stage1_0_split_3
I1006 21:05:47.732127  7388 net.cpp:150] Setting up pool3_stage1_pool3_stage1_0_split
I1006 21:05:47.732127  7388 net.cpp:157] Top shape: 16 128 24 24 (1179648)
I1006 21:05:47.732127  7388 net.cpp:157] Top shape: 16 128 24 24 (1179648)
I1006 21:05:47.732127  7388 net.cpp:157] Top shape: 16 128 24 24 (1179648)
I1006 21:05:47.732127  7388 net.cpp:157] Top shape: 16 128 24 24 (1179648)
I1006 21:05:47.732127  7388 net.cpp:165] Memory required for data: 236482560
I1006 21:05:47.732127  7388 layer_factory.hpp:77] Creating layer conv4_stage1
I1006 21:05:47.732127  7388 net.cpp:100] Creating Layer conv4_stage1
I1006 21:05:47.733129  7388 net.cpp:444] conv4_stage1 <- pool3_stage1_pool3_stage1_0_split_0
I1006 21:05:47.733129  7388 net.cpp:418] conv4_stage1 -> conv4_stage1
I1006 21:05:47.739127  7388 net.cpp:150] Setting up conv4_stage1
I1006 21:05:47.740128  7388 net.cpp:157] Top shape: 16 64 24 24 (589824)
I1006 21:05:47.740128  7388 net.cpp:165] Memory required for data: 238841856
I1006 21:05:47.740128  7388 layer_factory.hpp:77] Creating layer relu4_stage1
I1006 21:05:47.740128  7388 net.cpp:100] Creating Layer relu4_stage1
I1006 21:05:47.740128  7388 net.cpp:444] relu4_stage1 <- conv4_stage1
I1006 21:05:47.740128  7388 net.cpp:405] relu4_stage1 -> conv4_stage1 (in-place)
I1006 21:05:47.741120  7388 net.cpp:150] Setting up relu4_stage1
I1006 21:05:47.741120  7388 net.cpp:157] Top shape: 16 64 24 24 (589824)
I1006 21:05:47.741120  7388 net.cpp:165] Memory required for data: 241201152
I1006 21:05:47.741120  7388 layer_factory.hpp:77] Creating layer conv5_stage1
I1006 21:05:47.741120  7388 net.cpp:100] Creating Layer conv5_stage1
I1006 21:05:47.741120  7388 net.cpp:444] conv5_stage1 <- conv4_stage1
I1006 21:05:47.741120  7388 net.cpp:418] conv5_stage1 -> conv5_stage1
I1006 21:05:47.744122  7388 net.cpp:150] Setting up conv5_stage1
I1006 21:05:47.744122  7388 net.cpp:157] Top shape: 16 64 24 24 (589824)
I1006 21:05:47.744122  7388 net.cpp:165] Memory required for data: 243560448
I1006 21:05:47.745117  7388 layer_factory.hpp:77] Creating layer relu5_stage1
I1006 21:05:47.745117  7388 net.cpp:100] Creating Layer relu5_stage1
I1006 21:05:47.745117  7388 net.cpp:444] relu5_stage1 <- conv5_stage1
I1006 21:05:47.745117  7388 net.cpp:405] relu5_stage1 -> conv5_stage1 (in-place)
I1006 21:05:47.745117  7388 net.cpp:150] Setting up relu5_stage1
I1006 21:05:47.745117  7388 net.cpp:157] Top shape: 16 64 24 24 (589824)
I1006 21:05:47.745117  7388 net.cpp:165] Memory required for data: 245919744
I1006 21:05:47.746117  7388 layer_factory.hpp:77] Creating layer drop1_stage1
I1006 21:05:47.746117  7388 net.cpp:100] Creating Layer drop1_stage1
I1006 21:05:47.746117  7388 net.cpp:444] drop1_stage1 <- conv5_stage1
I1006 21:05:47.746117  7388 net.cpp:405] drop1_stage1 -> conv5_stage1 (in-place)
I1006 21:05:47.746117  7388 net.cpp:150] Setting up drop1_stage1
I1006 21:05:47.746117  7388 net.cpp:157] Top shape: 16 64 24 24 (589824)
I1006 21:05:47.746117  7388 net.cpp:165] Memory required for data: 248279040
I1006 21:05:47.746117  7388 layer_factory.hpp:77] Creating layer conv6_stage1
I1006 21:05:47.746117  7388 net.cpp:100] Creating Layer conv6_stage1
I1006 21:05:47.747128  7388 net.cpp:444] conv6_stage1 <- conv5_stage1
I1006 21:05:47.747128  7388 net.cpp:418] conv6_stage1 -> conv6_stage1
I1006 21:05:47.748114  7388 net.cpp:150] Setting up conv6_stage1
I1006 21:05:47.748114  7388 net.cpp:157] Top shape: 16 64 24 24 (589824)
I1006 21:05:47.748114  7388 net.cpp:165] Memory required for data: 250638336
I1006 21:05:47.748114  7388 layer_factory.hpp:77] Creating layer relu6_stage1
I1006 21:05:47.751113  7388 net.cpp:100] Creating Layer relu6_stage1
I1006 21:05:47.751113  7388 net.cpp:444] relu6_stage1 <- conv6_stage1
I1006 21:05:47.751113  7388 net.cpp:405] relu6_stage1 -> conv6_stage1 (in-place)
I1006 21:05:47.751113  7388 net.cpp:150] Setting up relu6_stage1
I1006 21:05:47.751113  7388 net.cpp:157] Top shape: 16 64 24 24 (589824)
I1006 21:05:47.751113  7388 net.cpp:165] Memory required for data: 252997632
I1006 21:05:47.752110  7388 layer_factory.hpp:77] Creating layer drop2_stage1
I1006 21:05:47.752110  7388 net.cpp:100] Creating Layer drop2_stage1
I1006 21:05:47.752110  7388 net.cpp:444] drop2_stage1 <- conv6_stage1
I1006 21:05:47.752110  7388 net.cpp:405] drop2_stage1 -> conv6_stage1 (in-place)
I1006 21:05:47.752110  7388 net.cpp:150] Setting up drop2_stage1
I1006 21:05:47.752110  7388 net.cpp:157] Top shape: 16 64 24 24 (589824)
I1006 21:05:47.752110  7388 net.cpp:165] Memory required for data: 255356928
I1006 21:05:47.752110  7388 layer_factory.hpp:77] Creating layer conv7_stage1
I1006 21:05:47.752110  7388 net.cpp:100] Creating Layer conv7_stage1
I1006 21:05:47.752110  7388 net.cpp:444] conv7_stage1 <- conv6_stage1
I1006 21:05:47.752110  7388 net.cpp:418] conv7_stage1 -> conv7_stage1
I1006 21:05:47.754107  7388 net.cpp:150] Setting up conv7_stage1
I1006 21:05:47.754107  7388 net.cpp:157] Top shape: 16 13 24 24 (119808)
I1006 21:05:47.755106  7388 net.cpp:165] Memory required for data: 255836160
I1006 21:05:47.755106  7388 layer_factory.hpp:77] Creating layer conv7_stage1_conv7_stage1_0_split
I1006 21:05:47.755106  7388 net.cpp:100] Creating Layer conv7_stage1_conv7_stage1_0_split
I1006 21:05:47.755106  7388 net.cpp:444] conv7_stage1_conv7_stage1_0_split <- conv7_stage1
I1006 21:05:47.755106  7388 net.cpp:418] conv7_stage1_conv7_stage1_0_split -> conv7_stage1_conv7_stage1_0_split_0
I1006 21:05:47.755106  7388 net.cpp:418] conv7_stage1_conv7_stage1_0_split -> conv7_stage1_conv7_stage1_0_split_1
I1006 21:05:47.755106  7388 net.cpp:150] Setting up conv7_stage1_conv7_stage1_0_split
I1006 21:05:47.756111  7388 net.cpp:157] Top shape: 16 13 24 24 (119808)
I1006 21:05:47.756111  7388 net.cpp:157] Top shape: 16 13 24 24 (119808)
I1006 21:05:47.756111  7388 net.cpp:165] Memory required for data: 256794624
I1006 21:05:47.756111  7388 layer_factory.hpp:77] Creating layer loss_stage1
I1006 21:05:47.756111  7388 net.cpp:100] Creating Layer loss_stage1
I1006 21:05:47.756111  7388 net.cpp:444] loss_stage1 <- conv7_stage1_conv7_stage1_0_split_0
I1006 21:05:47.756111  7388 net.cpp:444] loss_stage1 <- label_1st_lower
I1006 21:05:47.756111  7388 net.cpp:418] loss_stage1 -> loss_stage1
I1006 21:05:47.756111  7388 net.cpp:150] Setting up loss_stage1
I1006 21:05:47.757107  7388 net.cpp:157] Top shape: (1)
I1006 21:05:47.757107  7388 net.cpp:160]     with loss weight 1
I1006 21:05:47.757107  7388 net.cpp:165] Memory required for data: 256794628
I1006 21:05:47.757107  7388 layer_factory.hpp:77] Creating layer conv1_stage2
I1006 21:05:47.757107  7388 net.cpp:100] Creating Layer conv1_stage2
I1006 21:05:47.757107  7388 net.cpp:444] conv1_stage2 <- pool3_stage1_pool3_stage1_0_split_1
I1006 21:05:47.757107  7388 net.cpp:418] conv1_stage2 -> conv1_stage2
I1006 21:05:47.761101  7388 net.cpp:150] Setting up conv1_stage2
I1006 21:05:47.762099  7388 net.cpp:157] Top shape: 16 64 24 24 (589824)
I1006 21:05:47.762099  7388 net.cpp:165] Memory required for data: 259153924
I1006 21:05:47.762099  7388 layer_factory.hpp:77] Creating layer relu1_stage2
I1006 21:05:47.762099  7388 net.cpp:100] Creating Layer relu1_stage2
I1006 21:05:47.762099  7388 net.cpp:444] relu1_stage2 <- conv1_stage2
I1006 21:05:47.762099  7388 net.cpp:405] relu1_stage2 -> conv1_stage2 (in-place)
I1006 21:05:47.762099  7388 net.cpp:150] Setting up relu1_stage2
I1006 21:05:47.763098  7388 net.cpp:157] Top shape: 16 64 24 24 (589824)
I1006 21:05:47.763098  7388 net.cpp:165] Memory required for data: 261513220
I1006 21:05:47.763098  7388 layer_factory.hpp:77] Creating layer concat_stage2
I1006 21:05:47.763098  7388 net.cpp:100] Creating Layer concat_stage2
I1006 21:05:47.763098  7388 net.cpp:444] concat_stage2 <- conv1_stage2
I1006 21:05:47.763098  7388 net.cpp:444] concat_stage2 <- conv7_stage1_conv7_stage1_0_split_1
I1006 21:05:47.763098  7388 net.cpp:444] concat_stage2 <- pool_image_lower_pool_image_lower_0_split_0
I1006 21:05:47.763098  7388 net.cpp:418] concat_stage2 -> concat_stage2
I1006 21:05:47.763098  7388 net.cpp:150] Setting up concat_stage2
I1006 21:05:47.763098  7388 net.cpp:157] Top shape: 16 78 24 24 (718848)
I1006 21:05:47.764097  7388 net.cpp:165] Memory required for data: 264388612
I1006 21:05:47.764097  7388 layer_factory.hpp:77] Creating layer Mconv1_stage2
I1006 21:05:47.764097  7388 net.cpp:100] Creating Layer Mconv1_stage2
I1006 21:05:47.764097  7388 net.cpp:444] Mconv1_stage2 <- concat_stage2
I1006 21:05:47.764097  7388 net.cpp:418] Mconv1_stage2 -> Mconv1_stage2
I1006 21:05:47.767096  7388 net.cpp:150] Setting up Mconv1_stage2
I1006 21:05:47.767096  7388 net.cpp:157] Top shape: 16 64 24 24 (589824)
I1006 21:05:47.767096  7388 net.cpp:165] Memory required for data: 266747908
I1006 21:05:47.767096  7388 layer_factory.hpp:77] Creating layer Mrelu1_stage2
I1006 21:05:47.767096  7388 net.cpp:100] Creating Layer Mrelu1_stage2
I1006 21:05:47.767096  7388 net.cpp:444] Mrelu1_stage2 <- Mconv1_stage2
I1006 21:05:47.768097  7388 net.cpp:405] Mrelu1_stage2 -> Mconv1_stage2 (in-place)
I1006 21:05:47.769094  7388 net.cpp:150] Setting up Mrelu1_stage2
I1006 21:05:47.770092  7388 net.cpp:157] Top shape: 16 64 24 24 (589824)
I1006 21:05:47.771092  7388 net.cpp:165] Memory required for data: 269107204
I1006 21:05:47.771092  7388 layer_factory.hpp:77] Creating layer Mconv3_stage2
I1006 21:05:47.771092  7388 net.cpp:100] Creating Layer Mconv3_stage2
I1006 21:05:47.771092  7388 net.cpp:444] Mconv3_stage2 <- Mconv1_stage2
I1006 21:05:47.771092  7388 net.cpp:418] Mconv3_stage2 -> Mconv3_stage2
I1006 21:05:47.773092  7388 net.cpp:150] Setting up Mconv3_stage2
I1006 21:05:47.774089  7388 net.cpp:157] Top shape: 16 64 24 24 (589824)
I1006 21:05:47.774089  7388 net.cpp:165] Memory required for data: 271466500
I1006 21:05:47.774089  7388 layer_factory.hpp:77] Creating layer Mrelu3_stage2
I1006 21:05:47.774089  7388 net.cpp:100] Creating Layer Mrelu3_stage2
I1006 21:05:47.774089  7388 net.cpp:444] Mrelu3_stage2 <- Mconv3_stage2
I1006 21:05:47.774089  7388 net.cpp:405] Mrelu3_stage2 -> Mconv3_stage2 (in-place)
I1006 21:05:47.775094  7388 net.cpp:150] Setting up Mrelu3_stage2
I1006 21:05:47.775094  7388 net.cpp:157] Top shape: 16 64 24 24 (589824)
I1006 21:05:47.775094  7388 net.cpp:165] Memory required for data: 273825796
I1006 21:05:47.775094  7388 layer_factory.hpp:77] Creating layer Mconv4_stage2
I1006 21:05:47.775094  7388 net.cpp:100] Creating Layer Mconv4_stage2
I1006 21:05:47.775094  7388 net.cpp:444] Mconv4_stage2 <- Mconv3_stage2
I1006 21:05:47.775094  7388 net.cpp:418] Mconv4_stage2 -> Mconv4_stage2
I1006 21:05:47.777092  7388 net.cpp:150] Setting up Mconv4_stage2
I1006 21:05:47.777092  7388 net.cpp:157] Top shape: 16 64 24 24 (589824)
I1006 21:05:47.777092  7388 net.cpp:165] Memory required for data: 276185092
I1006 21:05:47.777092  7388 layer_factory.hpp:77] Creating layer Mrelu4_stage2
I1006 21:05:47.777092  7388 net.cpp:100] Creating Layer Mrelu4_stage2
I1006 21:05:47.778087  7388 net.cpp:444] Mrelu4_stage2 <- Mconv4_stage2
I1006 21:05:47.778087  7388 net.cpp:405] Mrelu4_stage2 -> Mconv4_stage2 (in-place)
I1006 21:05:47.778087  7388 net.cpp:150] Setting up Mrelu4_stage2
I1006 21:05:47.778087  7388 net.cpp:157] Top shape: 16 64 24 24 (589824)
I1006 21:05:47.778087  7388 net.cpp:165] Memory required for data: 278544388
I1006 21:05:47.778087  7388 layer_factory.hpp:77] Creating layer Mconv5_stage2
I1006 21:05:47.778087  7388 net.cpp:100] Creating Layer Mconv5_stage2
I1006 21:05:47.778087  7388 net.cpp:444] Mconv5_stage2 <- Mconv4_stage2
I1006 21:05:47.778087  7388 net.cpp:418] Mconv5_stage2 -> Mconv5_stage2
I1006 21:05:47.780084  7388 net.cpp:150] Setting up Mconv5_stage2
I1006 21:05:47.780084  7388 net.cpp:157] Top shape: 16 13 24 24 (119808)
I1006 21:05:47.780084  7388 net.cpp:165] Memory required for data: 279023620
I1006 21:05:47.780084  7388 layer_factory.hpp:77] Creating layer Mconv5_stage2_Mconv5_stage2_0_split
I1006 21:05:47.780084  7388 net.cpp:100] Creating Layer Mconv5_stage2_Mconv5_stage2_0_split
I1006 21:05:47.780084  7388 net.cpp:444] Mconv5_stage2_Mconv5_stage2_0_split <- Mconv5_stage2
I1006 21:05:47.781085  7388 net.cpp:418] Mconv5_stage2_Mconv5_stage2_0_split -> Mconv5_stage2_Mconv5_stage2_0_split_0
I1006 21:05:47.781085  7388 net.cpp:418] Mconv5_stage2_Mconv5_stage2_0_split -> Mconv5_stage2_Mconv5_stage2_0_split_1
I1006 21:05:47.781085  7388 net.cpp:150] Setting up Mconv5_stage2_Mconv5_stage2_0_split
I1006 21:05:47.781085  7388 net.cpp:157] Top shape: 16 13 24 24 (119808)
I1006 21:05:47.781085  7388 net.cpp:157] Top shape: 16 13 24 24 (119808)
I1006 21:05:47.781085  7388 net.cpp:165] Memory required for data: 279982084
I1006 21:05:47.781085  7388 layer_factory.hpp:77] Creating layer loss_stage2
I1006 21:05:47.781085  7388 net.cpp:100] Creating Layer loss_stage2
I1006 21:05:47.781085  7388 net.cpp:444] loss_stage2 <- Mconv5_stage2_Mconv5_stage2_0_split_0
I1006 21:05:47.781085  7388 net.cpp:444] loss_stage2 <- label_lower_label_lower_0_split_0
I1006 21:05:47.782084  7388 net.cpp:418] loss_stage2 -> loss_stage2
I1006 21:05:47.782084  7388 net.cpp:150] Setting up loss_stage2
I1006 21:05:47.782084  7388 net.cpp:157] Top shape: (1)
I1006 21:05:47.782084  7388 net.cpp:160]     with loss weight 1
I1006 21:05:47.782084  7388 net.cpp:165] Memory required for data: 279982088
I1006 21:05:47.782084  7388 layer_factory.hpp:77] Creating layer conv1_stage3
I1006 21:05:47.782084  7388 net.cpp:100] Creating Layer conv1_stage3
I1006 21:05:47.782084  7388 net.cpp:444] conv1_stage3 <- pool3_stage1_pool3_stage1_0_split_2
I1006 21:05:47.782084  7388 net.cpp:418] conv1_stage3 -> conv1_stage3
I1006 21:05:47.788077  7388 net.cpp:150] Setting up conv1_stage3
I1006 21:05:47.788077  7388 net.cpp:157] Top shape: 16 64 24 24 (589824)
I1006 21:05:47.788077  7388 net.cpp:165] Memory required for data: 282341384
I1006 21:05:47.788077  7388 layer_factory.hpp:77] Creating layer relu1_stage3
I1006 21:05:47.788077  7388 net.cpp:100] Creating Layer relu1_stage3
I1006 21:05:47.788077  7388 net.cpp:444] relu1_stage3 <- conv1_stage3
I1006 21:05:47.788077  7388 net.cpp:405] relu1_stage3 -> conv1_stage3 (in-place)
I1006 21:05:47.788077  7388 net.cpp:150] Setting up relu1_stage3
I1006 21:05:47.791080  7388 net.cpp:157] Top shape: 16 64 24 24 (589824)
I1006 21:05:47.791080  7388 net.cpp:165] Memory required for data: 284700680
I1006 21:05:47.791080  7388 layer_factory.hpp:77] Creating layer concat_stage3
I1006 21:05:47.791080  7388 net.cpp:100] Creating Layer concat_stage3
I1006 21:05:47.791080  7388 net.cpp:444] concat_stage3 <- conv1_stage3
I1006 21:05:47.791080  7388 net.cpp:444] concat_stage3 <- Mconv5_stage2_Mconv5_stage2_0_split_1
I1006 21:05:47.791080  7388 net.cpp:444] concat_stage3 <- pool_image_lower_pool_image_lower_0_split_1
I1006 21:05:47.791080  7388 net.cpp:418] concat_stage3 -> concat_stage3
I1006 21:05:47.791080  7388 net.cpp:150] Setting up concat_stage3
I1006 21:05:47.791080  7388 net.cpp:157] Top shape: 16 78 24 24 (718848)
I1006 21:05:47.792075  7388 net.cpp:165] Memory required for data: 287576072
I1006 21:05:47.792075  7388 layer_factory.hpp:77] Creating layer Mconv1_stage3
I1006 21:05:47.792075  7388 net.cpp:100] Creating Layer Mconv1_stage3
I1006 21:05:47.792075  7388 net.cpp:444] Mconv1_stage3 <- concat_stage3
I1006 21:05:47.792075  7388 net.cpp:418] Mconv1_stage3 -> Mconv1_stage3
I1006 21:05:47.795084  7388 net.cpp:150] Setting up Mconv1_stage3
I1006 21:05:47.795084  7388 net.cpp:157] Top shape: 16 64 24 24 (589824)
I1006 21:05:47.795084  7388 net.cpp:165] Memory required for data: 289935368
I1006 21:05:47.795084  7388 layer_factory.hpp:77] Creating layer Mrelu1_stage3
I1006 21:05:47.795084  7388 net.cpp:100] Creating Layer Mrelu1_stage3
I1006 21:05:47.795084  7388 net.cpp:444] Mrelu1_stage3 <- Mconv1_stage3
I1006 21:05:47.795084  7388 net.cpp:405] Mrelu1_stage3 -> Mconv1_stage3 (in-place)
I1006 21:05:47.796072  7388 net.cpp:150] Setting up Mrelu1_stage3
I1006 21:05:47.796072  7388 net.cpp:157] Top shape: 16 64 24 24 (589824)
I1006 21:05:47.796072  7388 net.cpp:165] Memory required for data: 292294664
I1006 21:05:47.796072  7388 layer_factory.hpp:77] Creating layer Mconv3_stage3
I1006 21:05:47.796072  7388 net.cpp:100] Creating Layer Mconv3_stage3
I1006 21:05:47.796072  7388 net.cpp:444] Mconv3_stage3 <- Mconv1_stage3
I1006 21:05:47.796072  7388 net.cpp:418] Mconv3_stage3 -> Mconv3_stage3
I1006 21:05:47.800068  7388 net.cpp:150] Setting up Mconv3_stage3
I1006 21:05:47.801067  7388 net.cpp:157] Top shape: 16 64 24 24 (589824)
I1006 21:05:47.801067  7388 net.cpp:165] Memory required for data: 294653960
I1006 21:05:47.801067  7388 layer_factory.hpp:77] Creating layer Mrelu3_stage3
I1006 21:05:47.802068  7388 net.cpp:100] Creating Layer Mrelu3_stage3
I1006 21:05:47.802068  7388 net.cpp:444] Mrelu3_stage3 <- Mconv3_stage3
I1006 21:05:47.802068  7388 net.cpp:405] Mrelu3_stage3 -> Mconv3_stage3 (in-place)
I1006 21:05:47.803064  7388 net.cpp:150] Setting up Mrelu3_stage3
I1006 21:05:47.803064  7388 net.cpp:157] Top shape: 16 64 24 24 (589824)
I1006 21:05:47.803064  7388 net.cpp:165] Memory required for data: 297013256
I1006 21:05:47.803064  7388 layer_factory.hpp:77] Creating layer Mconv4_stage3
I1006 21:05:47.803064  7388 net.cpp:100] Creating Layer Mconv4_stage3
I1006 21:05:47.803064  7388 net.cpp:444] Mconv4_stage3 <- Mconv3_stage3
I1006 21:05:47.803064  7388 net.cpp:418] Mconv4_stage3 -> Mconv4_stage3
I1006 21:05:47.805063  7388 net.cpp:150] Setting up Mconv4_stage3
I1006 21:05:47.805063  7388 net.cpp:157] Top shape: 16 64 24 24 (589824)
I1006 21:05:47.805063  7388 net.cpp:165] Memory required for data: 299372552
I1006 21:05:47.805063  7388 layer_factory.hpp:77] Creating layer Mrelu4_stage3
I1006 21:05:47.805063  7388 net.cpp:100] Creating Layer Mrelu4_stage3
I1006 21:05:47.805063  7388 net.cpp:444] Mrelu4_stage3 <- Mconv4_stage3
I1006 21:05:47.805063  7388 net.cpp:405] Mrelu4_stage3 -> Mconv4_stage3 (in-place)
I1006 21:05:47.806062  7388 net.cpp:150] Setting up Mrelu4_stage3
I1006 21:05:47.806062  7388 net.cpp:157] Top shape: 16 64 24 24 (589824)
I1006 21:05:47.806062  7388 net.cpp:165] Memory required for data: 301731848
I1006 21:05:47.806062  7388 layer_factory.hpp:77] Creating layer Mconv5_stage3
I1006 21:05:47.806062  7388 net.cpp:100] Creating Layer Mconv5_stage3
I1006 21:05:47.806062  7388 net.cpp:444] Mconv5_stage3 <- Mconv4_stage3
I1006 21:05:47.806062  7388 net.cpp:418] Mconv5_stage3 -> Mconv5_stage3
I1006 21:05:47.808060  7388 net.cpp:150] Setting up Mconv5_stage3
I1006 21:05:47.808060  7388 net.cpp:157] Top shape: 16 13 24 24 (119808)
I1006 21:05:47.808060  7388 net.cpp:165] Memory required for data: 302211080
I1006 21:05:47.808060  7388 layer_factory.hpp:77] Creating layer Mconv5_stage3_Mconv5_stage3_0_split
I1006 21:05:47.808060  7388 net.cpp:100] Creating Layer Mconv5_stage3_Mconv5_stage3_0_split
I1006 21:05:47.808060  7388 net.cpp:444] Mconv5_stage3_Mconv5_stage3_0_split <- Mconv5_stage3
I1006 21:05:47.808060  7388 net.cpp:418] Mconv5_stage3_Mconv5_stage3_0_split -> Mconv5_stage3_Mconv5_stage3_0_split_0
I1006 21:05:47.809059  7388 net.cpp:418] Mconv5_stage3_Mconv5_stage3_0_split -> Mconv5_stage3_Mconv5_stage3_0_split_1
I1006 21:05:47.809059  7388 net.cpp:150] Setting up Mconv5_stage3_Mconv5_stage3_0_split
I1006 21:05:47.809059  7388 net.cpp:157] Top shape: 16 13 24 24 (119808)
I1006 21:05:47.809059  7388 net.cpp:157] Top shape: 16 13 24 24 (119808)
I1006 21:05:47.809059  7388 net.cpp:165] Memory required for data: 303169544
I1006 21:05:47.809059  7388 layer_factory.hpp:77] Creating layer loss_stage3
I1006 21:05:47.809059  7388 net.cpp:100] Creating Layer loss_stage3
I1006 21:05:47.809059  7388 net.cpp:444] loss_stage3 <- Mconv5_stage3_Mconv5_stage3_0_split_0
I1006 21:05:47.809059  7388 net.cpp:444] loss_stage3 <- label_lower_label_lower_0_split_1
I1006 21:05:47.809059  7388 net.cpp:418] loss_stage3 -> loss_stage3
I1006 21:05:47.809059  7388 net.cpp:150] Setting up loss_stage3
I1006 21:05:47.809059  7388 net.cpp:157] Top shape: (1)
I1006 21:05:47.809059  7388 net.cpp:160]     with loss weight 1
I1006 21:05:47.812062  7388 net.cpp:165] Memory required for data: 303169548
I1006 21:05:47.812062  7388 layer_factory.hpp:77] Creating layer conv1_stage4
I1006 21:05:47.812062  7388 net.cpp:100] Creating Layer conv1_stage4
I1006 21:05:47.812062  7388 net.cpp:444] conv1_stage4 <- pool3_stage1_pool3_stage1_0_split_3
I1006 21:05:47.812062  7388 net.cpp:418] conv1_stage4 -> conv1_stage4
I1006 21:05:47.815057  7388 net.cpp:150] Setting up conv1_stage4
I1006 21:05:47.815057  7388 net.cpp:157] Top shape: 16 32 24 24 (294912)
I1006 21:05:47.816052  7388 net.cpp:165] Memory required for data: 304349196
I1006 21:05:47.816052  7388 layer_factory.hpp:77] Creating layer relu1_stage4
I1006 21:05:47.816052  7388 net.cpp:100] Creating Layer relu1_stage4
I1006 21:05:47.816052  7388 net.cpp:444] relu1_stage4 <- conv1_stage4
I1006 21:05:47.816052  7388 net.cpp:405] relu1_stage4 -> conv1_stage4 (in-place)
I1006 21:05:47.816052  7388 net.cpp:150] Setting up relu1_stage4
I1006 21:05:47.816052  7388 net.cpp:157] Top shape: 16 32 24 24 (294912)
I1006 21:05:47.816052  7388 net.cpp:165] Memory required for data: 305528844
I1006 21:05:47.817051  7388 layer_factory.hpp:77] Creating layer concat_stage4
I1006 21:05:47.817051  7388 net.cpp:100] Creating Layer concat_stage4
I1006 21:05:47.817051  7388 net.cpp:444] concat_stage4 <- conv1_stage4
I1006 21:05:47.817051  7388 net.cpp:444] concat_stage4 <- Mconv5_stage3_Mconv5_stage3_0_split_1
I1006 21:05:47.817051  7388 net.cpp:444] concat_stage4 <- pool_image_lower_pool_image_lower_0_split_2
I1006 21:05:47.817051  7388 net.cpp:418] concat_stage4 -> concat_stage4
I1006 21:05:47.817051  7388 net.cpp:150] Setting up concat_stage4
I1006 21:05:47.817051  7388 net.cpp:157] Top shape: 16 46 24 24 (423936)
I1006 21:05:47.817051  7388 net.cpp:165] Memory required for data: 307224588
I1006 21:05:47.817051  7388 layer_factory.hpp:77] Creating layer Mconv1_stage4
I1006 21:05:47.817051  7388 net.cpp:100] Creating Layer Mconv1_stage4
I1006 21:05:47.817051  7388 net.cpp:444] Mconv1_stage4 <- concat_stage4
I1006 21:05:47.817051  7388 net.cpp:418] Mconv1_stage4 -> Mconv1_stage4
I1006 21:05:47.820049  7388 net.cpp:150] Setting up Mconv1_stage4
I1006 21:05:47.820049  7388 net.cpp:157] Top shape: 16 64 24 24 (589824)
I1006 21:05:47.820049  7388 net.cpp:165] Memory required for data: 309583884
I1006 21:05:47.820049  7388 layer_factory.hpp:77] Creating layer Mrelu1_stage4
I1006 21:05:47.822049  7388 net.cpp:100] Creating Layer Mrelu1_stage4
I1006 21:05:47.822049  7388 net.cpp:444] Mrelu1_stage4 <- Mconv1_stage4
I1006 21:05:47.822049  7388 net.cpp:405] Mrelu1_stage4 -> Mconv1_stage4 (in-place)
I1006 21:05:47.823046  7388 net.cpp:150] Setting up Mrelu1_stage4
I1006 21:05:47.823046  7388 net.cpp:157] Top shape: 16 64 24 24 (589824)
I1006 21:05:47.823046  7388 net.cpp:165] Memory required for data: 311943180
I1006 21:05:47.824045  7388 layer_factory.hpp:77] Creating layer Mconv3_stage4
I1006 21:05:47.824045  7388 net.cpp:100] Creating Layer Mconv3_stage4
I1006 21:05:47.824045  7388 net.cpp:444] Mconv3_stage4 <- Mconv1_stage4
I1006 21:05:47.824045  7388 net.cpp:418] Mconv3_stage4 -> Mconv3_stage4
I1006 21:05:47.827044  7388 net.cpp:150] Setting up Mconv3_stage4
I1006 21:05:47.828049  7388 net.cpp:157] Top shape: 16 64 24 24 (589824)
I1006 21:05:47.828049  7388 net.cpp:165] Memory required for data: 314302476
I1006 21:05:47.828049  7388 layer_factory.hpp:77] Creating layer Mrelu3_stage4
I1006 21:05:47.828049  7388 net.cpp:100] Creating Layer Mrelu3_stage4
I1006 21:05:47.828049  7388 net.cpp:444] Mrelu3_stage4 <- Mconv3_stage4
I1006 21:05:47.828049  7388 net.cpp:405] Mrelu3_stage4 -> Mconv3_stage4 (in-place)
I1006 21:05:47.828049  7388 net.cpp:150] Setting up Mrelu3_stage4
I1006 21:05:47.828049  7388 net.cpp:157] Top shape: 16 64 24 24 (589824)
I1006 21:05:47.829041  7388 net.cpp:165] Memory required for data: 316661772
I1006 21:05:47.829041  7388 layer_factory.hpp:77] Creating layer Mconv4_stage4
I1006 21:05:47.829041  7388 net.cpp:100] Creating Layer Mconv4_stage4
I1006 21:05:47.829041  7388 net.cpp:444] Mconv4_stage4 <- Mconv3_stage4
I1006 21:05:47.829041  7388 net.cpp:418] Mconv4_stage4 -> Mconv4_stage4
I1006 21:05:47.830041  7388 net.cpp:150] Setting up Mconv4_stage4
I1006 21:05:47.830041  7388 net.cpp:157] Top shape: 16 64 24 24 (589824)
I1006 21:05:47.830041  7388 net.cpp:165] Memory required for data: 319021068
I1006 21:05:47.832038  7388 layer_factory.hpp:77] Creating layer Mrelu4_stage4
I1006 21:05:47.832038  7388 net.cpp:100] Creating Layer Mrelu4_stage4
I1006 21:05:47.832038  7388 net.cpp:444] Mrelu4_stage4 <- Mconv4_stage4
I1006 21:05:47.832038  7388 net.cpp:405] Mrelu4_stage4 -> Mconv4_stage4 (in-place)
I1006 21:05:47.833039  7388 net.cpp:150] Setting up Mrelu4_stage4
I1006 21:05:47.833039  7388 net.cpp:157] Top shape: 16 64 24 24 (589824)
I1006 21:05:47.833039  7388 net.cpp:165] Memory required for data: 321380364
I1006 21:05:47.833039  7388 layer_factory.hpp:77] Creating layer Mconv5_stage4
I1006 21:05:47.833039  7388 net.cpp:100] Creating Layer Mconv5_stage4
I1006 21:05:47.833039  7388 net.cpp:444] Mconv5_stage4 <- Mconv4_stage4
I1006 21:05:47.833039  7388 net.cpp:418] Mconv5_stage4 -> Mconv5_stage4
I1006 21:05:47.835037  7388 net.cpp:150] Setting up Mconv5_stage4
I1006 21:05:47.835037  7388 net.cpp:157] Top shape: 16 13 24 24 (119808)
I1006 21:05:47.835037  7388 net.cpp:165] Memory required for data: 321859596
I1006 21:05:47.836033  7388 layer_factory.hpp:77] Creating layer loss_stage4
I1006 21:05:47.836033  7388 net.cpp:100] Creating Layer loss_stage4
I1006 21:05:47.836033  7388 net.cpp:444] loss_stage4 <- Mconv5_stage4
I1006 21:05:47.836033  7388 net.cpp:444] loss_stage4 <- label_lower_label_lower_0_split_2
…
