…
  phase: TRAIN
  level: 0
  stage: ""
}
layer {
  name: "data"
  type: "CPMData"
  top: "image"
  top: "label"
  transform_param {
    stride: 4
    max_rotate_degree: 40
    crop_size_x: 96
    crop_size_y: 96
    scale_prob: 1
    scale_min: 0.9
    scale_max: 1.3
    target_dist: 1.171
    center_perterb_max: 0
    sigma: 4
    do_clahe: false
    num_parts: 12
    gray: 1
    np_in_lmdb: 12
    put_gaussian: false
  }
  cpmdata_param {
    source: "D:/deeplearning/trainingdata/AllData/lmdb/Depth_half4_v1"
    batch_size: 16
    backend: LMDB
  }
}
layer {
  name: "label_lower"
  type: "Slice"
  bottom: "label"
  top: "label_lower"
  top: "label_1st_lower"
  slice_param {
    slice_point: 13
    axis: 1
  }
}
layer {
  name: "pool_image_lower"
  type: "Pooling"
  bottom: "image"
  top: "pool_image_lower"
  pooling_param {
    pool: AVE
    kernel_size: 4
    stride: 4
  }
}
layer {
  name: "conv2_stage1"
  type: "Convolution"
  bottom: "image"
  top: "conv2_stage1"
  param {
    lr_mult: 5
    decay_mult: 1
  }
  param {
    lr_mult: 10
    decay_mult: 0
  }
  convolution_param {
    num_output: 128
    pad: 4
    kernel_size: 9
    weight_filler {
      type: "gaussian"
      std: 0.01
    }
    bias_filler {
      type: "constant"
    }
  }
}
layer {
  name: "relu2_stage1"
  type: "ReLU"
  bottom: "conv2_stage1"
  top: "conv2_stage1"
}
layer {
  name: "pool2_stage1"
  type: "Pooling"
  bottom: "conv2_stage1"
  top: "pool2_stage1"
  pooling_param {
    pool: MAX
    kernel_size: 3
    stride: 2
  }
}
layer {
  name: "conv3_stage1"
  type: "Convolution"
  bottom: "pool2_stage1"
  top: "conv3_stage1"
  param {
    lr_mult: 5
    decay_mult: 1
  }
  param {
    lr_mult: 10
    decay_mult: 0
  }
  convolution_param {
    num_output: 128
    pad: 4
    kernel_size: 9
    weight_filler {
      type: "gaussian"
      std: 0.01
    }
    bias_filler {
      type: "constant"
    }
  }
}
layer {
  name: "relu3_stage1"
  type: "ReLU"
  bottom: "conv3_stage1"
  top: "conv3_stage1"
}
layer {
  name: "pool3_stage1"
  type: "Pooling"
  bottom: "conv3_stage1"
  top: "pool3_stage1"
  pooling_param {
    pool: MAX
    kernel_size: 3
    stride: 2
  }
}
layer {
  name: "conv4_stage1"
  type: "Convolution"
  bottom: "pool3_stage1"
  top: "conv4_stage1"
  param {
    lr_mult: 5
    decay_mult: 1
  }
  param {
    lr_mult: 10
    decay_mult: 0
  }
  convolution_param {
    num_output: 64
    pad: 2
    kernel_size: 5
    weight_filler {
      type: "gaussian"
      std: 0.01
    }
    bias_filler {
      type: "constant"
    }
  }
}
layer {
  name: "relu4_stage1"
  type: "ReLU"
  bottom: "conv4_stage1"
  top: "conv4_stage1"
}
layer {
  name: "drop1_stage1"
  type: "Dropout"
  bottom: "conv4_stage1"
  top: "conv4_stage1"
  dropout_param {
    dropout_ratio: 0.5
  }
}
layer {
  name: "conv6_stage1"
  type: "Convolution"
  bottom: "conv4_stage1"
  top: "conv6_stage1"
  param {
    lr_mult: 5
    decay_mult: 1
  }
  param {
    lr_mult: 10
    decay_mult: 0
  }
  convolution_param {
    num_output: 64
    pad: 0
    kernel_size: 1
    weight_filler {
      type: "gaussian"
      std: 0.01
    }
    bias_filler {
      type: "constant"
    }
  }
}
layer {
  name: "relu6_stage1"
  type: "ReLU"
  bottom: "conv6_stage1"
  top: "conv6_stage1"
}
layer {
  name: "drop2_stage1"
  type: "Dropout"
  bottom: "conv6_stage1"
  top: "conv6_stage1"
  dropout_param {
    dropout_ratio: 0.5
  }
}
layer {
  name: "conv7_stage1"
  type: "Convolution"
  bottom: "conv6_stage1"
  top: "conv7_stage1"
  param {
    lr_mult: 5
    decay_mult: 1
  }
  param {
    lr_mult: 10
    decay_mult: 0
  }
  convolution_param {
    num_output: 13
    pad: 0
    kernel_size: 1
    weight_filler {
      type: "gaussian"
      std: 0.01
    }
    bias_filler {
      type: "constant"
    }
  }
}
layer {
  name: "loss_stage1"
  type: "EuclideanLoss"
  bottom: "conv7_stage1"
  bottom: "label_1st_lower"
  top: "loss_stage1"
}
layer {
  name: "conv1_stage2"
  type: "Convolution"
  bottom: "pool3_stage1"
  top: "conv1_stage2"
  param {
    lr_mult: 1
    decay_mult: 1
  }
  param {
    lr_mult: 2
    decay_mult: 0
  }
  convolution_param {
    num_output: 64
    pad: 2
    kernel_size: 5
    weight_filler {
      type: "gaussian"
      std: 0.01
    }
    bias_filler {
      type: "constant"
    }
  }
}
layer {
  name: "relu1_stage2"
  type: "ReLU"
  bottom: "conv1_stage2"
  top: "conv1_stage2"
}
layer {
  name: "concat_stage2"
  type: "Concat"
  bottom: "conv1_stage2"
  bottom: "conv7_stage1"
  bottom: "pool_image_lower"
  top: "concat_stage2"
  concat_param {
    axis: 1
  }
}
layer {
  name: "Mconv1_stage2"
  type: "Convolution"
  bottom: "concat_stage2"
  top: "Mconv1_stage2"
  param {
    lr_mult: 1
    decay_mult: 1
  }
  param {
    lr_mult: 2
    decay_mult: 0
  }
  convolution_param {
    num_output: 64
    pad: 5
    kernel_size: 11
    weight_filler {
      type: "gaussian"
      std: 0.01
    }
    bias_filler {
      type: "constant"
    }
  }
}
layer {
  name: "Mrelu1_stage2"
  type: "ReLU"
  bottom: "Mconv1_stage2"
  top: "Mconv1_stage2"
}
layer {
  name: "Mconv3_stage2"
  type: "Convolution"
  bottom: "Mconv1_stage2"
  top: "Mconv3_stage2"
  param {
    lr_mult: 1
    decay_mult: 1
  }
  param {
    lr_mult: 2
    decay_mult: 0
  }
  convolution_param {
    num_output: 64
    pad: 5
    kernel_size: 11
    weight_filler {
      type: "gaussian"
      std: 0.01
    }
    bias_filler {
      type: "constant"
    }
  }
}
layer {
  name: "Mrelu3_stage2"
  type: "ReLU"
  bottom: "Mconv3_stage2"
  top: "Mconv3_stage2"
}
layer {
  name: "Mconv4_stage2"
  type: "Convolution"
  bottom: "Mconv3_stage2"
  top: "Mconv4_stage2"
  param {
    lr_mult: 1
    decay_mult: 1
  }
  param {
    lr_mult: 2
    decay_mult: 0
  }
  convolution_param {
    num_output: 64
    pad: 0
    kernel_size: 1
    weight_filler {
      type: "gaussian"
      std: 0.01
    }
    bias_filler {
      type: "constant"
    }
  }
}
layer {
  name: "Mrelu4_stage2"
  type: "ReLU"
  bottom: "Mconv4_stage2"
  top: "Mconv4_stage2"
}
layer {
  name: "Mconv5_stage2"
  type: "Convolution"
  bottom: "Mconv4_stage2"
  top: "Mconv5_stage2"
  param {
    lr_mult: 1
    decay_mult: 1
  }
  param {
    lr_mult: 2
    decay_mult: 0
  }
  convolution_param {
    num_output: 13
    pad: 0
    kernel_size: 1
    weight_filler {
      type: "gaussian"
      std: 0.01
    }
    bias_filler {
      type: "constant"
    }
  }
}
layer {
  name: "loss_stage2"
  type: "EuclideanLoss"
  bottom: "Mconv5_stage2"
  bottom: "label_lower"
  top: "loss_stage2"
}
layer {
  name: "conv1_stage3"
  type: "Convolution"
  bottom: "pool3_stage1"
  top: "conv1_stage3"
  param {
    lr_mult: 1
    decay_mult: 1
  }
  param {
    lr_mult: 2
    decay_mult: 0
  }
  convolution_param {
    num_output: 64
    pad: 2
    kernel_size: 5
    weight_filler {
      type: "gaussian"
      std: 0.01
    }
    bias_filler {
      type: "constant"
    }
  }
}
layer {
  name: "relu1_stage3"
  type: "ReLU"
  bottom: "conv1_stage3"
  top: "conv1_stage3"
}
layer {
  name: "concat_stage3"
  type: "Concat"
  bottom: "conv1_stage3"
  bottom: "Mconv5_stage2"
  bottom: "pool_image_lower"
  top: "concat_stage3"
  concat_param {
    axis: 1
  }
}
layer {
  name: "Mconv1_stage3"
  type: "Convolution"
  bottom: "concat_stage3"
  top: "Mconv1_stage3"
  param {
    lr_mult: 1
    decay_mult: 1
  }
  param {
    lr_mult: 2
    decay_mult: 0
  }
  convolution_param {
    num_output: 64
    pad: 5
    kernel_size: 11
    weight_filler {
      type: "gaussian"
      std: 0.01
    }
    bias_filler {
      type: "constant"
    }
  }
}
layer {
  name: "Mrelu1_stage3"
  type: "ReLU"
  bottom: "Mconv1_stage3"
  top: "Mconv1_stage3"
}
layer {
  name: "Mconv3_stage3"
  type: "Convolution"
  bottom: "Mconv1_stage3"
  top: "Mconv3_stage3"
  param {
    lr_mult: 1
    decay_mult: 1
  }
  param {
    lr_mult: 2
    decay_mult: 0
  }
  convolution_param {
    num_output: 64
    pad: 5
    kernel_size: 11
    weight_filler {
      type: "gaussian"
      std: 0.01
    }
    bias_filler {
      type: "constant"
    }
  }
}
layer {
  name: "Mrelu3_stage3"
  type: "ReLU"
  bottom: "Mconv3_stage3"
  top: "Mconv3_stage3"
}
layer {
  name: "Mconv4_stage3"
  type: "Convolution"
  bottom: "Mconv3_stage3"
  top: "Mconv4_stage3"
  param {
    lr_mult: 1
    decay_mult: 1
  }
  param {
    lr_mult: 2
    decay_mult: 0
  }
  convolution_param {
    num_output: 64
    pad: 0
    kernel_size: 1
    weight_filler {
      type: "gaussian"
      std: 0.01
    }
    bias_filler {
      type: "constant"
    }
  }
}
layer {
  name: "Mrelu4_stage3"
  type: "ReLU"
  bottom: "Mconv4_stage3"
  top: "Mconv4_stage3"
}
layer {
  name: "Mconv5_stage3"
  type: "Convolution"
  bottom: "Mconv4_stage3"
  top: "Mconv5_stage3"
  param {
    lr_mult: 1
    decay_mult: 1
  }
  param {
    lr_mult: 2
    decay_mult: 0
  }
  convolution_param {
    num_output: 13
    pad: 0
    kernel_size: 1
    weight_filler {
      type: "gaussian"
      std: 0.01
    }
    bias_filler {
      type: "constant"
    }
  }
}
layer {
  name: "loss_stage3"
  type: "EuclideanLoss"
  bottom: "Mconv5_stage3"
  bottom: "label_lower"
  top: "loss_stage3"
}
layer {
  name: "conv1_stage4"
  type: "Convolution"
  bottom: "pool3_stage1"
  top: "conv1_stage4"
  param {
    lr_mult: 1
    decay_mult: 1
  }
  param {
    lr_mult: 2
    decay_mult: 0
  }
  convolution_param {
    num_output: 32
    pad: 2
    kernel_size: 5
    weight_filler {
      type: "gaussian"
      std: 0.01
    }
    bias_filler {
      type: "constant"
    }
  }
}
layer {
  name: "relu1_stage4"
  type: "ReLU"
  bottom: "conv1_stage4"
  top: "conv1_stage4"
}
layer {
  name: "concat_stage4"
  type: "Concat"
  bottom: "conv1_stage4"
  bottom: "Mconv5_stage3"
  bottom: "pool_image_lower"
  top: "concat_stage4"
  concat_param {
    axis: 1
  }
}
layer {
  name: "Mconv1_stage4"
  type: "Convolution"
  bottom: "concat_stage4"
  top: "Mconv1_stage4"
  param {
    lr_mult: 1
    decay_mult: 1
  }
  param {
    lr_mult: 2
    decay_mult: 0
  }
  convolution_param {
    num_output: 64
    pad: 5
    kernel_size: 11
    weight_filler {
      type: "gaussian"
      std: 0.01
    }
    bias_filler {
      type: "constant"
    }
  }
}
layer {
  name: "Mrelu1_stage4"
  type: "ReLU"
  bottom: "Mconv1_stage4"
  top: "Mconv1_stage4"
}
layer {
  name: "Mconv3_stage4"
  type: "Convolution"
  bottom: "Mconv1_stage4"
  top: "Mconv3_stage4"
  param {
    lr_mult: 1
    decay_mult: 1
  }
  param {
    lr_mult: 2
    decay_mult: 0
  }
  convolution_param {
    num_output: 64
    pad: 5
    kernel_size: 11
    weight_filler {
      type: "gaussian"
      std: 0.01
    }
    bias_filler {
      type: "constant"
    }
  }
}
layer {
  name: "Mrelu3_stage4"
  type: "ReLU"
  bottom: "Mconv3_stage4"
  top: "Mconv3_stage4"
}
layer {
  name: "Mconv4_stage4"
  type: "Convolution"
  bottom: "Mconv3_stage4"
  top: "Mconv4_stage4"
  param {
    lr_mult: 1
    decay_mult: 1
  }
  param {
    lr_mult: 2
    decay_mult: 0
  }
  convolution_param {
    num_output: 64
    pad: 0
    kernel_size: 1
    weight_filler {
      type: "gaussian"
      std: 0.01
    }
    bias_filler {
      type: "constant"
    }
  }
}
layer {
  name: "Mrelu4_stage4"
  type: "ReLU"
  bottom: "Mconv4_stage4"
  top: "Mconv4_stage4"
}
layer {
  name: "Mconv5_stage4"
  type: "Convolution"
  bottom: "Mconv4_stage4"
  top: "Mconv5_stage4"
  param {
    lr_mult: 1
    decay_mult: 1
  }
  param {
    lr_mult: 2
    decay_mult: 0
  }
  convolution_param {
    num_output: 13
    pad: 0
    kernel_size: 1
    weight_filler {
      type: "gaussian"
      std: 0.01
    }
    bias_filler {
      type: "constant"
    }
  }
}
layer {
  name: "loss_stage4"
  type: "EuclideanLoss"
  bottom: "Mconv5_stage4"
  bottom: "label_lower"
  top: "loss_stage4"
}
I0930 02:57:49.478858 14780 layer_factory.hpp:77] Creating layer data
I0930 02:57:49.478858 14780 common.cpp:36] System entropy source not available, using fallback algorithm to generate seed instead.
I0930 02:57:49.478858 14780 net.cpp:100] Creating Layer data
I0930 02:57:49.478858 14780 net.cpp:418] data -> image
I0930 02:57:49.479858 14780 net.cpp:418] data -> label
I0930 02:57:49.480857  8520 common.cpp:36] System entropy source not available, using fallback algorithm to generate seed instead.
I0930 02:57:49.481858 14780 data_transformer.cpp:260] DataTransformer constructor done.
I0930 02:57:49.489856  8520 db_lmdb.cpp:40] Opened lmdb D:/deeplearning/trainingdata/AllData/lmdb/Depth_half4_v1
I0930 02:57:49.530844 14780 cpm_data_layer.cpp:62] output data size: 16,1,96,96
I0930 02:57:49.530844 14780 cpm_data_layer.cpp:77] output label size: 16,26,24,24
I0930 02:57:49.536844 14780 net.cpp:150] Setting up data
I0930 02:57:49.536844 14780 net.cpp:157] Top shape: 16 1 96 96 (147456)
I0930 02:57:49.537842 14780 net.cpp:157] Top shape: 16 26 24 24 (239616)
I0930 02:57:49.537842 14780 net.cpp:165] Memory required for data: 1548288
I0930 02:57:49.537842  7296 common.cpp:36] System entropy source not available, using fallback algorithm to generate seed instead.
I0930 02:57:49.538841 14780 layer_factory.hpp:77] Creating layer image_data_0_split
I0930 02:57:49.540840  7296 data_transformer.cpp:71] dataset: Depth; img_size: [512 x 384]; meta.annolist_index: 6813; meta.write_number: 0; meta.total_write_number: 14172; meta.epoch: 0
I0930 02:57:49.540840 14780 net.cpp:100] Creating Layer image_data_0_split
I0930 02:57:49.540840 14780 net.cpp:444] image_data_0_split <- image
I0930 02:57:49.541841 14780 net.cpp:418] image_data_0_split -> image_data_0_split_0
I0930 02:57:49.541841 14780 net.cpp:418] image_data_0_split -> image_data_0_split_1
I0930 02:57:49.542840 14780 net.cpp:150] Setting up image_data_0_split
I0930 02:57:49.542840 14780 net.cpp:157] Top shape: 16 1 96 96 (147456)
I0930 02:57:49.542840 14780 net.cpp:157] Top shape: 16 1 96 96 (147456)
I0930 02:57:49.543839 14780 net.cpp:165] Memory required for data: 2727936
I0930 02:57:49.543839 14780 layer_factory.hpp:77] Creating layer label_lower
I0930 02:57:49.544839 14780 net.cpp:100] Creating Layer label_lower
I0930 02:57:49.544839 14780 net.cpp:444] label_lower <- label
I0930 02:57:49.544839 14780 net.cpp:418] label_lower -> label_lower
I0930 02:57:49.545838 14780 net.cpp:418] label_lower -> label_1st_lower
I0930 02:57:49.545838 14780 net.cpp:150] Setting up label_lower
I0930 02:57:49.545838 14780 net.cpp:157] Top shape: 16 13 24 24 (119808)
I0930 02:57:49.546838 14780 net.cpp:157] Top shape: 16 13 24 24 (119808)
I0930 02:57:49.546838 14780 net.cpp:165] Memory required for data: 3686400
I0930 02:57:49.547838 14780 layer_factory.hpp:77] Creating layer label_lower_label_lower_0_split
I0930 02:57:49.547838 14780 net.cpp:100] Creating Layer label_lower_label_lower_0_split
I0930 02:57:49.548838 14780 net.cpp:444] label_lower_label_lower_0_split <- label_lower
I0930 02:57:49.548838 14780 net.cpp:418] label_lower_label_lower_0_split -> label_lower_label_lower_0_split_0
I0930 02:57:49.548838 14780 net.cpp:418] label_lower_label_lower_0_split -> label_lower_label_lower_0_split_1
I0930 02:57:49.550837 14780 net.cpp:418] label_lower_label_lower_0_split -> label_lower_label_lower_0_split_2
I0930 02:57:49.551837 14780 net.cpp:150] Setting up label_lower_label_lower_0_split
I0930 02:57:49.551837 14780 net.cpp:157] Top shape: 16 13 24 24 (119808)
I0930 02:57:49.552837 14780 net.cpp:157] Top shape: 16 13 24 24 (119808)
I0930 02:57:49.552837 14780 net.cpp:157] Top shape: 16 13 24 24 (119808)
I0930 02:57:49.552837 14780 net.cpp:165] Memory required for data: 5124096
I0930 02:57:49.553838 14780 layer_factory.hpp:77] Creating layer pool_image_lower
I0930 02:57:49.553838 14780 net.cpp:100] Creating Layer pool_image_lower
I0930 02:57:49.554837 14780 net.cpp:444] pool_image_lower <- image_data_0_split_0
I0930 02:57:49.554837 14780 net.cpp:418] pool_image_lower -> pool_image_lower
I0930 02:57:49.870744 14780 net.cpp:150] Setting up pool_image_lower
I0930 02:57:49.870744 14780 net.cpp:157] Top shape: 16 1 24 24 (9216)
I0930 02:57:49.871742 14780 net.cpp:165] Memory required for data: 5160960
I0930 02:57:49.872743 14780 layer_factory.hpp:77] Creating layer pool_image_lower_pool_image_lower_0_split
I0930 02:57:49.872743 14780 net.cpp:100] Creating Layer pool_image_lower_pool_image_lower_0_split
I0930 02:57:49.872743 14780 net.cpp:444] pool_image_lower_pool_image_lower_0_split <- pool_image_lower
I0930 02:57:49.873741 14780 net.cpp:418] pool_image_lower_pool_image_lower_0_split -> pool_image_lower_pool_image_lower_0_split_0
I0930 02:57:49.873741 14780 net.cpp:418] pool_image_lower_pool_image_lower_0_split -> pool_image_lower_pool_image_lower_0_split_1
I0930 02:57:49.874742 14780 net.cpp:418] pool_image_lower_pool_image_lower_0_split -> pool_image_lower_pool_image_lower_0_split_2
I0930 02:57:49.874742 14780 net.cpp:150] Setting up pool_image_lower_pool_image_lower_0_split
I0930 02:57:49.874742 14780 net.cpp:157] Top shape: 16 1 24 24 (9216)
I0930 02:57:49.875742 14780 net.cpp:157] Top shape: 16 1 24 24 (9216)
I0930 02:57:49.875742 14780 net.cpp:157] Top shape: 16 1 24 24 (9216)
I0930 02:57:49.876741 14780 net.cpp:165] Memory required for data: 5271552
I0930 02:57:49.876741 14780 layer_factory.hpp:77] Creating layer conv2_stage1
I0930 02:57:49.876741 14780 net.cpp:100] Creating Layer conv2_stage1
I0930 02:57:49.877741 14780 net.cpp:444] conv2_stage1 <- image_data_0_split_1
I0930 02:57:49.877741 14780 net.cpp:418] conv2_stage1 -> conv2_stage1
I0930 02:57:49.880741 14780 net.cpp:150] Setting up conv2_stage1
I0930 02:57:49.880741 14780 net.cpp:157] Top shape: 16 128 96 96 (18874368)
I0930 02:57:49.881739 14780 net.cpp:165] Memory required for data: 80769024
I0930 02:57:49.882740 14780 layer_factory.hpp:77] Creating layer relu2_stage1
I0930 02:57:49.882740 14780 net.cpp:100] Creating Layer relu2_stage1
I0930 02:57:49.883739 14780 net.cpp:444] relu2_stage1 <- conv2_stage1
I0930 02:57:49.883739 14780 net.cpp:405] relu2_stage1 -> conv2_stage1 (in-place)
I0930 02:57:49.884739 14780 net.cpp:150] Setting up relu2_stage1
I0930 02:57:49.884739 14780 net.cpp:157] Top shape: 16 128 96 96 (18874368)
I0930 02:57:49.885740 14780 net.cpp:165] Memory required for data: 156266496
I0930 02:57:49.885740 14780 layer_factory.hpp:77] Creating layer pool2_stage1
I0930 02:57:49.886739 14780 net.cpp:100] Creating Layer pool2_stage1
I0930 02:57:49.886739 14780 net.cpp:444] pool2_stage1 <- conv2_stage1
I0930 02:57:49.887739 14780 net.cpp:418] pool2_stage1 -> pool2_stage1
I0930 02:57:49.887739 14780 net.cpp:150] Setting up pool2_stage1
I0930 02:57:49.887739 14780 net.cpp:157] Top shape: 16 128 48 48 (4718592)
I0930 02:57:49.888738 14780 net.cpp:165] Memory required for data: 175140864
I0930 02:57:49.890736 14780 layer_factory.hpp:77] Creating layer conv3_stage1
I0930 02:57:49.890736 14780 net.cpp:100] Creating Layer conv3_stage1
I0930 02:57:49.891736 14780 net.cpp:444] conv3_stage1 <- pool2_stage1
I0930 02:57:49.891736 14780 net.cpp:418] conv3_stage1 -> conv3_stage1
I0930 02:57:49.912730 14780 net.cpp:150] Setting up conv3_stage1
I0930 02:57:49.912730 14780 net.cpp:157] Top shape: 16 128 48 48 (4718592)
I0930 02:57:49.913730 14780 net.cpp:165] Memory required for data: 194015232
I0930 02:57:49.913730 14780 layer_factory.hpp:77] Creating layer relu3_stage1
I0930 02:57:49.913730 14780 net.cpp:100] Creating Layer relu3_stage1
I0930 02:57:49.914731 14780 net.cpp:444] relu3_stage1 <- conv3_stage1
I0930 02:57:49.914731 14780 net.cpp:405] relu3_stage1 -> conv3_stage1 (in-place)
I0930 02:57:49.915729 14780 net.cpp:150] Setting up relu3_stage1
I0930 02:57:49.915729 14780 net.cpp:157] Top shape: 16 128 48 48 (4718592)
I0930 02:57:49.916729 14780 net.cpp:165] Memory required for data: 212889600
I0930 02:57:49.916729 14780 layer_factory.hpp:77] Creating layer pool3_stage1
I0930 02:57:49.917729 14780 net.cpp:100] Creating Layer pool3_stage1
I0930 02:57:49.917729 14780 net.cpp:444] pool3_stage1 <- conv3_stage1
I0930 02:57:49.918728 14780 net.cpp:418] pool3_stage1 -> pool3_stage1
I0930 02:57:49.918728 14780 net.cpp:150] Setting up pool3_stage1
I0930 02:57:49.918728 14780 net.cpp:157] Top shape: 16 128 24 24 (1179648)
I0930 02:57:49.919729 14780 net.cpp:165] Memory required for data: 217608192
I0930 02:57:49.919729 14780 layer_factory.hpp:77] Creating layer pool3_stage1_pool3_stage1_0_split
I0930 02:57:49.920729 14780 net.cpp:100] Creating Layer pool3_stage1_pool3_stage1_0_split
I0930 02:57:49.920729 14780 net.cpp:444] pool3_stage1_pool3_stage1_0_split <- pool3_stage1
I0930 02:57:49.921730 14780 net.cpp:418] pool3_stage1_pool3_stage1_0_split -> pool3_stage1_pool3_stage1_0_split_0
I0930 02:57:49.922729 14780 net.cpp:418] pool3_stage1_pool3_stage1_0_split -> pool3_stage1_pool3_stage1_0_split_1
I0930 02:57:49.923727 14780 net.cpp:418] pool3_stage1_pool3_stage1_0_split -> pool3_stage1_pool3_stage1_0_split_2
I0930 02:57:49.923727 14780 net.cpp:418] pool3_stage1_pool3_stage1_0_split -> pool3_stage1_pool3_stage1_0_split_3
I0930 02:57:49.924727 14780 net.cpp:150] Setting up pool3_stage1_pool3_stage1_0_split
I0930 02:57:49.924727 14780 net.cpp:157] Top shape: 16 128 24 24 (1179648)
I0930 02:57:49.925727 14780 net.cpp:157] Top shape: 16 128 24 24 (1179648)
I0930 02:57:49.925727 14780 net.cpp:157] Top shape: 16 128 24 24 (1179648)
I0930 02:57:49.925727 14780 net.cpp:157] Top shape: 16 128 24 24 (1179648)
I0930 02:57:49.926726 14780 net.cpp:165] Memory required for data: 236482560
I0930 02:57:49.926726 14780 layer_factory.hpp:77] Creating layer conv4_stage1
I0930 02:57:49.927726 14780 net.cpp:100] Creating Layer conv4_stage1
I0930 02:57:49.927726 14780 net.cpp:444] conv4_stage1 <- pool3_stage1_pool3_stage1_0_split_0
I0930 02:57:49.928727 14780 net.cpp:418] conv4_stage1 -> conv4_stage1
I0930 02:57:49.933725 14780 net.cpp:150] Setting up conv4_stage1
I0930 02:57:49.934725 14780 net.cpp:157] Top shape: 16 64 24 24 (589824)
I0930 02:57:49.934725 14780 net.cpp:165] Memory required for data: 238841856
I0930 02:57:49.935724 14780 layer_factory.hpp:77] Creating layer relu4_stage1
I0930 02:57:49.935724 14780 net.cpp:100] Creating Layer relu4_stage1
I0930 02:57:49.935724 14780 net.cpp:444] relu4_stage1 <- conv4_stage1
I0930 02:57:49.936724 14780 net.cpp:405] relu4_stage1 -> conv4_stage1 (in-place)
I0930 02:57:49.936724 14780 net.cpp:150] Setting up relu4_stage1
I0930 02:57:49.937724 14780 net.cpp:157] Top shape: 16 64 24 24 (589824)
I0930 02:57:49.937724 14780 net.cpp:165] Memory required for data: 241201152
I0930 02:57:49.938724 14780 layer_factory.hpp:77] Creating layer drop1_stage1
I0930 02:57:49.938724 14780 net.cpp:100] Creating Layer drop1_stage1
I0930 02:57:49.938724 14780 net.cpp:444] drop1_stage1 <- conv4_stage1
I0930 02:57:49.939723 14780 net.cpp:405] drop1_stage1 -> conv4_stage1 (in-place)
I0930 02:57:49.940722 14780 net.cpp:150] Setting up drop1_stage1
I0930 02:57:49.941722 14780 net.cpp:157] Top shape: 16 64 24 24 (589824)
I0930 02:57:49.942723 14780 net.cpp:165] Memory required for data: 243560448
I0930 02:57:49.942723 14780 layer_factory.hpp:77] Creating layer conv6_stage1
I0930 02:57:49.943722 14780 net.cpp:100] Creating Layer conv6_stage1
I0930 02:57:49.943722 14780 net.cpp:444] conv6_stage1 <- conv4_stage1
I0930 02:57:49.943722 14780 net.cpp:418] conv6_stage1 -> conv6_stage1
I0930 02:57:49.945721 14780 net.cpp:150] Setting up conv6_stage1
I0930 02:57:49.946722 14780 net.cpp:157] Top shape: 16 64 24 24 (589824)
I0930 02:57:49.946722 14780 net.cpp:165] Memory required for data: 245919744
I0930 02:57:49.946722 14780 layer_factory.hpp:77] Creating layer relu6_stage1
I0930 02:57:49.947721 14780 net.cpp:100] Creating Layer relu6_stage1
I0930 02:57:49.947721 14780 net.cpp:444] relu6_stage1 <- conv6_stage1
I0930 02:57:49.948719 14780 net.cpp:405] relu6_stage1 -> conv6_stage1 (in-place)
I0930 02:57:49.948719 14780 net.cpp:150] Setting up relu6_stage1
I0930 02:57:49.948719 14780 net.cpp:157] Top shape: 16 64 24 24 (589824)
I0930 02:57:49.949719 14780 net.cpp:165] Memory required for data: 248279040
I0930 02:57:49.949719 14780 layer_factory.hpp:77] Creating layer drop2_stage1
I0930 02:57:49.951719 14780 net.cpp:100] Creating Layer drop2_stage1
I0930 02:57:49.951719 14780 net.cpp:444] drop2_stage1 <- conv6_stage1
I0930 02:57:49.952718 14780 net.cpp:405] drop2_stage1 -> conv6_stage1 (in-place)
I0930 02:57:49.952718 14780 net.cpp:150] Setting up drop2_stage1
I0930 02:57:49.952718 14780 net.cpp:157] Top shape: 16 64 24 24 (589824)
I0930 02:57:49.953718 14780 net.cpp:165] Memory required for data: 250638336
I0930 02:57:49.953718 14780 layer_factory.hpp:77] Creating layer conv7_stage1
I0930 02:57:49.954718 14780 net.cpp:100] Creating Layer conv7_stage1
I0930 02:57:49.954718 14780 net.cpp:444] conv7_stage1 <- conv6_stage1
I0930 02:57:49.955718 14780 net.cpp:418] conv7_stage1 -> conv7_stage1
I0930 02:57:49.957718 14780 net.cpp:150] Setting up conv7_stage1
I0930 02:57:49.957718 14780 net.cpp:157] Top shape: 16 13 24 24 (119808)
I0930 02:57:49.958717 14780 net.cpp:165] Memory required for data: 251117568
I0930 02:57:49.958717 14780 layer_factory.hpp:77] Creating layer conv7_stage1_conv7_stage1_0_split
I0930 02:57:49.959717 14780 net.cpp:100] Creating Layer conv7_stage1_conv7_stage1_0_split
I0930 02:57:49.959717 14780 net.cpp:444] conv7_stage1_conv7_stage1_0_split <- conv7_stage1
I0930 02:57:49.960717 14780 net.cpp:418] conv7_stage1_conv7_stage1_0_split -> conv7_stage1_conv7_stage1_0_split_0
I0930 02:57:49.961716 14780 net.cpp:418] conv7_stage1_conv7_stage1_0_split -> conv7_stage1_conv7_stage1_0_split_1
I0930 02:57:49.961716 14780 net.cpp:150] Setting up conv7_stage1_conv7_stage1_0_split
I0930 02:57:49.962716 14780 net.cpp:157] Top shape: 16 13 24 24 (119808)
I0930 02:57:49.962716 14780 net.cpp:157] Top shape: 16 13 24 24 (119808)
I0930 02:57:49.963716 14780 net.cpp:165] Memory required for data: 252076032
I0930 02:57:49.963716 14780 layer_factory.hpp:77] Creating layer loss_stage1
I0930 02:57:49.963716 14780 net.cpp:100] Creating Layer loss_stage1
I0930 02:57:49.964715 14780 net.cpp:444] loss_stage1 <- conv7_stage1_conv7_stage1_0_split_0
I0930 02:57:49.964715 14780 net.cpp:444] loss_stage1 <- label_1st_lower
I0930 02:57:49.964715 14780 net.cpp:418] loss_stage1 -> loss_stage1
I0930 02:57:49.965714 14780 net.cpp:150] Setting up loss_stage1
I0930 02:57:49.965714 14780 net.cpp:157] Top shape: (1)
I0930 02:57:49.965714 14780 net.cpp:160]     with loss weight 1
I0930 02:57:49.966715 14780 net.cpp:165] Memory required for data: 252076036
I0930 02:57:49.966715 14780 layer_factory.hpp:77] Creating layer conv1_stage2
I0930 02:57:49.967715 14780 net.cpp:100] Creating Layer conv1_stage2
I0930 02:57:49.967715 14780 net.cpp:444] conv1_stage2 <- pool3_stage1_pool3_stage1_0_split_1
I0930 02:57:49.967715 14780 net.cpp:418] conv1_stage2 -> conv1_stage2
I0930 02:57:49.973712 14780 net.cpp:150] Setting up conv1_stage2
I0930 02:57:49.973712 14780 net.cpp:157] Top shape: 16 64 24 24 (589824)
I0930 02:57:49.973712 14780 net.cpp:165] Memory required for data: 254435332
I0930 02:57:49.974712 14780 layer_factory.hpp:77] Creating layer relu1_stage2
I0930 02:57:49.974712 14780 net.cpp:100] Creating Layer relu1_stage2
I0930 02:57:49.974712 14780 net.cpp:444] relu1_stage2 <- conv1_stage2
I0930 02:57:49.975713 14780 net.cpp:405] relu1_stage2 -> conv1_stage2 (in-place)
I0930 02:57:49.976711 14780 net.cpp:150] Setting up relu1_stage2
I0930 02:57:49.976711 14780 net.cpp:157] Top shape: 16 64 24 24 (589824)
I0930 02:57:49.976711 14780 net.cpp:165] Memory required for data: 256794628
I0930 02:57:49.977712 14780 layer_factory.hpp:77] Creating layer concat_stage2
I0930 02:57:49.977712 14780 net.cpp:100] Creating Layer concat_stage2
I0930 02:57:49.977712 14780 net.cpp:444] concat_stage2 <- conv1_stage2
I0930 02:57:49.978711 14780 net.cpp:444] concat_stage2 <- conv7_stage1_conv7_stage1_0_split_1
I0930 02:57:49.978711 14780 net.cpp:444] concat_stage2 <- pool_image_lower_pool_image_lower_0_split_0
I0930 02:57:49.978711 14780 net.cpp:418] concat_stage2 -> concat_stage2
I0930 02:57:49.979712 14780 net.cpp:150] Setting up concat_stage2
I0930 02:57:49.979712 14780 net.cpp:157] Top shape: 16 78 24 24 (718848)
I0930 02:57:49.981710 14780 net.cpp:165] Memory required for data: 259670020
I0930 02:57:49.981710 14780 layer_factory.hpp:77] Creating layer Mconv1_stage2
I0930 02:57:49.982709 14780 net.cpp:100] Creating Layer Mconv1_stage2
I0930 02:57:49.982709 14780 net.cpp:444] Mconv1_stage2 <- concat_stage2
I0930 02:57:49.983709 14780 net.cpp:418] Mconv1_stage2 -> Mconv1_stage2
I0930 02:57:49.993707 14780 net.cpp:150] Setting up Mconv1_stage2
I0930 02:57:49.994707 14780 net.cpp:157] Top shape: 16 64 24 24 (589824)
I0930 02:57:49.994707 14780 net.cpp:165] Memory required for data: 262029316
I0930 02:57:49.994707 14780 layer_factory.hpp:77] Creating layer Mrelu1_stage2
I0930 02:57:49.995707 14780 net.cpp:100] Creating Layer Mrelu1_stage2
I0930 02:57:49.995707 14780 net.cpp:444] Mrelu1_stage2 <- Mconv1_stage2
I0930 02:57:49.996707 14780 net.cpp:405] Mrelu1_stage2 -> Mconv1_stage2 (in-place)
I0930 02:57:49.996707 14780 net.cpp:150] Setting up Mrelu1_stage2
I0930 02:57:49.997706 14780 net.cpp:157] Top shape: 16 64 24 24 (589824)
I0930 02:57:49.997706 14780 net.cpp:165] Memory required for data: 264388612
I0930 02:57:49.997706 14780 layer_factory.hpp:77] Creating layer Mconv3_stage2
I0930 02:57:49.998706 14780 net.cpp:100] Creating Layer Mconv3_stage2
I0930 02:57:49.998706 14780 net.cpp:444] Mconv3_stage2 <- Mconv1_stage2
I0930 02:57:50.000705 14780 net.cpp:418] Mconv3_stage2 -> Mconv3_stage2
I0930 02:57:50.009703 14780 net.cpp:150] Setting up Mconv3_stage2
I0930 02:57:50.009703 14780 net.cpp:157] Top shape: 16 64 24 24 (589824)
I0930 02:57:50.010702 14780 net.cpp:165] Memory required for data: 266747908
I0930 02:57:50.010702 14780 layer_factory.hpp:77] Creating layer Mrelu3_stage2
I0930 02:57:50.011703 14780 net.cpp:100] Creating Layer Mrelu3_stage2
I0930 02:57:50.011703 14780 net.cpp:444] Mrelu3_stage2 <- Mconv3_stage2
I0930 02:57:50.011703 14780 net.cpp:405] Mrelu3_stage2 -> Mconv3_stage2 (in-place)
I0930 02:57:50.012701 14780 net.cpp:150] Setting up Mrelu3_stage2
I0930 02:57:50.012701 14780 net.cpp:157] Top shape: 16 64 24 24 (589824)
I0930 02:57:50.013701 14780 net.cpp:165] Memory required for data: 269107204
I0930 02:57:50.013701 14780 layer_factory.hpp:77] Creating layer Mconv4_stage2
I0930 02:57:50.014701 14780 net.cpp:100] Creating Layer Mconv4_stage2
I0930 02:57:50.014701 14780 net.cpp:444] Mconv4_stage2 <- Mconv3_stage2
I0930 02:57:50.014701 14780 net.cpp:418] Mconv4_stage2 -> Mconv4_stage2
I0930 02:57:50.016701 14780 net.cpp:150] Setting up Mconv4_stage2
I0930 02:57:50.016701 14780 net.cpp:157] Top shape: 16 64 24 24 (589824)
I0930 02:57:50.016701 14780 net.cpp:165] Memory required for data: 271466500
I0930 02:57:50.018700 14780 layer_factory.hpp:77] Creating layer Mrelu4_stage2
I0930 02:57:50.019699 14780 net.cpp:100] Creating Layer Mrelu4_stage2
I0930 02:57:50.019699 14780 net.cpp:444] Mrelu4_stage2 <- Mconv4_stage2
I0930 02:57:50.020700 14780 net.cpp:405] Mrelu4_stage2 -> Mconv4_stage2 (in-place)
I0930 02:57:50.021699 14780 net.cpp:150] Setting up Mrelu4_stage2
I0930 02:57:50.021699 14780 net.cpp:157] Top shape: 16 64 24 24 (589824)
I0930 02:57:50.022698 14780 net.cpp:165] Memory required for data: 273825796
I0930 02:57:50.022698 14780 layer_factory.hpp:77] Creating layer Mconv5_stage2
I0930 02:57:50.023697 14780 net.cpp:100] Creating Layer Mconv5_stage2
I0930 02:57:50.024698 14780 net.cpp:444] Mconv5_stage2 <- Mconv4_stage2
I0930 02:57:50.024698 14780 net.cpp:418] Mconv5_stage2 -> Mconv5_stage2
I0930 02:57:50.026697 14780 net.cpp:150] Setting up Mconv5_stage2
I0930 02:57:50.026697 14780 net.cpp:157] Top shape: 16 13 24 24 (119808)
I0930 02:57:50.027698 14780 net.cpp:165] Memory required for data: 274305028
I0930 02:57:50.028697 14780 layer_factory.hpp:77] Creating layer Mconv5_stage2_Mconv5_stage2_0_split
I0930 02:57:50.028697 14780 net.cpp:100] Creating Layer Mconv5_stage2_Mconv5_stage2_0_split
I0930 02:57:50.029696 14780 net.cpp:444] Mconv5_stage2_Mconv5_stage2_0_split <- Mconv5_stage2
I0930 02:57:50.029696 14780 net.cpp:418] Mconv5_stage2_Mconv5_stage2_0_split -> Mconv5_stage2_Mconv5_stage2_0_split_0
I0930 02:57:50.029696 14780 net.cpp:418] Mconv5_stage2_Mconv5_stage2_0_split -> Mconv5_stage2_Mconv5_stage2_0_split_1
I0930 02:57:50.030696 14780 net.cpp:150] Setting up Mconv5_stage2_Mconv5_stage2_0_split
I0930 02:57:50.030696 14780 net.cpp:157] Top shape: 16 13 24 24 (119808)
I0930 02:57:50.031695 14780 net.cpp:157] Top shape: 16 13 24 24 (119808)
I0930 02:57:50.031695 14780 net.cpp:165] Memory required for data: 275263492
I0930 02:57:50.031695 14780 layer_factory.hpp:77] Creating layer loss_stage2
I0930 02:57:50.032696 14780 net.cpp:100] Creating Layer loss_stage2
I0930 02:57:50.032696 14780 net.cpp:444] loss_stage2 <- Mconv5_stage2_Mconv5_stage2_0_split_0
I0930 02:57:50.033695 14780 net.cpp:444] loss_stage2 <- label_lower_label_lower_0_split_0
I0930 02:57:50.033695 14780 net.cpp:418] loss_stage2 -> loss_stage2
I0930 02:57:50.033695 14780 net.cpp:150] Setting up loss_stage2
I0930 02:57:50.034695 14780 net.cpp:157] Top shape: (1)
I0930 02:57:50.034695 14780 net.cpp:160]     with loss weight 1
I0930 02:57:50.035694 14780 net.cpp:165] Memory required for data: 275263496
I0930 02:57:50.035694 14780 layer_factory.hpp:77] Creating layer conv1_stage3
I0930 02:57:50.035694 14780 net.cpp:100] Creating Layer conv1_stage3
I0930 02:57:50.037694 14780 net.cpp:444] conv1_stage3 <- pool3_stage1_pool3_stage1_0_split_2
I0930 02:57:50.038697 14780 net.cpp:418] conv1_stage3 -> conv1_stage3
I0930 02:57:50.044692 14780 net.cpp:150] Setting up conv1_stage3
I0930 02:57:50.044692 14780 net.cpp:157] Top shape: 16 64 24 24 (589824)
I0930 02:57:50.044692 14780 net.cpp:165] Memory required for data: 277622792
I0930 02:57:50.045691 14780 layer_factory.hpp:77] Creating layer relu1_stage3
I0930 02:57:50.045691 14780 net.cpp:100] Creating Layer relu1_stage3
I0930 02:57:50.046690 14780 net.cpp:444] relu1_stage3 <- conv1_stage3
I0930 02:57:50.047693 14780 net.cpp:405] relu1_stage3 -> conv1_stage3 (in-place)
I0930 02:57:50.048691 14780 net.cpp:150] Setting up relu1_stage3
I0930 02:57:50.048691 14780 net.cpp:157] Top shape: 16 64 24 24 (589824)
I0930 02:57:50.048691 14780 net.cpp:165] Memory required for data: 279982088
I0930 02:57:50.049690 14780 layer_factory.hpp:77] Creating layer concat_stage3
I0930 02:57:50.049690 14780 net.cpp:100] Creating Layer concat_stage3
I0930 02:57:50.050691 14780 net.cpp:444] concat_stage3 <- conv1_stage3
I0930 02:57:50.050691 14780 net.cpp:444] concat_stage3 <- Mconv5_stage2_Mconv5_stage2_0_split_1
I0930 02:57:50.050691 14780 net.cpp:444] concat_stage3 <- pool_image_lower_pool_image_lower_0_split_1
I0930 02:57:50.051692 14780 net.cpp:418] concat_stage3 -> concat_stage3
I0930 02:57:50.051692 14780 net.cpp:150] Setting up concat_stage3
I0930 02:57:50.052690 14780 net.cpp:157] Top shape: 16 78 24 24 (718848)
I0930 02:57:50.052690 14780 net.cpp:165] Memory required for data: 282857480
I0930 02:57:50.053689 14780 layer_factory.hpp:77] Creating layer Mconv1_stage3
I0930 02:57:50.053689 14780 net.cpp:100] Creating Layer Mconv1_stage3
I0930 02:57:50.054692 14780 net.cpp:444] Mconv1_stage3 <- concat_stage3
I0930 02:57:50.054692 14780 net.cpp:418] Mconv1_stage3 -> Mconv1_stage3
I0930 02:57:50.069686 14780 net.cpp:150] Setting up Mconv1_stage3
I0930 02:57:50.069686 14780 net.cpp:157] Top shape: 16 64 24 24 (589824)
I0930 02:57:50.070685 14780 net.cpp:165] Memory required for data: 285216776
I0930 02:57:50.070685 14780 layer_factory.hpp:77] Creating layer Mrelu1_stage3
I0930 02:57:50.071686 14780 net.cpp:100] Creating Layer Mrelu1_stage3
I0930 02:57:50.071686 14780 net.cpp:444] Mrelu1_stage3 <- Mconv1_stage3
I0930 02:57:50.072685 14780 net.cpp:405] Mrelu1_stage3 -> Mconv1_stage3 (in-place)
I0930 02:57:50.073683 14780 net.cpp:150] Setting up Mrelu1_stage3
I0930 02:57:50.073683 14780 net.cpp:157] Top shape: 16 64 24 24 (589824)
I0930 02:57:50.074682 14780 net.cpp:165] Memory required for data: 287576072
I0930 02:57:50.074682 14780 layer_factory.hpp:77] Creating layer Mconv3_stage3
I0930 02:57:50.075683 14780 net.cpp:100] Creating Layer Mconv3_stage3
I0930 02:57:50.075683 14780 net.cpp:444] Mconv3_stage3 <- Mconv1_stage3
I0930 02:57:50.075683 14780 net.cpp:418] Mconv3_stage3 -> Mconv3_stage3
I0930 02:57:50.085680 14780 net.cpp:150] Setting up Mconv3_stage3
I0930 02:57:50.085680 14780 net.cpp:157] Top shape: 16 64 24 24 (589824)
I0930 02:57:50.086679 14780 net.cpp:165] Memory required for data: 289935368
I0930 02:57:50.086679 14780 layer_factory.hpp:77] Creating layer Mrelu3_stage3
I0930 02:57:50.087680 14780 net.cpp:100] Creating Layer Mrelu3_stage3
I0930 02:57:50.088683 14780 net.cpp:444] Mrelu3_stage3 <- Mconv3_stage3
I0930 02:57:50.089679 14780 net.cpp:405] Mrelu3_stage3 -> Mconv3_stage3 (in-place)
I0930 02:57:50.090678 14780 net.cpp:150] Setting up Mrelu3_stage3
I0930 02:57:50.090678 14780 net.cpp:157] Top shape: 16 64 24 24 (589824)
I0930 02:57:50.090678 14780 net.cpp:165] Memory required for data: 292294664
I0930 02:57:50.091678 14780 layer_factory.hpp:77] Creating layer Mconv4_stage3
I0930 02:57:50.091678 14780 net.cpp:100] Creating Layer Mconv4_stage3
I0930 02:57:50.092679 14780 net.cpp:444] Mconv4_stage3 <- Mconv3_stage3
I0930 02:57:50.092679 14780 net.cpp:418] Mconv4_stage3 -> Mconv4_stage3
I0930 02:57:50.094681 14780 net.cpp:150] Setting up Mconv4_stage3
I0930 02:57:50.094681 14780 net.cpp:157] Top shape: 16 64 24 24 (589824)
I0930 02:57:50.095677 14780 net.cpp:165] Memory required for data: 294653960
I0930 02:57:50.095677 14780 layer_factory.hpp:77] Creating layer Mrelu4_stage3
I0930 02:57:50.097677 14780 net.cpp:100] Creating Layer Mrelu4_stage3
I0930 02:57:50.097677 14780 net.cpp:444] Mrelu4_stage3 <- Mconv4_stage3
I0930 02:57:50.098676 14780 net.cpp:405] Mrelu4_stage3 -> Mconv4_stage3 (in-place)
I0930 02:57:50.098676 14780 net.cpp:150] Setting up Mrelu4_stage3
I0930 02:57:50.098676 14780 net.cpp:157] Top shape: 16 64 24 24 (589824)
I0930 02:57:50.099676 14780 net.cpp:165] Memory required for data: 297013256
I0930 02:57:50.099676 14780 layer_factory.hpp:77] Creating layer Mconv5_stage3
I0930 02:57:50.099676 14780 net.cpp:100] Creating Layer Mconv5_stage3
I0930 02:57:50.100675 14780 net.cpp:444] Mconv5_stage3 <- Mconv4_stage3
I0930 02:57:50.100675 14780 net.cpp:418] Mconv5_stage3 -> Mconv5_stage3
I0930 02:57:50.102676 14780 net.cpp:150] Setting up Mconv5_stage3
I0930 02:57:50.102676 14780 net.cpp:157] Top shape: 16 13 24 24 (119808)
I0930 02:57:50.103674 14780 net.cpp:165] Memory required for data: 297492488
I0930 02:57:50.104676 14780 layer_factory.hpp:77] Creating layer Mconv5_stage3_Mconv5_stage3_0_split
I0930 02:57:50.104676 14780 net.cpp:100] Creating Layer Mconv5_stage3_Mconv5_stage3_0_split
I0930 02:57:50.105676 14780 net.cpp:444] Mconv5_stage3_Mconv5_stage3_0_split <- Mconv5_stage3
I0930 02:57:50.106673 14780 net.cpp:418] Mconv5_stage3_Mconv5_stage3_0_split -> Mconv5_stage3_Mconv5_stage3_0_split_0
I0930 02:57:50.107673 14780 net.cpp:418] Mconv5_stage3_Mconv5_stage3_0_split -> Mconv5_stage3_Mconv5_stage3_0_split_1
I0930 02:57:50.107673 14780 net.cpp:150] Setting up Mconv5_stage3_Mconv5_stage3_0_split
I0930 02:57:50.108672 14780 net.cpp:157] Top shape: 16 13 24 24 (119808)
I0930 02:57:50.108672 14780 net.cpp:157] Top shape: 16 13 24 24 (119808)
I0930 02:57:50.108672 14780 net.cpp:165] Memory required for data: 298450952
I0930 02:57:50.109674 14780 layer_factory.hpp:77] Creating layer loss_stage3
I0930 02:57:50.109674 14780 net.cpp:100] Creating Layer loss_stage3
I0930 02:57:50.110673 14780 net.cpp:444] loss_stage3 <- Mconv5_stage3_Mconv5_stage3_0_split_0
I0930 02:57:50.110673 14780 net.cpp:444] loss_stage3 <- label_lower_label_lower_0_split_1
I0930 02:57:50.110673 14780 net.cpp:418] loss_stage3 -> loss_stage3
I0930 02:57:50.111672 14780 net.cpp:150] Setting up loss_stage3
I0930 02:57:50.111672 14780 net.cpp:157] Top shape: (1)
I0930 02:57:50.111672 14780 net.cpp:160]     with loss weight 1
I0930 02:57:50.112673 14780 net.cpp:165] Memory required for data: 298450956
I0930 02:57:50.112673 14780 layer_factory.hpp:77] Creating layer conv1_stage4
I0930 02:57:50.113672 14780 net.cpp:100] Creating Layer conv1_stage4
I0930 02:57:50.113672 14780 net.cpp:444] conv1_stage4 <- pool3_stage1_pool3_stage1_0_split_3
I0930 02:57:50.114670 14780 net.cpp:418] conv1_stage4 -> conv1_stage4
I0930 02:57:50.117671 14780 net.cpp:150] Setting up conv1_stage4
I0930 02:57:50.118670 14780 net.cpp:157] Top shape: 16 32 24 24 (294912)
I0930 02:57:50.118670 14780 net.cpp:165] Memory required for data: 299630604
I0930 02:57:50.119669 14780 layer_factory.hpp:77] Creating layer relu1_stage4
I0930 02:57:50.119669 14780 net.cpp:100] Creating Layer relu1_stage4
I0930 02:57:50.119669 14780 net.cpp:444] relu1_stage4 <- conv1_stage4
I0930 02:57:50.120669 14780 net.cpp:405] relu1_stage4 -> conv1_stage4 (in-place)
I0930 02:57:50.121670 14780 net.cpp:150] Setting up relu1_stage4
I0930 02:57:50.121670 14780 net.cpp:157] Top shape: 16 32 24 24 (294912)
I0930 02:57:50.121670 14780 net.cpp:165] Memory required for data: 300810252
I0930 02:57:50.121670 14780 layer_factory.hpp:77] Creating layer concat_stage4
I0930 02:57:50.121670 14780 net.cpp:100] Creating Layer concat_stage4
I0930 02:57:50.121670 14780 net.cpp:444] concat_stage4 <- conv1_stage4
I0930 02:57:50.121670 14780 net.cpp:444] concat_stage4 <- Mconv5_stage3_Mconv5_stage3_0_split_1
I0930 02:57:50.121670 14780 net.cpp:444] concat_stage4 <- pool_image_lower_pool_image_lower_0_split_2
I0930 02:57:50.122670 14780 net.cpp:418] concat_stage4 -> concat_stage4
I0930 02:57:50.122670 14780 net.cpp:150] Setting up concat_stage4
I0930 02:57:50.122670 14780 net.cpp:157] Top shape: 16 46 24 24 (423936)
I0930 02:57:50.122670 14780 net.cpp:165] Memory required for data: 302505996
I0930 02:57:50.122670 14780 layer_factory.hpp:77] Creating layer Mconv1_stage4
I0930 02:57:50.122670 14780 net.cpp:100] Creating Layer Mconv1_stage4
I0930 02:57:50.122670 14780 net.cpp:444] Mconv1_stage4 <- concat_stage4
I0930 02:57:50.123668 14780 net.cpp:418] Mconv1_stage4 -> Mconv1_stage4
I0930 02:57:50.129667 14780 net.cpp:150] Setting up Mconv1_stage4
I0930 02:57:50.130667 14780 net.cpp:157] Top shape: 16 64 24 24 (589824)
I0930 02:57:50.130667 14780 net.cpp:165] Memory required for data: 304865292
I0930 02:57:50.130667 14780 layer_factory.hpp:77] Creating layer Mrelu1_stage4
I0930 02:57:50.130667 14780 net.cpp:100] Creating Layer Mrelu1_stage4
I0930 02:57:50.130667 14780 net.cpp:444] Mrelu1_stage4 <- Mconv1_stage4
I0930 02:57:50.130667 14780 net.cpp:405] Mrelu1_stage4 -> Mconv1_stage4 (in-place)
I0930 02:57:50.130667 14780 net.cpp:150] Setting up Mrelu1_stage4
I0930 02:57:50.130667 14780 net.cpp:157] Top shape: 16 64 24 24 (589824)
I0930 02:57:50.131667 14780 net.cpp:165] Memory required for data: 307224588
I0930 02:57:50.131667 14780 layer_factory.hpp:77] Creating layer Mconv3_stage4
I0930 02:57:50.131667 14780 net.cpp:100] Creating Layer Mconv3_stage4
I0930 02:57:50.131667 14780 net.cpp:444] Mconv3_stage4 <- Mconv1_stage4
I0930 02:57:50.131667 14780 net.cpp:418] Mconv3_stage4 -> Mconv3_stage4
I0930 02:57:50.140663 14780 net.cpp:150] Setting up Mconv3_stage4
I0930 02:57:50.140663 14780 net.cpp:157] Top shape: 16 64 24 24 (589824)
I0930 02:57:50.140663 14780 net.cpp:165] Memory required for data: 309583884
I0930 02:57:50.140663 14780 layer_factory.hpp:77] Creating layer Mrelu3_stage4
I0930 02:57:50.141664 14780 net.cpp:100] Creating Layer Mrelu3_stage4
I0930 02:57:50.141664 14780 net.cpp:444] Mrelu3_stage4 <- Mconv3_stage4
I0930 02:57:50.141664 14780 net.cpp:405] Mrelu3_stage4 -> Mconv3_stage4 (in-place)
I0930 02:57:50.141664 14780 net.cpp:150] Setting up Mrelu3_stage4
I0930 02:57:50.142663 14780 net.cpp:157] Top shape: 16 64 24 24 (589824)
I0930 02:57:50.142663 14780 net.cpp:165] Memory required for data: 311943180
I0930 02:57:50.142663 14780 layer_factory.hpp:77] Creating layer Mconv4_stage4
I0930 02:57:50.142663 14780 net.cpp:100] Creating Layer Mconv4_stage4
I0930 02:57:50.142663 14780 net.cpp:444] Mconv4_stage4 <- Mconv3_stage4
I0930 02:57:50.142663 14780 net.cpp:418] Mconv4_stage4 -> Mconv4_stage4
I0930 02:57:50.143663 14780 net.cpp:150] Setting up Mconv4_stage4
I0930 02:57:50.144664 14780 net.cpp:157] Top shape: 16 64 24 24 (589824)
I0930 02:57:50.144664 14780 net.cpp:165] Memory required for data: 314302476
I0930 02:57:50.144664 14780 layer_factory.hpp:77] Creating layer Mrelu4_stage4
I0930 02:57:50.144664 14780 net.cpp:100] Creating Layer Mrelu4_stage4
I0930 02:57:50.144664 14780 net.cpp:444] Mrelu4_stage4 <- Mconv4_stage4
I0930 02:57:50.144664 14780 net.cpp:405] Mrelu4_stage4 -> Mconv4_stage4 (in-place)
I0930 02:57:50.144664 14780 net.cpp:150] Setting up Mrelu4_stage4
I0930 02:57:50.144664 14780 net.cpp:157] Top shape: 16 64 24 24 (589824)
I0930 02:57:50.145663 14780 net.cpp:165] Memory required for data: 316661772
I0930 02:57:50.146663 14780 layer_factory.hpp:77] Creating layer Mconv5_stage4
I0930 02:57:50.146663 14780 net.cpp:100] Creating Layer Mconv5_stage4
I0930 02:57:50.146663 14780 net.cpp:444] Mconv5_stage4 <- Mconv4_stage4
I0930 02:57:50.146663 14780 net.cpp:418] Mconv5_stage4 -> Mconv5_stage4
I0930 02:57:50.148661 14780 net.cpp:150] Setting up Mconv5_stage4
I0930 02:57:50.148661 14780 net.cpp:157] Top shape: 16 13 24 24 (119808)
I0930 02:57:50.148661 14780 net.cpp:165] Memory required for data: 317141004
I0930 02:57:50.148661 14780 layer_factory.hpp:77] Creating layer loss_stage4
I0930 02:57:50.148661 14780 net.cpp:100] Creating Layer loss_stage4
I0930 02:57:50.148661 14780 net.cpp:444] loss_stage4 <- Mconv5_stage4
I0930 02:57:50.148661 14780 net.cpp:444] loss_stage4 <- label_lower_label_lower_0_split_2
…
